module attributes {llvm.data_layout = "e-m:e-p270:32:32-p271:32:32-p272:64:64-i64:64-i128:128-f80:128-n8:16:32:64-S128", llvm.target_triple = "x86_64-unknown-linux-gnu", "onnx-mlir.symbol-postfix" = "model_fixed"} {
  func.func @main_graph(%arg0: tensor<1x128xi64> {onnx.name = "input_ids"}, %arg1: tensor<1x128xi64> {onnx.name = "attention_mask"}, %arg2: tensor<1x128xi64> {onnx.name = "position_ids"}, %arg3: tensor<1x1x1x256xf32> {onnx.name = "past_key_values.0.key"}, %arg4: tensor<1x1x1x256xf32> {onnx.name = "past_key_values.0.value"}, %arg5: tensor<1x1x1x256xf32> {onnx.name = "past_key_values.1.key"}, %arg6: tensor<1x1x1x256xf32> {onnx.name = "past_key_values.1.value"}, %arg7: tensor<1x1x1x256xf32> {onnx.name = "past_key_values.2.key"}, %arg8: tensor<1x1x1x256xf32> {onnx.name = "past_key_values.2.value"}, %arg9: tensor<1x1x1x256xf32> {onnx.name = "past_key_values.3.key"}, %arg10: tensor<1x1x1x256xf32> {onnx.name = "past_key_values.3.value"}, %arg11: tensor<1x1x1x256xf32> {onnx.name = "past_key_values.4.key"}, %arg12: tensor<1x1x1x256xf32> {onnx.name = "past_key_values.4.value"}, %arg13: tensor<1x1x1x256xf32> {onnx.name = "past_key_values.5.key"}, %arg14: tensor<1x1x1x256xf32> {onnx.name = "past_key_values.5.value"}, %arg15: tensor<1x1x1x256xf32> {onnx.name = "past_key_values.6.key"}, %arg16: tensor<1x1x1x256xf32> {onnx.name = "past_key_values.6.value"}, %arg17: tensor<1x1x1x256xf32> {onnx.name = "past_key_values.7.key"}, %arg18: tensor<1x1x1x256xf32> {onnx.name = "past_key_values.7.value"}, %arg19: tensor<1x1x1x256xf32> {onnx.name = "past_key_values.8.key"}, %arg20: tensor<1x1x1x256xf32> {onnx.name = "past_key_values.8.value"}, %arg21: tensor<1x1x1x256xf32> {onnx.name = "past_key_values.9.key"}, %arg22: tensor<1x1x1x256xf32> {onnx.name = "past_key_values.9.value"}, %arg23: tensor<1x1x1x256xf32> {onnx.name = "past_key_values.10.key"}, %arg24: tensor<1x1x1x256xf32> {onnx.name = "past_key_values.10.value"}, %arg25: tensor<1x1x1x256xf32> {onnx.name = "past_key_values.11.key"}, %arg26: tensor<1x1x1x256xf32> {onnx.name = "past_key_values.11.value"}, %arg27: tensor<1x1x1x256xf32> {onnx.name = "past_key_values.12.key"}, %arg28: tensor<1x1x1x256xf32> {onnx.name = "past_key_values.12.value"}, %arg29: tensor<1x1x1x256xf32> {onnx.name = "past_key_values.13.key"}, %arg30: tensor<1x1x1x256xf32> {onnx.name = "past_key_values.13.value"}, %arg31: tensor<1x1x1x256xf32> {onnx.name = "past_key_values.14.key"}, %arg32: tensor<1x1x1x256xf32> {onnx.name = "past_key_values.14.value"}, %arg33: tensor<1x1x1x256xf32> {onnx.name = "past_key_values.15.key"}, %arg34: tensor<1x1x1x256xf32> {onnx.name = "past_key_values.15.value"}, %arg35: tensor<1x1x1x256xf32> {onnx.name = "past_key_values.16.key"}, %arg36: tensor<1x1x1x256xf32> {onnx.name = "past_key_values.16.value"}, %arg37: tensor<1x1x1x256xf32> {onnx.name = "past_key_values.17.key"}, %arg38: tensor<1x1x1x256xf32> {onnx.name = "past_key_values.17.value"}, %arg39: tensor<1x1x1x256xf32> {onnx.name = "past_key_values.18.key"}, %arg40: tensor<1x1x1x256xf32> {onnx.name = "past_key_values.18.value"}, %arg41: tensor<1x1x1x256xf32> {onnx.name = "past_key_values.19.key"}, %arg42: tensor<1x1x1x256xf32> {onnx.name = "past_key_values.19.value"}, %arg43: tensor<1x1x1x256xf32> {onnx.name = "past_key_values.20.key"}, %arg44: tensor<1x1x1x256xf32> {onnx.name = "past_key_values.20.value"}, %arg45: tensor<1x1x1x256xf32> {onnx.name = "past_key_values.21.key"}, %arg46: tensor<1x1x1x256xf32> {onnx.name = "past_key_values.21.value"}, %arg47: tensor<1x1x1x256xf32> {onnx.name = "past_key_values.22.key"}, %arg48: tensor<1x1x1x256xf32> {onnx.name = "past_key_values.22.value"}, %arg49: tensor<1x1x1x256xf32> {onnx.name = "past_key_values.23.key"}, %arg50: tensor<1x1x1x256xf32> {onnx.name = "past_key_values.23.value"}, %arg51: tensor<1x1x1x256xf32> {onnx.name = "past_key_values.24.key"}, %arg52: tensor<1x1x1x256xf32> {onnx.name = "past_key_values.24.value"}, %arg53: tensor<1x1x1x256xf32> {onnx.name = "past_key_values.25.key"}, %arg54: tensor<1x1x1x256xf32> {onnx.name = "past_key_values.25.value"}) -> (tensor<1x128x262144xf32> {onnx.name = "logits"}, tensor<1x1x128x256xf32> {onnx.name = "present.0.key"}, tensor<1x1x128x256xf32> {onnx.name = "present.0.value"}, tensor<1x1x128x256xf32> {onnx.name = "present.1.key"}, tensor<1x1x128x256xf32> {onnx.name = "present.1.value"}, tensor<1x1x128x256xf32> {onnx.name = "present.2.key"}, tensor<1x1x128x256xf32> {onnx.name = "present.2.value"}, tensor<1x1x128x256xf32> {onnx.name = "present.3.key"}, tensor<1x1x128x256xf32> {onnx.name = "present.3.value"}, tensor<1x1x128x256xf32> {onnx.name = "present.4.key"}, tensor<1x1x128x256xf32> {onnx.name = "present.4.value"}, tensor<1x1x128x256xf32> {onnx.name = "present.5.key"}, tensor<1x1x128x256xf32> {onnx.name = "present.5.value"}, tensor<1x1x128x256xf32> {onnx.name = "present.6.key"}, tensor<1x1x128x256xf32> {onnx.name = "present.6.value"}, tensor<1x1x128x256xf32> {onnx.name = "present.7.key"}, tensor<1x1x128x256xf32> {onnx.name = "present.7.value"}, tensor<1x1x128x256xf32> {onnx.name = "present.8.key"}, tensor<1x1x128x256xf32> {onnx.name = "present.8.value"}, tensor<1x1x128x256xf32> {onnx.name = "present.9.key"}, tensor<1x1x128x256xf32> {onnx.name = "present.9.value"}, tensor<1x1x128x256xf32> {onnx.name = "present.10.key"}, tensor<1x1x128x256xf32> {onnx.name = "present.10.value"}, tensor<1x1x128x256xf32> {onnx.name = "present.11.key"}, tensor<1x1x128x256xf32> {onnx.name = "present.11.value"}, tensor<1x1x128x256xf32> {onnx.name = "present.12.key"}, tensor<1x1x128x256xf32> {onnx.name = "present.12.value"}, tensor<1x1x128x256xf32> {onnx.name = "present.13.key"}, tensor<1x1x128x256xf32> {onnx.name = "present.13.value"}, tensor<1x1x128x256xf32> {onnx.name = "present.14.key"}, tensor<1x1x128x256xf32> {onnx.name = "present.14.value"}, tensor<1x1x128x256xf32> {onnx.name = "present.15.key"}, tensor<1x1x128x256xf32> {onnx.name = "present.15.value"}, tensor<1x1x128x256xf32> {onnx.name = "present.16.key"}, tensor<1x1x128x256xf32> {onnx.name = "present.16.value"}, tensor<1x1x128x256xf32> {onnx.name = "present.17.key"}, tensor<1x1x128x256xf32> {onnx.name = "present.17.value"}, tensor<1x1x128x256xf32> {onnx.name = "present.18.key"}, tensor<1x1x128x256xf32> {onnx.name = "present.18.value"}, tensor<1x1x128x256xf32> {onnx.name = "present.19.key"}, tensor<1x1x128x256xf32> {onnx.name = "present.19.value"}, tensor<1x1x128x256xf32> {onnx.name = "present.20.key"}, tensor<1x1x128x256xf32> {onnx.name = "present.20.value"}, tensor<1x1x128x256xf32> {onnx.name = "present.21.key"}, tensor<1x1x128x256xf32> {onnx.name = "present.21.value"}, tensor<1x1x128x256xf32> {onnx.name = "present.22.key"}, tensor<1x1x128x256xf32> {onnx.name = "present.22.value"}, tensor<1x1x128x256xf32> {onnx.name = "present.23.key"}, tensor<1x1x128x256xf32> {onnx.name = "present.23.value"}, tensor<1x1x128x256xf32> {onnx.name = "present.24.key"}, tensor<1x1x128x256xf32> {onnx.name = "present.24.value"}, tensor<1x1x128x256xf32> {onnx.name = "present.25.key"}, tensor<1x1x128x256xf32> {onnx.name = "present.25.value"}) {
    %0 = onnx.Constant dense<128> : tensor<i32>
    %1 = onnx.Constant dense<-1> : tensor<1xi64>
    %2 = onnx.Constant dense_resource<__elided__> : tensor<1152x262144xui8>
    %3 = "onnx.NoValue"() {onnx_node_name = "onnx.NoValue_0", value} : () -> none
    %4 = onnx.Constant dense<1> : tensor<1xi64>
    %5 = onnx.Constant dense<3.394000e+01> : tensor<f32>
    %6 = onnx.Constant dense_resource<__elided__> : tensor<1152xf32>
    %7 = onnx.Constant dense<[0, -1, 256]> : tensor<3xi64>
    %8 = onnx.Constant dense_resource<__elided__> : tensor<256xf32>
    %9 = onnx.Constant dense_resource<__elided__> : tensor<256xf32>
    %10 = onnx.Constant dense<[0, -1, 1024]> : tensor<3xi64>
    %11 = onnx.Constant dense_resource<__elided__> : tensor<32768x128xf32>
    %12 = onnx.Constant dense_resource<__elided__> : tensor<32768x128xf32>
    %13 = onnx.Constant dense_resource<__elided__> : tensor<1152xf32>
    %14 = onnx.Constant dense_resource<__elided__> : tensor<1152xf32>
    %15 = onnx.Constant dense_resource<__elided__> : tensor<1152xf32>
    %16 = onnx.Constant dense_resource<__elided__> : tensor<1152xf32>
    %17 = onnx.Constant dense_resource<__elided__> : tensor<256xf32>
    %18 = onnx.Constant dense_resource<__elided__> : tensor<256xf32>
    %19 = onnx.Constant dense_resource<__elided__> : tensor<1152xf32>
    %20 = onnx.Constant dense_resource<__elided__> : tensor<1152xf32>
    %21 = onnx.Constant dense_resource<__elided__> : tensor<1152xf32>
    %22 = onnx.Constant dense_resource<__elided__> : tensor<1152xf32>
    %23 = onnx.Constant dense_resource<__elided__> : tensor<256xf32>
    %24 = onnx.Constant dense_resource<__elided__> : tensor<256xf32>
    %25 = onnx.Constant dense_resource<__elided__> : tensor<1152xf32>
    %26 = onnx.Constant dense_resource<__elided__> : tensor<1152xf32>
    %27 = onnx.Constant dense_resource<__elided__> : tensor<1152xf32>
    %28 = onnx.Constant dense_resource<__elided__> : tensor<1152xf32>
    %29 = onnx.Constant dense_resource<__elided__> : tensor<256xf32>
    %30 = onnx.Constant dense_resource<__elided__> : tensor<256xf32>
    %31 = onnx.Constant dense_resource<__elided__> : tensor<1152xf32>
    %32 = onnx.Constant dense_resource<__elided__> : tensor<1152xf32>
    %33 = onnx.Constant dense_resource<__elided__> : tensor<1152xf32>
    %34 = onnx.Constant dense_resource<__elided__> : tensor<1152xf32>
    %35 = onnx.Constant dense_resource<__elided__> : tensor<256xf32>
    %36 = onnx.Constant dense_resource<__elided__> : tensor<256xf32>
    %37 = onnx.Constant dense_resource<__elided__> : tensor<1152xf32>
    %38 = onnx.Constant dense_resource<__elided__> : tensor<1152xf32>
    %39 = onnx.Constant dense_resource<__elided__> : tensor<1152xf32>
    %40 = onnx.Constant dense_resource<__elided__> : tensor<1152xf32>
    %41 = onnx.Constant dense_resource<__elided__> : tensor<256xf32>
    %42 = onnx.Constant dense_resource<__elided__> : tensor<256xf32>
    %43 = onnx.Constant dense_resource<__elided__> : tensor<32768x128xf32>
    %44 = onnx.Constant dense_resource<__elided__> : tensor<32768x128xf32>
    %45 = onnx.Constant dense_resource<__elided__> : tensor<1152xf32>
    %46 = onnx.Constant dense_resource<__elided__> : tensor<1152xf32>
    %47 = onnx.Constant dense_resource<__elided__> : tensor<1152xf32>
    %48 = onnx.Constant dense_resource<__elided__> : tensor<1152xf32>
    %49 = onnx.Constant dense_resource<__elided__> : tensor<256xf32>
    %50 = onnx.Constant dense_resource<__elided__> : tensor<256xf32>
    %51 = onnx.Constant dense_resource<__elided__> : tensor<1152xf32>
    %52 = onnx.Constant dense_resource<__elided__> : tensor<1152xf32>
    %53 = onnx.Constant dense_resource<__elided__> : tensor<1152xf32>
    %54 = onnx.Constant dense_resource<__elided__> : tensor<1152xf32>
    %55 = onnx.Constant dense_resource<__elided__> : tensor<256xf32>
    %56 = onnx.Constant dense_resource<__elided__> : tensor<256xf32>
    %57 = onnx.Constant dense_resource<__elided__> : tensor<1152xf32>
    %58 = onnx.Constant dense_resource<__elided__> : tensor<1152xf32>
    %59 = onnx.Constant dense_resource<__elided__> : tensor<1152xf32>
    %60 = onnx.Constant dense_resource<__elided__> : tensor<1152xf32>
    %61 = onnx.Constant dense_resource<__elided__> : tensor<256xf32>
    %62 = onnx.Constant dense_resource<__elided__> : tensor<256xf32>
    %63 = onnx.Constant dense_resource<__elided__> : tensor<1152xf32>
    %64 = onnx.Constant dense_resource<__elided__> : tensor<1152xf32>
    %65 = onnx.Constant dense_resource<__elided__> : tensor<1152xf32>
    %66 = onnx.Constant dense_resource<__elided__> : tensor<1152xf32>
    %67 = onnx.Constant dense_resource<__elided__> : tensor<256xf32>
    %68 = onnx.Constant dense_resource<__elided__> : tensor<256xf32>
    %69 = onnx.Constant dense_resource<__elided__> : tensor<1152xf32>
    %70 = onnx.Constant dense_resource<__elided__> : tensor<1152xf32>
    %71 = onnx.Constant dense_resource<__elided__> : tensor<1152xf32>
    %72 = onnx.Constant dense_resource<__elided__> : tensor<1152xf32>
    %73 = onnx.Constant dense_resource<__elided__> : tensor<256xf32>
    %74 = onnx.Constant dense_resource<__elided__> : tensor<256xf32>
    %75 = onnx.Constant dense_resource<__elided__> : tensor<1152xf32>
    %76 = onnx.Constant dense_resource<__elided__> : tensor<1152xf32>
    %77 = onnx.Constant dense_resource<__elided__> : tensor<1152xf32>
    %78 = onnx.Constant dense_resource<__elided__> : tensor<1152xf32>
    %79 = onnx.Constant dense_resource<__elided__> : tensor<256xf32>
    %80 = onnx.Constant dense_resource<__elided__> : tensor<256xf32>
    %81 = onnx.Constant dense_resource<__elided__> : tensor<1152xf32>
    %82 = onnx.Constant dense_resource<__elided__> : tensor<1152xf32>
    %83 = onnx.Constant dense_resource<__elided__> : tensor<1152xf32>
    %84 = onnx.Constant dense_resource<__elided__> : tensor<1152xf32>
    %85 = onnx.Constant dense_resource<__elided__> : tensor<256xf32>
    %86 = onnx.Constant dense_resource<__elided__> : tensor<256xf32>
    %87 = onnx.Constant dense_resource<__elided__> : tensor<1152xf32>
    %88 = onnx.Constant dense_resource<__elided__> : tensor<1152xf32>
    %89 = onnx.Constant dense_resource<__elided__> : tensor<1152xf32>
    %90 = onnx.Constant dense_resource<__elided__> : tensor<1152xf32>
    %91 = onnx.Constant dense_resource<__elided__> : tensor<256xf32>
    %92 = onnx.Constant dense_resource<__elided__> : tensor<256xf32>
    %93 = onnx.Constant dense_resource<__elided__> : tensor<1152xf32>
    %94 = onnx.Constant dense_resource<__elided__> : tensor<1152xf32>
    %95 = onnx.Constant dense_resource<__elided__> : tensor<1152xf32>
    %96 = onnx.Constant dense_resource<__elided__> : tensor<1152xf32>
    %97 = onnx.Constant dense_resource<__elided__> : tensor<256xf32>
    %98 = onnx.Constant dense_resource<__elided__> : tensor<256xf32>
    %99 = onnx.Constant dense_resource<__elided__> : tensor<1152xf32>
    %100 = onnx.Constant dense_resource<__elided__> : tensor<1152xf32>
    %101 = onnx.Constant dense_resource<__elided__> : tensor<1152xf32>
    %102 = onnx.Constant dense_resource<__elided__> : tensor<1152xf32>
    %103 = onnx.Constant dense_resource<__elided__> : tensor<256xf32>
    %104 = onnx.Constant dense_resource<__elided__> : tensor<256xf32>
    %105 = onnx.Constant dense_resource<__elided__> : tensor<1152xf32>
    %106 = onnx.Constant dense_resource<__elided__> : tensor<1152xf32>
    %107 = onnx.Constant dense_resource<__elided__> : tensor<1152xf32>
    %108 = onnx.Constant dense_resource<__elided__> : tensor<1152xf32>
    %109 = onnx.Constant dense_resource<__elided__> : tensor<256xf32>
    %110 = onnx.Constant dense_resource<__elided__> : tensor<256xf32>
    %111 = onnx.Constant dense_resource<__elided__> : tensor<1152xf32>
    %112 = onnx.Constant dense_resource<__elided__> : tensor<1152xf32>
    %113 = onnx.Constant dense_resource<__elided__> : tensor<1152xf32>
    %114 = onnx.Constant dense_resource<__elided__> : tensor<1152xf32>
    %115 = onnx.Constant dense_resource<__elided__> : tensor<256xf32>
    %116 = onnx.Constant dense_resource<__elided__> : tensor<256xf32>
    %117 = onnx.Constant dense_resource<__elided__> : tensor<1152xf32>
    %118 = onnx.Constant dense_resource<__elided__> : tensor<1152xf32>
    %119 = onnx.Constant dense_resource<__elided__> : tensor<1152xf32>
    %120 = onnx.Constant dense_resource<__elided__> : tensor<1152xf32>
    %121 = onnx.Constant dense_resource<__elided__> : tensor<256xf32>
    %122 = onnx.Constant dense_resource<__elided__> : tensor<256xf32>
    %123 = onnx.Constant dense_resource<__elided__> : tensor<1152xf32>
    %124 = onnx.Constant dense_resource<__elided__> : tensor<1152xf32>
    %125 = onnx.Constant dense_resource<__elided__> : tensor<1152xf32>
    %126 = onnx.Constant dense_resource<__elided__> : tensor<1152xf32>
    %127 = onnx.Constant dense_resource<__elided__> : tensor<256xf32>
    %128 = onnx.Constant dense_resource<__elided__> : tensor<256xf32>
    %129 = onnx.Constant dense_resource<__elided__> : tensor<1152xf32>
    %130 = onnx.Constant dense_resource<__elided__> : tensor<1152xf32>
    %131 = onnx.Constant dense_resource<__elided__> : tensor<1152xf32>
    %132 = onnx.Constant dense_resource<__elided__> : tensor<1152xf32>
    %133 = onnx.Constant dense_resource<__elided__> : tensor<256xf32>
    %134 = onnx.Constant dense_resource<__elided__> : tensor<256xf32>
    %135 = onnx.Constant dense_resource<__elided__> : tensor<1152xf32>
    %136 = onnx.Constant dense_resource<__elided__> : tensor<1152xf32>
    %137 = onnx.Constant dense_resource<__elided__> : tensor<1152xf32>
    %138 = onnx.Constant dense_resource<__elided__> : tensor<1152xf32>
    %139 = onnx.Constant dense_resource<__elided__> : tensor<256xf32>
    %140 = onnx.Constant dense_resource<__elided__> : tensor<256xf32>
    %141 = onnx.Constant dense_resource<__elided__> : tensor<1152xf32>
    %142 = onnx.Constant dense_resource<__elided__> : tensor<1152xf32>
    %143 = onnx.Constant dense_resource<__elided__> : tensor<1152xf32>
    %144 = onnx.Constant dense_resource<__elided__> : tensor<1152xf32>
    %145 = onnx.Constant dense_resource<__elided__> : tensor<256xf32>
    %146 = onnx.Constant dense_resource<__elided__> : tensor<256xf32>
    %147 = onnx.Constant dense_resource<__elided__> : tensor<1152xf32>
    %148 = onnx.Constant dense_resource<__elided__> : tensor<1152xf32>
    %149 = onnx.Constant dense_resource<__elided__> : tensor<1152xf32>
    %150 = onnx.Constant dense_resource<__elided__> : tensor<1152xf32>
    %151 = onnx.Constant dense_resource<__elided__> : tensor<256xf32>
    %152 = onnx.Constant dense_resource<__elided__> : tensor<256xf32>
    %153 = onnx.Constant dense_resource<__elided__> : tensor<1152xf32>
    %154 = onnx.Constant dense_resource<__elided__> : tensor<1152xf32>
    %155 = onnx.Constant dense_resource<__elided__> : tensor<1152xf32>
    %156 = onnx.Constant dense_resource<__elided__> : tensor<1152xf32>
    %157 = onnx.Constant dense_resource<__elided__> : tensor<256xf32>
    %158 = onnx.Constant dense_resource<__elided__> : tensor<256xf32>
    %159 = onnx.Constant dense_resource<__elided__> : tensor<1152xf32>
    %160 = onnx.Constant dense_resource<__elided__> : tensor<1152xf32>
    %161 = onnx.Constant dense_resource<__elided__> : tensor<1152xf32>
    %162 = onnx.Constant dense_resource<__elided__> : tensor<1152xf32>
    %163 = onnx.Constant dense_resource<__elided__> : tensor<256xf32>
    %164 = onnx.Constant dense_resource<__elided__> : tensor<256xf32>
    %165 = onnx.Constant dense_resource<__elided__> : tensor<1152xf32>
    %166 = onnx.Constant dense_resource<__elided__> : tensor<1152xf32>
    %167 = onnx.Constant dense_resource<__elided__> : tensor<1152xf32>
    %168 = onnx.Constant dense_resource<__elided__> : tensor<1152xf32>
    %169 = onnx.Constant dense<0.00582107855> : tensor<f32>
    %170 = onnx.Constant dense<128> : tensor<ui8>
    %171 = onnx.Constant dense_resource<__elided__> : tensor<262144x1152xui8>
    %172 = onnx.Constant dense<0.00286048232> : tensor<f32>
    %173 = onnx.Constant dense<0> : tensor<i8>
    %174 = onnx.Constant dense_resource<__elided__> : tensor<1152x1024xi8>
    %175 = onnx.Constant dense<0.00229146169> : tensor<f32>
    %176 = onnx.Constant dense<0> : tensor<i8>
    %177 = onnx.Constant dense_resource<__elided__> : tensor<1152x256xi8>
    %178 = onnx.Constant dense<0.00182240398> : tensor<f32>
    %179 = onnx.Constant dense<0> : tensor<i8>
    %180 = onnx.Constant dense_resource<__elided__> : tensor<1152x256xi8>
    %181 = onnx.Constant dense<0.00146099902> : tensor<f32>
    %182 = onnx.Constant dense<0> : tensor<i8>
    %183 = onnx.Constant dense_resource<__elided__> : tensor<1024x1152xi8>
    %184 = onnx.Constant dense<0.00330647151> : tensor<f32>
    %185 = onnx.Constant dense<0> : tensor<i8>
    %186 = onnx.Constant dense_resource<__elided__> : tensor<1152x6912xi8>
    %187 = onnx.Constant dense<0.00479822839> : tensor<f32>
    %188 = onnx.Constant dense<0> : tensor<i8>
    %189 = onnx.Constant dense_resource<__elided__> : tensor<1152x6912xi8>
    %190 = onnx.Constant dense<0.00201464072> : tensor<f32>
    %191 = onnx.Constant dense<0> : tensor<i8>
    %192 = onnx.Constant dense_resource<__elided__> : tensor<6912x1152xi8>
    %193 = onnx.Constant dense<0.00593626965> : tensor<f32>
    %194 = onnx.Constant dense<0> : tensor<i8>
    %195 = onnx.Constant dense_resource<__elided__> : tensor<1152x1024xi8>
    %196 = onnx.Constant dense<0.00232221955> : tensor<f32>
    %197 = onnx.Constant dense<0> : tensor<i8>
    %198 = onnx.Constant dense_resource<__elided__> : tensor<1152x256xi8>
    %199 = onnx.Constant dense<0.00193774607> : tensor<f32>
    %200 = onnx.Constant dense<0> : tensor<i8>
    %201 = onnx.Constant dense_resource<__elided__> : tensor<1152x256xi8>
    %202 = onnx.Constant dense<0.00409079716> : tensor<f32>
    %203 = onnx.Constant dense<0> : tensor<i8>
    %204 = onnx.Constant dense_resource<__elided__> : tensor<1024x1152xi8>
    %205 = onnx.Constant dense<0.00339874509> : tensor<f32>
    %206 = onnx.Constant dense<0> : tensor<i8>
    %207 = onnx.Constant dense_resource<__elided__> : tensor<1152x6912xi8>
    %208 = onnx.Constant dense<0.00321419793> : tensor<f32>
    %209 = onnx.Constant dense<0> : tensor<i8>
    %210 = onnx.Constant dense_resource<__elided__> : tensor<1152x6912xi8>
    %211 = onnx.Constant dense<0.00213767216> : tensor<f32>
    %212 = onnx.Constant dense<0> : tensor<i8>
    %213 = onnx.Constant dense_resource<__elided__> : tensor<6912x1152xi8>
    %214 = onnx.Constant dense<0.00270669302> : tensor<f32>
    %215 = onnx.Constant dense<0> : tensor<i8>
    %216 = onnx.Constant dense_resource<__elided__> : tensor<1152x1024xi8>
    %217 = onnx.Constant dense<0.00321419793> : tensor<f32>
    %218 = onnx.Constant dense<0> : tensor<i8>
    %219 = onnx.Constant dense_resource<__elided__> : tensor<1152x256xi8>
    %220 = onnx.Constant dense<0.00242987205> : tensor<f32>
    %221 = onnx.Constant dense<0> : tensor<i8>
    %222 = onnx.Constant dense_resource<__elided__> : tensor<1152x256xi8>
    %223 = onnx.Constant dense<0.00402928144> : tensor<f32>
    %224 = onnx.Constant dense<0> : tensor<i8>
    %225 = onnx.Constant dense_resource<__elided__> : tensor<1024x1152xi8>
    %226 = onnx.Constant dense<0.00321419793> : tensor<f32>
    %227 = onnx.Constant dense<0> : tensor<i8>
    %228 = onnx.Constant dense_resource<__elided__> : tensor<1152x6912xi8>
    %229 = onnx.Constant dense<0.00284510339> : tensor<f32>
    %230 = onnx.Constant dense<0> : tensor<i8>
    %231 = onnx.Constant dense_resource<__elided__> : tensor<1152x6912xi8>
    %232 = onnx.Constant dense<0.00276820874> : tensor<f32>
    %233 = onnx.Constant dense<0> : tensor<i8>
    %234 = onnx.Constant dense_resource<__elided__> : tensor<6912x1152xi8>
    %235 = onnx.Constant dense<0.00249138777> : tensor<f32>
    %236 = onnx.Constant dense<0> : tensor<i8>
    %237 = onnx.Constant dense_resource<__elided__> : tensor<1152x1024xi8>
    %238 = onnx.Constant dense<0.00212229323> : tensor<f32>
    %239 = onnx.Constant dense<0> : tensor<i8>
    %240 = onnx.Constant dense_resource<__elided__> : tensor<1152x256xi8>
    %241 = onnx.Constant dense<0.00189929875> : tensor<f32>
    %242 = onnx.Constant dense<0> : tensor<i8>
    %243 = onnx.Constant dense_resource<__elided__> : tensor<1152x256xi8>
    %244 = onnx.Constant dense<0.00138410437> : tensor<f32>
    %245 = onnx.Constant dense<0> : tensor<i8>
    %246 = onnx.Constant dense_resource<__elided__> : tensor<1024x1152xi8>
    %247 = onnx.Constant dense<0.00290661911> : tensor<f32>
    %248 = onnx.Constant dense<0> : tensor<i8>
    %249 = onnx.Constant dense_resource<__elided__> : tensor<1152x6912xi8>
    %250 = onnx.Constant dense<0.00272207195> : tensor<f32>
    %251 = onnx.Constant dense<0> : tensor<i8>
    %252 = onnx.Constant dense_resource<__elided__> : tensor<1152x6912xi8>
    %253 = onnx.Constant dense<0.0016224779> : tensor<f32>
    %254 = onnx.Constant dense<0> : tensor<i8>
    %255 = onnx.Constant dense_resource<__elided__> : tensor<6912x1152xi8>
    %256 = onnx.Constant dense<0.00525959628> : tensor<f32>
    %257 = onnx.Constant dense<0> : tensor<i8>
    %258 = onnx.Constant dense_resource<__elided__> : tensor<1152x1024xi8>
    %259 = onnx.Constant dense<0.00218380895> : tensor<f32>
    %260 = onnx.Constant dense<0> : tensor<i8>
    %261 = onnx.Constant dense_resource<__elided__> : tensor<1152x256xi8>
    %262 = onnx.Constant dense<0.0013994833> : tensor<f32>
    %263 = onnx.Constant dense<0> : tensor<i8>
    %264 = onnx.Constant dense_resource<__elided__> : tensor<1152x256xi8>
    %265 = onnx.Constant dense<0.00185316196> : tensor<f32>
    %266 = onnx.Constant dense<0> : tensor<i8>
    %267 = onnx.Constant dense_resource<__elided__> : tensor<1024x1152xi8>
    %268 = onnx.Constant dense<0.00376783963> : tensor<f32>
    %269 = onnx.Constant dense<0> : tensor<i8>
    %270 = onnx.Constant dense_resource<__elided__> : tensor<1152x6912xi8>
    %271 = onnx.Constant dense<0.00339874509> : tensor<f32>
    %272 = onnx.Constant dense<0> : tensor<i8>
    %273 = onnx.Constant dense_resource<__elided__> : tensor<1152x6912xi8>
    %274 = onnx.Constant dense<0.00104576768> : tensor<f32>
    %275 = onnx.Constant dense<0> : tensor<i8>
    %276 = onnx.Constant dense_resource<__elided__> : tensor<6912x1152xi8>
    %277 = onnx.Constant dense<0.00198388286> : tensor<f32>
    %278 = onnx.Constant dense<0> : tensor<i8>
    %279 = onnx.Constant dense_resource<__elided__> : tensor<1152x1024xi8>
    %280 = onnx.Constant dense<0.00541338604> : tensor<f32>
    %281 = onnx.Constant dense<0> : tensor<i8>
    %282 = onnx.Constant dense_resource<__elided__> : tensor<1152x256xi8>
    %283 = onnx.Constant dense<0.00198388286> : tensor<f32>
    %284 = onnx.Constant dense<0> : tensor<i8>
    %285 = onnx.Constant dense_resource<__elided__> : tensor<1152x256xi8>
    %286 = onnx.Constant dense<0.00244525098> : tensor<f32>
    %287 = onnx.Constant dense<0> : tensor<i8>
    %288 = onnx.Constant dense_resource<__elided__> : tensor<1024x1152xi8>
    %289 = onnx.Constant dense<0.00336798723> : tensor<f32>
    %290 = onnx.Constant dense<0> : tensor<i8>
    %291 = onnx.Constant dense_resource<__elided__> : tensor<1152x6912xi8>
    %292 = onnx.Constant dense<0.00415231287> : tensor<f32>
    %293 = onnx.Constant dense<0> : tensor<i8>
    %294 = onnx.Constant dense_resource<__elided__> : tensor<1152x6912xi8>
    %295 = onnx.Constant dense<0.00290661911> : tensor<f32>
    %296 = onnx.Constant dense<0> : tensor<i8>
    %297 = onnx.Constant dense_resource<__elided__> : tensor<6912x1152xi8>
    %298 = onnx.Constant dense<0.00177626719> : tensor<f32>
    %299 = onnx.Constant dense<0> : tensor<i8>
    %300 = onnx.Constant dense_resource<__elided__> : tensor<1152x1024xi8>
    %301 = onnx.Constant dense<0.00302965054> : tensor<f32>
    %302 = onnx.Constant dense<0> : tensor<i8>
    %303 = onnx.Constant dense_resource<__elided__> : tensor<1152x256xi8>
    %304 = onnx.Constant dense<0.00194543554> : tensor<f32>
    %305 = onnx.Constant dense<0> : tensor<i8>
    %306 = onnx.Constant dense_resource<__elided__> : tensor<1152x256xi8>
    %307 = onnx.Constant dense<0.00342950295> : tensor<f32>
    %308 = onnx.Constant dense<0> : tensor<i8>
    %309 = onnx.Constant dense_resource<__elided__> : tensor<1024x1152xi8>
    %310 = onnx.Constant dense<0.00373708177> : tensor<f32>
    %311 = onnx.Constant dense<0> : tensor<i8>
    %312 = onnx.Constant dense_resource<__elided__> : tensor<1152x6912xi8>
    %313 = onnx.Constant dense<0.00347563974> : tensor<f32>
    %314 = onnx.Constant dense<0> : tensor<i8>
    %315 = onnx.Constant dense_resource<__elided__> : tensor<1152x6912xi8>
    %316 = onnx.Constant dense<0.0025067667> : tensor<f32>
    %317 = onnx.Constant dense<0> : tensor<i8>
    %318 = onnx.Constant dense_resource<__elided__> : tensor<6912x1152xi8>
    %319 = onnx.Constant dense<0.00239911419> : tensor<f32>
    %320 = onnx.Constant dense<0> : tensor<i8>
    %321 = onnx.Constant dense_resource<__elided__> : tensor<1152x1024xi8>
    %322 = onnx.Constant dense<0.00241449312> : tensor<f32>
    %323 = onnx.Constant dense<0> : tensor<i8>
    %324 = onnx.Constant dense_resource<__elided__> : tensor<1152x256xi8>
    %325 = onnx.Constant dense<0.00169937254> : tensor<f32>
    %326 = onnx.Constant dense<0> : tensor<i8>
    %327 = onnx.Constant dense_resource<__elided__> : tensor<1152x256xi8>
    %328 = onnx.Constant dense<0.00373708177> : tensor<f32>
    %329 = onnx.Constant dense<0> : tensor<i8>
    %330 = onnx.Constant dense_resource<__elided__> : tensor<1024x1152xi8>
    %331 = onnx.Constant dense<5.351870e-03> : tensor<f32>
    %332 = onnx.Constant dense<0> : tensor<i8>
    %333 = onnx.Constant dense_resource<__elided__> : tensor<1152x6912xi8>
    %334 = onnx.Constant dense<0.00476747053> : tensor<f32>
    %335 = onnx.Constant dense<0> : tensor<i8>
    %336 = onnx.Constant dense_resource<__elided__> : tensor<1152x6912xi8>
    %337 = onnx.Constant dense<0.0017531988> : tensor<f32>
    %338 = onnx.Constant dense<0> : tensor<i8>
    %339 = onnx.Constant dense_resource<__elided__> : tensor<6912x1152xi8>
    %340 = onnx.Constant dense<0.0023529774> : tensor<f32>
    %341 = onnx.Constant dense<0> : tensor<i8>
    %342 = onnx.Constant dense_resource<__elided__> : tensor<1152x1024xi8>
    %343 = onnx.Constant dense<0.00304502947> : tensor<f32>
    %344 = onnx.Constant dense<0> : tensor<i8>
    %345 = onnx.Constant dense_resource<__elided__> : tensor<1152x256xi8>
    %346 = onnx.Constant dense<0.0021069143> : tensor<f32>
    %347 = onnx.Constant dense<0> : tensor<i8>
    %348 = onnx.Constant dense_resource<__elided__> : tensor<1152x256xi8>
    %349 = onnx.Constant dense<0.00349101867> : tensor<f32>
    %350 = onnx.Constant dense<0> : tensor<i8>
    %351 = onnx.Constant dense_resource<__elided__> : tensor<1024x1152xi8>
    %352 = onnx.Constant dense<0.00525959628> : tensor<f32>
    %353 = onnx.Constant dense<0> : tensor<i8>
    %354 = onnx.Constant dense_resource<__elided__> : tensor<1152x6912xi8>
    %355 = onnx.Constant dense<0.00455216551> : tensor<f32>
    %356 = onnx.Constant dense<0> : tensor<i8>
    %357 = onnx.Constant dense_resource<__elided__> : tensor<1152x6912xi8>
    %358 = onnx.Constant dense<0.00133796746> : tensor<f32>
    %359 = onnx.Constant dense<0> : tensor<i8>
    %360 = onnx.Constant dense_resource<__elided__> : tensor<6912x1152xi8>
    %361 = onnx.Constant dense<0.00144562009> : tensor<f32>
    %362 = onnx.Constant dense<0> : tensor<i8>
    %363 = onnx.Constant dense_resource<__elided__> : tensor<1152x1024xi8>
    %364 = onnx.Constant dense<3.614050e-03> : tensor<f32>
    %365 = onnx.Constant dense<0> : tensor<i8>
    %366 = onnx.Constant dense_resource<__elided__> : tensor<1152x256xi8>
    %367 = onnx.Constant dense<0.00247600884> : tensor<f32>
    %368 = onnx.Constant dense<0> : tensor<i8>
    %369 = onnx.Constant dense_resource<__elided__> : tensor<1152x256xi8>
    %370 = onnx.Constant dense<0.00185316196> : tensor<f32>
    %371 = onnx.Constant dense<0> : tensor<i8>
    %372 = onnx.Constant dense_resource<__elided__> : tensor<1024x1152xi8>
    %373 = onnx.Constant dense<0.00333722937> : tensor<f32>
    %374 = onnx.Constant dense<0> : tensor<i8>
    %375 = onnx.Constant dense_resource<__elided__> : tensor<1152x6912xi8>
    %376 = onnx.Constant dense<0.00316806091> : tensor<f32>
    %377 = onnx.Constant dense<0> : tensor<i8>
    %378 = onnx.Constant dense_resource<__elided__> : tensor<1152x6912xi8>
    %379 = onnx.Constant dense<0.00226070383> : tensor<f32>
    %380 = onnx.Constant dense<0> : tensor<i8>
    %381 = onnx.Constant dense_resource<__elided__> : tensor<6912x1152xi8>
    %382 = onnx.Constant dense<0.00304502947> : tensor<f32>
    %383 = onnx.Constant dense<0> : tensor<i8>
    %384 = onnx.Constant dense_resource<__elided__> : tensor<1152x1024xi8>
    %385 = onnx.Constant dense<0.00183009345> : tensor<f32>
    %386 = onnx.Constant dense<0> : tensor<i8>
    %387 = onnx.Constant dense_resource<__elided__> : tensor<1152x256xi8>
    %388 = onnx.Constant dense<0.00183778303> : tensor<f32>
    %389 = onnx.Constant dense<0> : tensor<i8>
    %390 = onnx.Constant dense_resource<__elided__> : tensor<1152x256xi8>
    %391 = onnx.Constant dense<0.00174550933> : tensor<f32>
    %392 = onnx.Constant dense<0> : tensor<i8>
    %393 = onnx.Constant dense_resource<__elided__> : tensor<1024x1152xi8>
    %394 = onnx.Constant dense<0.005321112> : tensor<f32>
    %395 = onnx.Constant dense<0> : tensor<i8>
    %396 = onnx.Constant dense_resource<__elided__> : tensor<1152x6912xi8>
    %397 = onnx.Constant dense<0.0051673227> : tensor<f32>
    %398 = onnx.Constant dense<0> : tensor<i8>
    %399 = onnx.Constant dense_resource<__elided__> : tensor<1152x6912xi8>
    %400 = onnx.Constant dense<0.00244525098> : tensor<f32>
    %401 = onnx.Constant dense<0> : tensor<i8>
    %402 = onnx.Constant dense_resource<__elided__> : tensor<6912x1152xi8>
    %403 = onnx.Constant dense<0.00364480796> : tensor<f32>
    %404 = onnx.Constant dense<0> : tensor<i8>
    %405 = onnx.Constant dense_resource<__elided__> : tensor<1152x1024xi8>
    %406 = onnx.Constant dense<0.00346026081> : tensor<f32>
    %407 = onnx.Constant dense<0> : tensor<i8>
    %408 = onnx.Constant dense_resource<__elided__> : tensor<1152x256xi8>
    %409 = onnx.Constant dense<0.00177626719> : tensor<f32>
    %410 = onnx.Constant dense<0> : tensor<i8>
    %411 = onnx.Constant dense_resource<__elided__> : tensor<1152x256xi8>
    %412 = onnx.Constant dense<0.00282972446> : tensor<f32>
    %413 = onnx.Constant dense<0> : tensor<i8>
    %414 = onnx.Constant dense_resource<__elided__> : tensor<1024x1152xi8>
    %415 = onnx.Constant dense<0.00556717534> : tensor<f32>
    %416 = onnx.Constant dense<0> : tensor<i8>
    %417 = onnx.Constant dense_resource<__elided__> : tensor<1152x6912xi8>
    %418 = onnx.Constant dense<0.00495201768> : tensor<f32>
    %419 = onnx.Constant dense<0> : tensor<i8>
    %420 = onnx.Constant dense_resource<__elided__> : tensor<1152x6912xi8>
    %421 = onnx.Constant dense<0.00213767216> : tensor<f32>
    %422 = onnx.Constant dense<0> : tensor<i8>
    %423 = onnx.Constant dense_resource<__elided__> : tensor<6912x1152xi8>
    %424 = onnx.Constant dense<0.00186085142> : tensor<f32>
    %425 = onnx.Constant dense<0> : tensor<i8>
    %426 = onnx.Constant dense_resource<__elided__> : tensor<1152x1024xi8>
    %427 = onnx.Constant dense<0.00342950295> : tensor<f32>
    %428 = onnx.Constant dense<0> : tensor<i8>
    %429 = onnx.Constant dense_resource<__elided__> : tensor<1152x256xi8>
    %430 = onnx.Constant dense<0.00201464072> : tensor<f32>
    %431 = onnx.Constant dense<0> : tensor<i8>
    %432 = onnx.Constant dense_resource<__elided__> : tensor<1152x256xi8>
    %433 = onnx.Constant dense<0.00336798723> : tensor<f32>
    %434 = onnx.Constant dense<0> : tensor<i8>
    %435 = onnx.Constant dense_resource<__elided__> : tensor<1024x1152xi8>
    %436 = onnx.Constant dense<0.00553641748> : tensor<f32>
    %437 = onnx.Constant dense<0> : tensor<i8>
    %438 = onnx.Constant dense_resource<__elided__> : tensor<1152x6912xi8>
    %439 = onnx.Constant dense<0.00504429126> : tensor<f32>
    %440 = onnx.Constant dense<0> : tensor<i8>
    %441 = onnx.Constant dense_resource<__elided__> : tensor<1152x6912xi8>
    %442 = onnx.Constant dense<0.00145330955> : tensor<f32>
    %443 = onnx.Constant dense<0> : tensor<i8>
    %444 = onnx.Constant dense_resource<__elided__> : tensor<6912x1152xi8>
    %445 = onnx.Constant dense<0.00204539858> : tensor<f32>
    %446 = onnx.Constant dense<0> : tensor<i8>
    %447 = onnx.Constant dense_resource<__elided__> : tensor<1152x1024xi8>
    %448 = onnx.Constant dense<0.00329109258> : tensor<f32>
    %449 = onnx.Constant dense<0> : tensor<i8>
    %450 = onnx.Constant dense_resource<__elided__> : tensor<1152x256xi8>
    %451 = onnx.Constant dense<0.00179933559> : tensor<f32>
    %452 = onnx.Constant dense<0> : tensor<i8>
    %453 = onnx.Constant dense_resource<__elided__> : tensor<1152x256xi8>
    %454 = onnx.Constant dense<0.00290661911> : tensor<f32>
    %455 = onnx.Constant dense<0> : tensor<i8>
    %456 = onnx.Constant dense_resource<__elided__> : tensor<1024x1152xi8>
    %457 = onnx.Constant dense<0.00541338604> : tensor<f32>
    %458 = onnx.Constant dense<0> : tensor<i8>
    %459 = onnx.Constant dense_resource<__elided__> : tensor<1152x6912xi8>
    %460 = onnx.Constant dense<0.00356791331> : tensor<f32>
    %461 = onnx.Constant dense<0> : tensor<i8>
    %462 = onnx.Constant dense_resource<__elided__> : tensor<1152x6912xi8>
    %463 = onnx.Constant dense<0.00113035191> : tensor<f32>
    %464 = onnx.Constant dense<0> : tensor<i8>
    %465 = onnx.Constant dense_resource<__elided__> : tensor<6912x1152xi8>
    %466 = onnx.Constant dense<0.00209153537> : tensor<f32>
    %467 = onnx.Constant dense<0> : tensor<i8>
    %468 = onnx.Constant dense_resource<__elided__> : tensor<1152x1024xi8>
    %469 = onnx.Constant dense<0.0030604084> : tensor<f32>
    %470 = onnx.Constant dense<0> : tensor<i8>
    %471 = onnx.Constant dense_resource<__elided__> : tensor<1152x256xi8>
    %472 = onnx.Constant dense<0.00198388286> : tensor<f32>
    %473 = onnx.Constant dense<0> : tensor<i8>
    %474 = onnx.Constant dense_resource<__elided__> : tensor<1152x256xi8>
    %475 = onnx.Constant dense<0.00349101867> : tensor<f32>
    %476 = onnx.Constant dense<0> : tensor<i8>
    %477 = onnx.Constant dense_resource<__elided__> : tensor<1024x1152xi8>
    %478 = onnx.Constant dense<8.243110e-03> : tensor<f32>
    %479 = onnx.Constant dense<0> : tensor<i8>
    %480 = onnx.Constant dense_resource<__elided__> : tensor<1152x6912xi8>
    %481 = onnx.Constant dense<0.00379859749> : tensor<f32>
    %482 = onnx.Constant dense<0> : tensor<i8>
    %483 = onnx.Constant dense_resource<__elided__> : tensor<1152x6912xi8>
    %484 = onnx.Constant dense<0.0015302042> : tensor<f32>
    %485 = onnx.Constant dense<0> : tensor<i8>
    %486 = onnx.Constant dense_resource<__elided__> : tensor<6912x1152xi8>
    %487 = onnx.Constant dense<0.00170706201> : tensor<f32>
    %488 = onnx.Constant dense<0> : tensor<i8>
    %489 = onnx.Constant dense_resource<__elided__> : tensor<1152x1024xi8>
    %490 = onnx.Constant dense<0.00275282981> : tensor<f32>
    %491 = onnx.Constant dense<0> : tensor<i8>
    %492 = onnx.Constant dense_resource<__elided__> : tensor<1152x256xi8>
    %493 = onnx.Constant dense<0.00276820874> : tensor<f32>
    %494 = onnx.Constant dense<0> : tensor<i8>
    %495 = onnx.Constant dense_resource<__elided__> : tensor<1152x256xi8>
    %496 = onnx.Constant dense<0.00396776572> : tensor<f32>
    %497 = onnx.Constant dense<0> : tensor<i8>
    %498 = onnx.Constant dense_resource<__elided__> : tensor<1024x1152xi8>
    %499 = onnx.Constant dense<0.00753567926> : tensor<f32>
    %500 = onnx.Constant dense<0> : tensor<i8>
    %501 = onnx.Constant dense_resource<__elided__> : tensor<1152x6912xi8>
    %502 = onnx.Constant dense<0.00367556605> : tensor<f32>
    %503 = onnx.Constant dense<0> : tensor<i8>
    %504 = onnx.Constant dense_resource<__elided__> : tensor<1152x6912xi8>
    %505 = onnx.Constant dense<0.00204539858> : tensor<f32>
    %506 = onnx.Constant dense<0> : tensor<i8>
    %507 = onnx.Constant dense_resource<__elided__> : tensor<6912x1152xi8>
    %508 = onnx.Constant dense<0.00252214563> : tensor<f32>
    %509 = onnx.Constant dense<0> : tensor<i8>
    %510 = onnx.Constant dense_resource<__elided__> : tensor<1152x1024xi8>
    %511 = onnx.Constant dense<0.00270669302> : tensor<f32>
    %512 = onnx.Constant dense<0> : tensor<i8>
    %513 = onnx.Constant dense_resource<__elided__> : tensor<1152x256xi8>
    %514 = onnx.Constant dense<0.00183778303> : tensor<f32>
    %515 = onnx.Constant dense<0> : tensor<i8>
    %516 = onnx.Constant dense_resource<__elided__> : tensor<1152x256xi8>
    %517 = onnx.Constant dense<0.00201464072> : tensor<f32>
    %518 = onnx.Constant dense<0> : tensor<i8>
    %519 = onnx.Constant dense_resource<__elided__> : tensor<1024x1152xi8>
    %520 = onnx.Constant dense<0.00529035414> : tensor<f32>
    %521 = onnx.Constant dense<0> : tensor<i8>
    %522 = onnx.Constant dense_resource<__elided__> : tensor<1152x6912xi8>
    %523 = onnx.Constant dense<0.00479822839> : tensor<f32>
    %524 = onnx.Constant dense<0> : tensor<i8>
    %525 = onnx.Constant dense_resource<__elided__> : tensor<1152x6912xi8>
    %526 = onnx.Constant dense<0.00203001965> : tensor<f32>
    %527 = onnx.Constant dense<0> : tensor<i8>
    %528 = onnx.Constant dense_resource<__elided__> : tensor<6912x1152xi8>
    %529 = onnx.Constant dense<0.00346026081> : tensor<f32>
    %530 = onnx.Constant dense<0> : tensor<i8>
    %531 = onnx.Constant dense_resource<__elided__> : tensor<1152x1024xi8>
    %532 = onnx.Constant dense<0.00296813482> : tensor<f32>
    %533 = onnx.Constant dense<0> : tensor<i8>
    %534 = onnx.Constant dense_resource<__elided__> : tensor<1152x256xi8>
    %535 = onnx.Constant dense<0.00222994597> : tensor<f32>
    %536 = onnx.Constant dense<0> : tensor<i8>
    %537 = onnx.Constant dense_resource<__elided__> : tensor<1152x256xi8>
    %538 = onnx.Constant dense<0.00229146169> : tensor<f32>
    %539 = onnx.Constant dense<0> : tensor<i8>
    %540 = onnx.Constant dense_resource<__elided__> : tensor<1024x1152xi8>
    %541 = onnx.Constant dense<0.00513656484> : tensor<f32>
    %542 = onnx.Constant dense<0> : tensor<i8>
    %543 = onnx.Constant dense_resource<__elided__> : tensor<1152x6912xi8>
    %544 = onnx.Constant dense<0.00442913407> : tensor<f32>
    %545 = onnx.Constant dense<0> : tensor<i8>
    %546 = onnx.Constant dense_resource<__elided__> : tensor<1152x6912xi8>
    %547 = onnx.Constant dense<0.00149175688> : tensor<f32>
    %548 = onnx.Constant dense<0> : tensor<i8>
    %549 = onnx.Constant dense_resource<__elided__> : tensor<6912x1152xi8>
    %550 = onnx.Constant dense<0.00154558313> : tensor<f32>
    %551 = onnx.Constant dense<0> : tensor<i8>
    %552 = onnx.Constant dense_resource<__elided__> : tensor<1152x1024xi8>
    %553 = onnx.Constant dense<0.0025067667> : tensor<f32>
    %554 = onnx.Constant dense<0> : tensor<i8>
    %555 = onnx.Constant dense_resource<__elided__> : tensor<1152x256xi8>
    %556 = onnx.Constant dense<0.00327571365> : tensor<f32>
    %557 = onnx.Constant dense<0> : tensor<i8>
    %558 = onnx.Constant dense_resource<__elided__> : tensor<1152x256xi8>
    %559 = onnx.Constant dense<0.00238373526> : tensor<f32>
    %560 = onnx.Constant dense<0> : tensor<i8>
    %561 = onnx.Constant dense_resource<__elided__> : tensor<1024x1152xi8>
    %562 = onnx.Constant dense<0.00439837622> : tensor<f32>
    %563 = onnx.Constant dense<0> : tensor<i8>
    %564 = onnx.Constant dense_resource<__elided__> : tensor<1152x6912xi8>
    %565 = onnx.Constant dense<0.00386011321> : tensor<f32>
    %566 = onnx.Constant dense<0> : tensor<i8>
    %567 = onnx.Constant dense_resource<__elided__> : tensor<1152x6912xi8>
    %568 = onnx.Constant dense<0.00126876228> : tensor<f32>
    %569 = onnx.Constant dense<0> : tensor<i8>
    %570 = onnx.Constant dense_resource<__elided__> : tensor<6912x1152xi8>
    %571 = onnx.Constant dense<0.00322957686> : tensor<f32>
    %572 = onnx.Constant dense<0> : tensor<i8>
    %573 = onnx.Constant dense_resource<__elided__> : tensor<1152x1024xi8>
    %574 = onnx.Constant dense<0.00341412402> : tensor<f32>
    %575 = onnx.Constant dense<0> : tensor<i8>
    %576 = onnx.Constant dense_resource<__elided__> : tensor<1152x256xi8>
    %577 = onnx.Constant dense<0.00244525098> : tensor<f32>
    %578 = onnx.Constant dense<0> : tensor<i8>
    %579 = onnx.Constant dense_resource<__elided__> : tensor<1152x256xi8>
    %580 = onnx.Constant dense<0.00232221955> : tensor<f32>
    %581 = onnx.Constant dense<0> : tensor<i8>
    %582 = onnx.Constant dense_resource<__elided__> : tensor<1024x1152xi8>
    %583 = onnx.Constant dense<0.00482898625> : tensor<f32>
    %584 = onnx.Constant dense<0> : tensor<i8>
    %585 = onnx.Constant dense_resource<__elided__> : tensor<1152x6912xi8>
    %586 = onnx.Constant dense<0.00498277554> : tensor<f32>
    %587 = onnx.Constant dense<0> : tensor<i8>
    %588 = onnx.Constant dense_resource<__elided__> : tensor<1152x6912xi8>
    %589 = onnx.Constant dense<0.0013072096> : tensor<f32>
    %590 = onnx.Constant dense<0> : tensor<i8>
    %591 = onnx.Constant dense_resource<__elided__> : tensor<6912x1152xi8>
    %592 = onnx.Constant dense<0.00196850393> : tensor<f32>
    %593 = onnx.Constant dense<0> : tensor<i8>
    %594 = onnx.Constant dense_resource<__elided__> : tensor<1152x1024xi8>
    %595 = onnx.Constant dense<0.00244525098> : tensor<f32>
    %596 = onnx.Constant dense<0> : tensor<i8>
    %597 = onnx.Constant dense_resource<__elided__> : tensor<1152x256xi8>
    %598 = onnx.Constant dense<0.00173781987> : tensor<f32>
    %599 = onnx.Constant dense<0> : tensor<i8>
    %600 = onnx.Constant dense_resource<__elided__> : tensor<1152x256xi8>
    %601 = onnx.Constant dense<0.00267593493> : tensor<f32>
    %602 = onnx.Constant dense<0> : tensor<i8>
    %603 = onnx.Constant dense_resource<__elided__> : tensor<1024x1152xi8>
    %604 = onnx.Constant dense<0.00430610217> : tensor<f32>
    %605 = onnx.Constant dense<0> : tensor<i8>
    %606 = onnx.Constant dense_resource<__elided__> : tensor<1152x6912xi8>
    %607 = onnx.Constant dense<0.00293737696> : tensor<f32>
    %608 = onnx.Constant dense<0> : tensor<i8>
    %609 = onnx.Constant dense_resource<__elided__> : tensor<1152x6912xi8>
    %610 = onnx.Constant dense<0.00209153537> : tensor<f32>
    %611 = onnx.Constant dense<0> : tensor<i8>
    %612 = onnx.Constant dense_resource<__elided__> : tensor<6912x1152xi8>
    %613 = onnx.Constant dense<0.00212229323> : tensor<f32>
    %614 = onnx.Constant dense<0> : tensor<i8>
    %615 = onnx.Constant dense_resource<__elided__> : tensor<1152x1024xi8>
    %616 = onnx.Constant dense<0.00326033472> : tensor<f32>
    %617 = onnx.Constant dense<0> : tensor<i8>
    %618 = onnx.Constant dense_resource<__elided__> : tensor<1152x256xi8>
    %619 = onnx.Constant dense<0.00296813482> : tensor<f32>
    %620 = onnx.Constant dense<0> : tensor<i8>
    %621 = onnx.Constant dense_resource<__elided__> : tensor<1152x256xi8>
    %622 = onnx.Constant dense<0.00418307073> : tensor<f32>
    %623 = onnx.Constant dense<0> : tensor<i8>
    %624 = onnx.Constant dense_resource<__elided__> : tensor<1024x1152xi8>
    %625 = onnx.Constant dense<0.00479822839> : tensor<f32>
    %626 = onnx.Constant dense<0> : tensor<i8>
    %627 = onnx.Constant dense_resource<__elided__> : tensor<1152x6912xi8>
    %628 = onnx.Constant dense<0.00430610217> : tensor<f32>
    %629 = onnx.Constant dense<0> : tensor<i8>
    %630 = onnx.Constant dense_resource<__elided__> : tensor<1152x6912xi8>
    %631 = onnx.Constant dense<0.00194543554> : tensor<f32>
    %632 = onnx.Constant dense<0> : tensor<i8>
    %633 = onnx.Constant dense_resource<__elided__> : tensor<6912x1152xi8>
    %634 = onnx.Constant dense<0.00190698821> : tensor<f32>
    %635 = onnx.Constant dense<0> : tensor<i8>
    %636 = onnx.Constant dense_resource<__elided__> : tensor<1152x1024xi8>
    %637 = onnx.Constant dense<0.00366018689> : tensor<f32>
    %638 = onnx.Constant dense<0> : tensor<i8>
    %639 = onnx.Constant dense_resource<__elided__> : tensor<1152x256xi8>
    %640 = onnx.Constant dense<0.00227608276> : tensor<f32>
    %641 = onnx.Constant dense<0> : tensor<i8>
    %642 = onnx.Constant dense_resource<__elided__> : tensor<1152x256xi8>
    %643 = onnx.Constant dense<0.00290661911> : tensor<f32>
    %644 = onnx.Constant dense<0> : tensor<i8>
    %645 = onnx.Constant dense_resource<__elided__> : tensor<1024x1152xi8>
    %646 = onnx.Constant dense<0.00382935535> : tensor<f32>
    %647 = onnx.Constant dense<0> : tensor<i8>
    %648 = onnx.Constant dense_resource<__elided__> : tensor<1152x6912xi8>
    %649 = onnx.Constant dense<0.00298351375> : tensor<f32>
    %650 = onnx.Constant dense<0> : tensor<i8>
    %651 = onnx.Constant dense_resource<__elided__> : tensor<1152x6912xi8>
    %652 = onnx.Constant dense<0.0017531988> : tensor<f32>
    %653 = onnx.Constant dense<0> : tensor<i8>
    %654 = onnx.Constant dense_resource<__elided__> : tensor<6912x1152xi8>
    %655 = onnx.Constant dense<0.00170706201> : tensor<f32>
    %656 = onnx.Constant dense<0> : tensor<i8>
    %657 = onnx.Constant dense_resource<__elided__> : tensor<1152x1024xi8>
    %658 = onnx.Constant dense<0.00436761789> : tensor<f32>
    %659 = onnx.Constant dense<0> : tensor<i8>
    %660 = onnx.Constant dense_resource<__elided__> : tensor<1152x256xi8>
    %661 = onnx.Constant dense<0.00273745088> : tensor<f32>
    %662 = onnx.Constant dense<0> : tensor<i8>
    %663 = onnx.Constant dense_resource<__elided__> : tensor<1152x256xi8>
    %664 = onnx.Constant dense<0.00547490176> : tensor<f32>
    %665 = onnx.Constant dense<0> : tensor<i8>
    %666 = onnx.Constant dense_resource<__elided__> : tensor<1024x1152xi8>
    %667 = onnx.Constant dense<0.00396776572> : tensor<f32>
    %668 = onnx.Constant dense<0> : tensor<i8>
    %669 = onnx.Constant dense_resource<__elided__> : tensor<1152x6912xi8>
    %670 = onnx.Constant dense<0.00286048232> : tensor<f32>
    %671 = onnx.Constant dense<0> : tensor<i8>
    %672 = onnx.Constant dense_resource<__elided__> : tensor<1152x6912xi8>
    %673 = onnx.Constant dense<0.00249138777> : tensor<f32>
    %674 = onnx.Constant dense<0> : tensor<i8>
    %675 = onnx.Constant dense_resource<__elided__> : tensor<6912x1152xi8>
    %676 = onnx.Constant dense<0.00206077751> : tensor<f32>
    %677 = onnx.Constant dense<0> : tensor<i8>
    %678 = onnx.Constant dense_resource<__elided__> : tensor<1152x1024xi8>
    %679 = onnx.Constant dense<0.00221456704> : tensor<f32>
    %680 = onnx.Constant dense<0> : tensor<i8>
    %681 = onnx.Constant dense_resource<__elided__> : tensor<1152x256xi8>
    %682 = onnx.Constant dense<0.00196850393> : tensor<f32>
    %683 = onnx.Constant dense<0> : tensor<i8>
    %684 = onnx.Constant dense_resource<__elided__> : tensor<1152x256xi8>
    %685 = onnx.Constant dense<0.00186085142> : tensor<f32>
    %686 = onnx.Constant dense<0> : tensor<i8>
    %687 = onnx.Constant dense_resource<__elided__> : tensor<1024x1152xi8>
    %688 = onnx.Constant dense<0.00455216551> : tensor<f32>
    %689 = onnx.Constant dense<0> : tensor<i8>
    %690 = onnx.Constant dense_resource<__elided__> : tensor<1152x6912xi8>
    %691 = onnx.Constant dense<0.00470595481> : tensor<f32>
    %692 = onnx.Constant dense<0> : tensor<i8>
    %693 = onnx.Constant dense_resource<__elided__> : tensor<1152x6912xi8>
    %694 = onnx.Constant dense<0.00194543554> : tensor<f32>
    %695 = onnx.Constant dense<0> : tensor<i8>
    %696 = onnx.Constant dense_resource<__elided__> : tensor<6912x1152xi8>
    %697 = onnx.Constant dense<0.00287586125> : tensor<f32>
    %698 = onnx.Constant dense<0> : tensor<i8>
    %699 = onnx.Constant dense_resource<__elided__> : tensor<1152x1024xi8>
    %700 = onnx.Constant dense<0.00173781987> : tensor<f32>
    %701 = onnx.Constant dense<0> : tensor<i8>
    %702 = onnx.Constant dense_resource<__elided__> : tensor<1152x256xi8>
    %703 = onnx.Constant dense<0.00133796746> : tensor<f32>
    %704 = onnx.Constant dense<0> : tensor<i8>
    %705 = onnx.Constant dense_resource<__elided__> : tensor<1152x256xi8>
    %706 = onnx.Constant dense<0.00281434553> : tensor<f32>
    %707 = onnx.Constant dense<0> : tensor<i8>
    %708 = onnx.Constant dense_resource<__elided__> : tensor<1024x1152xi8>
    %709 = onnx.Constant dense<0.00402928144> : tensor<f32>
    %710 = onnx.Constant dense<0> : tensor<i8>
    %711 = onnx.Constant dense_resource<__elided__> : tensor<1152x6912xi8>
    %712 = onnx.Constant dense<3.183440e-03> : tensor<f32>
    %713 = onnx.Constant dense<0> : tensor<i8>
    %714 = onnx.Constant dense_resource<__elided__> : tensor<1152x6912xi8>
    %715 = onnx.Constant dense<0.00122262549> : tensor<f32>
    %716 = onnx.Constant dense<0> : tensor<i8>
    %717 = onnx.Constant dense_resource<__elided__> : tensor<6912x1152xi8>
    %718 = "onnx.Gather"(%171, %arg0) {axis = 0 : si64, onnx_node_name = "/model/embed_tokens/Gather"} : (tensor<262144x1152xui8>, tensor<1x128xi64>) -> tensor<1x128x1152xui8>
    %719 = "onnx.ReduceSum"(%arg1, %4) {keepdims = 1 : si64, noop_with_empty_axes = 0 : si64, onnx_node_name = "/model/attn_mask_reformat/attn_mask_subgraph/ReduceSum"} : (tensor<1x128xi64>, tensor<1xi64>) -> tensor<1x1xi64>
    %720 = "onnx.DequantizeLinear"(%718, %169, %170) {axis = 1 : si64, onnx_node_name = "/model/embed_tokens/Gather/output_0_DequantizeLinear"} : (tensor<1x128x1152xui8>, tensor<f32>, tensor<ui8>) -> tensor<1x128x1152xf32>
    %721 = "onnx.Mul"(%720, %5) {onnx_node_name = "/model/embed_tokens/Mul"} : (tensor<1x128x1152xf32>, tensor<f32>) -> tensor<1x128x1152xf32>
    %722 = "onnx.Add"(%719, %1) {onnx_node_name = "/model/attn_mask_reformat/attn_mask_subgraph/Sub-Initializer_/model/constants/TensorProto.INT64/1D/1_1"} : (tensor<1x1xi64>, tensor<1xi64>) -> tensor<1x1xi64>
    %723 = "onnx.Custom"(%721, %6) {axis = -1 : si64, domain_name = "", epsilon = 9.99999997E-7 : f32, function_name = "SimplifiedLayerNormalization", onnx_node_name = "/model/layers.0/input_layernorm/LayerNorm", stash_type = 1 : si64} : (tensor<1x128x1152xf32>, tensor<1152xf32>) -> tensor<1x128x1152xf32>
    %724 = "onnx.Cast"(%722) {onnx_node_name = "/model/attn_mask_reformat/attn_mask_subgraph/Sub/Cast", saturate = 1 : si64, to = i32} : (tensor<1x1xi64>) -> tensor<1x1xi32>
    %y, %y_scale, %y_zero_point = "onnx.DynamicQuantizeLinear"(%723) {onnx_node_name = "/model/layers.0/input_layernorm/output_0_QuantizeLinear"} : (tensor<1x128x1152xf32>) -> (tensor<1x128x1152xui8>, tensor<f32>, tensor<ui8>)
    %725 = "onnx.MatMulInteger"(%y, %174, %y_zero_point, %173) {onnx_node_name = "/model/layers.0/attn/q_proj/MatMul_quant"} : (tensor<1x128x1152xui8>, tensor<1152x1024xi8>, tensor<ui8>, tensor<i8>) -> tensor<1x128x1024xi32>
    %726 = "onnx.Cast"(%725) {onnx_node_name = "/model/layers.0/attn/q_proj/MatMul/output_0_output_quantized_cast", saturate = 1 : si64, to = f32} : (tensor<1x128x1024xi32>) -> tensor<1x128x1024xf32>
    %727 = "onnx.Mul"(%y_scale, %172) {onnx_node_name = "/model/layers.0/attn/q_proj/MatMul_quant_scales_mul"} : (tensor<f32>, tensor<f32>) -> tensor<f32>
    %728 = "onnx.Mul"(%726, %727) {onnx_node_name = "/model/layers.0/attn/q_proj/MatMul_quant_output_scale_mul"} : (tensor<1x128x1024xf32>, tensor<f32>) -> tensor<1x128x1024xf32>
    %729 = "onnx.MatMulInteger"(%y, %177, %y_zero_point, %176) {onnx_node_name = "/model/layers.0/attn/k_proj/MatMul_quant"} : (tensor<1x128x1152xui8>, tensor<1152x256xi8>, tensor<ui8>, tensor<i8>) -> tensor<1x128x256xi32>
    %730 = "onnx.Cast"(%729) {onnx_node_name = "/model/layers.0/attn/k_proj/MatMul/output_0_output_quantized_cast", saturate = 1 : si64, to = f32} : (tensor<1x128x256xi32>) -> tensor<1x128x256xf32>
    %731 = "onnx.Mul"(%y_scale, %175) {onnx_node_name = "/model/layers.0/attn/k_proj/MatMul_quant_scales_mul"} : (tensor<f32>, tensor<f32>) -> tensor<f32>
    %732 = "onnx.Mul"(%730, %731) {onnx_node_name = "/model/layers.0/attn/k_proj/MatMul_quant_output_scale_mul"} : (tensor<1x128x256xf32>, tensor<f32>) -> tensor<1x128x256xf32>
    %733 = "onnx.MatMulInteger"(%y, %180, %y_zero_point, %179) {onnx_node_name = "/model/layers.0/attn/v_proj/MatMul_quant"} : (tensor<1x128x1152xui8>, tensor<1152x256xi8>, tensor<ui8>, tensor<i8>) -> tensor<1x128x256xi32>
    %734 = "onnx.Cast"(%733) {onnx_node_name = "/model/layers.0/attn/v_proj/MatMul/output_0_output_quantized_cast", saturate = 1 : si64, to = f32} : (tensor<1x128x256xi32>) -> tensor<1x128x256xf32>
    %735 = "onnx.Mul"(%y_scale, %178) {onnx_node_name = "/model/layers.0/attn/v_proj/MatMul_quant_scales_mul"} : (tensor<f32>, tensor<f32>) -> tensor<f32>
    %736 = "onnx.Mul"(%734, %735) {onnx_node_name = "/model/layers.0/attn/v_proj/MatMul_quant_output_scale_mul"} : (tensor<1x128x256xf32>, tensor<f32>) -> tensor<1x128x256xf32>
    %737 = "onnx.Reshape"(%728, %7) {allowzero = 0 : si64, onnx_node_name = "/model/layers.0/attn/q_norm/Reshape_1"} : (tensor<1x128x1024xf32>, tensor<3xi64>) -> tensor<1x512x256xf32>
    %738 = "onnx.Custom"(%737, %8) {axis = -1 : si64, domain_name = "", epsilon = 9.99999997E-7 : f32, function_name = "SimplifiedLayerNormalization", onnx_node_name = "/model/layers.0/attn/q_norm/SimplifiedLayerNormalization", stash_type = 1 : si64} : (tensor<1x512x256xf32>, tensor<256xf32>) -> tensor<1x512x256xf32>
    %739 = "onnx.Custom"(%732, %9) {axis = -1 : si64, domain_name = "", epsilon = 9.99999997E-7 : f32, function_name = "SimplifiedLayerNormalization", onnx_node_name = "/model/layers.0/attn/k_norm/SimplifiedLayerNormalization", stash_type = 1 : si64} : (tensor<1x128x256xf32>, tensor<256xf32>) -> tensor<1x128x256xf32>
    %740 = "onnx.Reshape"(%738, %10) {allowzero = 0 : si64, onnx_node_name = "/model/layers.0/attn/q_norm/Reshape_2"} : (tensor<1x512x256xf32>, tensor<3xi64>) -> tensor<1x128x1024xf32>
    %741 = "onnx.Custom"(%740, %arg2, %11, %12) {domain_name = "com.microsoft", function_name = "RotaryEmbedding", interleaved = 0 : si64, num_heads = 0 : si64, onnx_node_name = "/model/layers.0/attn/q_rotary/RotaryEmbedding", rotary_embedding_dim = 0 : si64} : (tensor<1x128x1024xf32>, tensor<1x128xi64>, tensor<32768x128xf32>, tensor<32768x128xf32>) -> tensor<1x128x1024xf32>
    %742 = "onnx.Custom"(%739, %arg2, %11, %12) {domain_name = "com.microsoft", function_name = "RotaryEmbedding", interleaved = 0 : si64, num_heads = 0 : si64, onnx_node_name = "/model/layers.0/attn/k_rotary/RotaryEmbedding", rotary_embedding_dim = 0 : si64} : (tensor<1x128x256xf32>, tensor<1x128xi64>, tensor<32768x128xf32>, tensor<32768x128xf32>) -> tensor<1x128x256xf32>
    %743:3 = "onnx.Custom"(%741, %742, %736, %arg3, %arg4, %724, %0, %3, %3) {do_rotary = 0 : si64, domain_name = "com.microsoft", function_name = "GroupQueryAttention", kv_num_heads = 1 : si64, local_window_size = 512 : si64, num_heads = 4 : si64, onnx_node_name = "/model/layers.0/attn/GroupQueryAttention", rotary_interleaved = 0 : si64, scale = 6.250000e-02 : f32, softcap = 0.000000e+00 : f32} : (tensor<1x128x1024xf32>, tensor<1x128x256xf32>, tensor<1x128x256xf32>, tensor<1x1x1x256xf32>, tensor<1x1x1x256xf32>, tensor<1x1xi32>, tensor<i32>, none, none) -> (tensor<1x128x1024xf32>, tensor<1x1x128x256xf32>, tensor<1x1x128x256xf32>)
    %y_0, %y_scale_1, %y_zero_point_2 = "onnx.DynamicQuantizeLinear"(%743#0) {onnx_node_name = "/model/layers.0/attn/GroupQueryAttention/output_0_QuantizeLinear"} : (tensor<1x128x1024xf32>) -> (tensor<1x128x1024xui8>, tensor<f32>, tensor<ui8>)
    %744 = "onnx.MatMulInteger"(%y_0, %183, %y_zero_point_2, %182) {onnx_node_name = "/model/layers.0/attn/o_proj/MatMul_quant"} : (tensor<1x128x1024xui8>, tensor<1024x1152xi8>, tensor<ui8>, tensor<i8>) -> tensor<1x128x1152xi32>
    %745 = "onnx.Cast"(%744) {onnx_node_name = "/model/layers.0/attn/o_proj/MatMul/output_0_output_quantized_cast", saturate = 1 : si64, to = f32} : (tensor<1x128x1152xi32>) -> tensor<1x128x1152xf32>
    %746 = "onnx.Mul"(%y_scale_1, %181) {onnx_node_name = "/model/layers.0/attn/o_proj/MatMul_quant_scales_mul"} : (tensor<f32>, tensor<f32>) -> tensor<f32>
    %747 = "onnx.Mul"(%745, %746) {onnx_node_name = "/model/layers.0/attn/o_proj/MatMul_quant_output_scale_mul"} : (tensor<1x128x1152xf32>, tensor<f32>) -> tensor<1x128x1152xf32>
    %748 = "onnx.Custom"(%747, %13) {axis = -1 : si64, domain_name = "", epsilon = 9.99999997E-7 : f32, function_name = "SimplifiedLayerNormalization", onnx_node_name = "/model/layers.0/post_attention_layernorm/LayerNorm", stash_type = 1 : si64} : (tensor<1x128x1152xf32>, tensor<1152xf32>) -> tensor<1x128x1152xf32>
    %749:4 = "onnx.Custom"(%721, %748, %14) {domain_name = "com.microsoft", epsilon = 9.99999997E-7 : f32, function_name = "SkipSimplifiedLayerNormalization", onnx_node_name = "/model/layers.0/pre_feedforward_layernorm/SkipLayerNorm"} : (tensor<1x128x1152xf32>, tensor<1x128x1152xf32>, tensor<1152xf32>) -> (tensor<1x128x1152xf32>, none, none, tensor<1x128x1152xf32>)
    %y_3, %y_scale_4, %y_zero_point_5 = "onnx.DynamicQuantizeLinear"(%749#0) {onnx_node_name = "/model/layers.0/pre_feedforward_layernorm/output_0_QuantizeLinear"} : (tensor<1x128x1152xf32>) -> (tensor<1x128x1152xui8>, tensor<f32>, tensor<ui8>)
    %750 = "onnx.MatMulInteger"(%y_3, %186, %y_zero_point_5, %185) {onnx_node_name = "/model/layers.0/mlp/gate_proj/MatMul_quant"} : (tensor<1x128x1152xui8>, tensor<1152x6912xi8>, tensor<ui8>, tensor<i8>) -> tensor<1x128x6912xi32>
    %751 = "onnx.Cast"(%750) {onnx_node_name = "/model/layers.0/mlp/gate_proj/MatMul/output_0_output_quantized_cast", saturate = 1 : si64, to = f32} : (tensor<1x128x6912xi32>) -> tensor<1x128x6912xf32>
    %752 = "onnx.Mul"(%y_scale_4, %184) {onnx_node_name = "/model/layers.0/mlp/gate_proj/MatMul_quant_scales_mul"} : (tensor<f32>, tensor<f32>) -> tensor<f32>
    %753 = "onnx.Mul"(%751, %752) {onnx_node_name = "/model/layers.0/mlp/gate_proj/MatMul_quant_output_scale_mul"} : (tensor<1x128x6912xf32>, tensor<f32>) -> tensor<1x128x6912xf32>
    %754 = "onnx.MatMulInteger"(%y_3, %189, %y_zero_point_5, %188) {onnx_node_name = "/model/layers.0/mlp/up_proj/MatMul_quant"} : (tensor<1x128x1152xui8>, tensor<1152x6912xi8>, tensor<ui8>, tensor<i8>) -> tensor<1x128x6912xi32>
    %755 = "onnx.Cast"(%754) {onnx_node_name = "/model/layers.0/mlp/up_proj/MatMul/output_0_output_quantized_cast", saturate = 1 : si64, to = f32} : (tensor<1x128x6912xi32>) -> tensor<1x128x6912xf32>
    %756 = "onnx.Mul"(%y_scale_4, %187) {onnx_node_name = "/model/layers.0/mlp/up_proj/MatMul_quant_scales_mul"} : (tensor<f32>, tensor<f32>) -> tensor<f32>
    %757 = "onnx.Mul"(%755, %756) {onnx_node_name = "/model/layers.0/mlp/up_proj/MatMul_quant_output_scale_mul"} : (tensor<1x128x6912xf32>, tensor<f32>) -> tensor<1x128x6912xf32>
    %758 = "onnx.Custom"(%753) {domain_name = "com.microsoft", function_name = "FastGelu", onnx_node_name = "/model/layers.0/mlp/act_fn/FastGelu"} : (tensor<1x128x6912xf32>) -> tensor<1x128x6912xf32>
    %759 = "onnx.Mul"(%758, %757) {onnx_node_name = "/model/layers.0/mlp/Mul"} : (tensor<1x128x6912xf32>, tensor<1x128x6912xf32>) -> tensor<1x128x6912xf32>
    %y_6, %y_scale_7, %y_zero_point_8 = "onnx.DynamicQuantizeLinear"(%759) {onnx_node_name = "/model/layers.0/mlp/Mul/output_0_QuantizeLinear"} : (tensor<1x128x6912xf32>) -> (tensor<1x128x6912xui8>, tensor<f32>, tensor<ui8>)
    %760 = "onnx.MatMulInteger"(%y_6, %192, %y_zero_point_8, %191) {onnx_node_name = "/model/layers.0/mlp/down_proj/MatMul_quant"} : (tensor<1x128x6912xui8>, tensor<6912x1152xi8>, tensor<ui8>, tensor<i8>) -> tensor<1x128x1152xi32>
    %761 = "onnx.Cast"(%760) {onnx_node_name = "/model/layers.0/mlp/down_proj/MatMul/output_0_output_quantized_cast", saturate = 1 : si64, to = f32} : (tensor<1x128x1152xi32>) -> tensor<1x128x1152xf32>
    %762 = "onnx.Mul"(%y_scale_7, %190) {onnx_node_name = "/model/layers.0/mlp/down_proj/MatMul_quant_scales_mul"} : (tensor<f32>, tensor<f32>) -> tensor<f32>
    %763 = "onnx.Mul"(%761, %762) {onnx_node_name = "/model/layers.0/mlp/down_proj/MatMul_quant_output_scale_mul"} : (tensor<1x128x1152xf32>, tensor<f32>) -> tensor<1x128x1152xf32>
    %764 = "onnx.Custom"(%763, %15) {axis = -1 : si64, domain_name = "", epsilon = 9.99999997E-7 : f32, function_name = "SimplifiedLayerNormalization", onnx_node_name = "/model/layers.0/post_feedforward_layernorm/LayerNorm", stash_type = 1 : si64} : (tensor<1x128x1152xf32>, tensor<1152xf32>) -> tensor<1x128x1152xf32>
    %765:4 = "onnx.Custom"(%749#3, %764, %16) {domain_name = "com.microsoft", epsilon = 9.99999997E-7 : f32, function_name = "SkipSimplifiedLayerNormalization", onnx_node_name = "/model/layers.1/input_layernorm/SkipLayerNorm"} : (tensor<1x128x1152xf32>, tensor<1x128x1152xf32>, tensor<1152xf32>) -> (tensor<1x128x1152xf32>, none, none, tensor<1x128x1152xf32>)
    %y_9, %y_scale_10, %y_zero_point_11 = "onnx.DynamicQuantizeLinear"(%765#0) {onnx_node_name = "/model/layers.1/input_layernorm/output_0_QuantizeLinear"} : (tensor<1x128x1152xf32>) -> (tensor<1x128x1152xui8>, tensor<f32>, tensor<ui8>)
    %766 = "onnx.MatMulInteger"(%y_9, %195, %y_zero_point_11, %194) {onnx_node_name = "/model/layers.1/attn/q_proj/MatMul_quant"} : (tensor<1x128x1152xui8>, tensor<1152x1024xi8>, tensor<ui8>, tensor<i8>) -> tensor<1x128x1024xi32>
    %767 = "onnx.Cast"(%766) {onnx_node_name = "/model/layers.1/attn/q_proj/MatMul/output_0_output_quantized_cast", saturate = 1 : si64, to = f32} : (tensor<1x128x1024xi32>) -> tensor<1x128x1024xf32>
    %768 = "onnx.Mul"(%y_scale_10, %193) {onnx_node_name = "/model/layers.1/attn/q_proj/MatMul_quant_scales_mul"} : (tensor<f32>, tensor<f32>) -> tensor<f32>
    %769 = "onnx.Mul"(%767, %768) {onnx_node_name = "/model/layers.1/attn/q_proj/MatMul_quant_output_scale_mul"} : (tensor<1x128x1024xf32>, tensor<f32>) -> tensor<1x128x1024xf32>
    %770 = "onnx.MatMulInteger"(%y_9, %198, %y_zero_point_11, %197) {onnx_node_name = "/model/layers.1/attn/k_proj/MatMul_quant"} : (tensor<1x128x1152xui8>, tensor<1152x256xi8>, tensor<ui8>, tensor<i8>) -> tensor<1x128x256xi32>
    %771 = "onnx.Cast"(%770) {onnx_node_name = "/model/layers.1/attn/k_proj/MatMul/output_0_output_quantized_cast", saturate = 1 : si64, to = f32} : (tensor<1x128x256xi32>) -> tensor<1x128x256xf32>
    %772 = "onnx.Mul"(%y_scale_10, %196) {onnx_node_name = "/model/layers.1/attn/k_proj/MatMul_quant_scales_mul"} : (tensor<f32>, tensor<f32>) -> tensor<f32>
    %773 = "onnx.Mul"(%771, %772) {onnx_node_name = "/model/layers.1/attn/k_proj/MatMul_quant_output_scale_mul"} : (tensor<1x128x256xf32>, tensor<f32>) -> tensor<1x128x256xf32>
    %774 = "onnx.MatMulInteger"(%y_9, %201, %y_zero_point_11, %200) {onnx_node_name = "/model/layers.1/attn/v_proj/MatMul_quant"} : (tensor<1x128x1152xui8>, tensor<1152x256xi8>, tensor<ui8>, tensor<i8>) -> tensor<1x128x256xi32>
    %775 = "onnx.Cast"(%774) {onnx_node_name = "/model/layers.1/attn/v_proj/MatMul/output_0_output_quantized_cast", saturate = 1 : si64, to = f32} : (tensor<1x128x256xi32>) -> tensor<1x128x256xf32>
    %776 = "onnx.Mul"(%y_scale_10, %199) {onnx_node_name = "/model/layers.1/attn/v_proj/MatMul_quant_scales_mul"} : (tensor<f32>, tensor<f32>) -> tensor<f32>
    %777 = "onnx.Mul"(%775, %776) {onnx_node_name = "/model/layers.1/attn/v_proj/MatMul_quant_output_scale_mul"} : (tensor<1x128x256xf32>, tensor<f32>) -> tensor<1x128x256xf32>
    %778 = "onnx.Reshape"(%769, %7) {allowzero = 0 : si64, onnx_node_name = "/model/layers.1/attn/q_norm/Reshape_1"} : (tensor<1x128x1024xf32>, tensor<3xi64>) -> tensor<1x512x256xf32>
    %779 = "onnx.Custom"(%778, %17) {axis = -1 : si64, domain_name = "", epsilon = 9.99999997E-7 : f32, function_name = "SimplifiedLayerNormalization", onnx_node_name = "/model/layers.1/attn/q_norm/SimplifiedLayerNormalization", stash_type = 1 : si64} : (tensor<1x512x256xf32>, tensor<256xf32>) -> tensor<1x512x256xf32>
    %780 = "onnx.Custom"(%773, %18) {axis = -1 : si64, domain_name = "", epsilon = 9.99999997E-7 : f32, function_name = "SimplifiedLayerNormalization", onnx_node_name = "/model/layers.1/attn/k_norm/SimplifiedLayerNormalization", stash_type = 1 : si64} : (tensor<1x128x256xf32>, tensor<256xf32>) -> tensor<1x128x256xf32>
    %781 = "onnx.Reshape"(%779, %10) {allowzero = 0 : si64, onnx_node_name = "/model/layers.1/attn/q_norm/Reshape_2"} : (tensor<1x512x256xf32>, tensor<3xi64>) -> tensor<1x128x1024xf32>
    %782 = "onnx.Custom"(%781, %arg2, %11, %12) {domain_name = "com.microsoft", function_name = "RotaryEmbedding", interleaved = 0 : si64, num_heads = 0 : si64, onnx_node_name = "/model/layers.1/attn/q_rotary/RotaryEmbedding", rotary_embedding_dim = 0 : si64} : (tensor<1x128x1024xf32>, tensor<1x128xi64>, tensor<32768x128xf32>, tensor<32768x128xf32>) -> tensor<1x128x1024xf32>
    %783 = "onnx.Custom"(%780, %arg2, %11, %12) {domain_name = "com.microsoft", function_name = "RotaryEmbedding", interleaved = 0 : si64, num_heads = 0 : si64, onnx_node_name = "/model/layers.1/attn/k_rotary/RotaryEmbedding", rotary_embedding_dim = 0 : si64} : (tensor<1x128x256xf32>, tensor<1x128xi64>, tensor<32768x128xf32>, tensor<32768x128xf32>) -> tensor<1x128x256xf32>
    %784:3 = "onnx.Custom"(%782, %783, %777, %arg5, %arg6, %724, %0, %3, %3) {do_rotary = 0 : si64, domain_name = "com.microsoft", function_name = "GroupQueryAttention", kv_num_heads = 1 : si64, local_window_size = 512 : si64, num_heads = 4 : si64, onnx_node_name = "/model/layers.1/attn/GroupQueryAttention", rotary_interleaved = 0 : si64, scale = 6.250000e-02 : f32, softcap = 0.000000e+00 : f32} : (tensor<1x128x1024xf32>, tensor<1x128x256xf32>, tensor<1x128x256xf32>, tensor<1x1x1x256xf32>, tensor<1x1x1x256xf32>, tensor<1x1xi32>, tensor<i32>, none, none) -> (tensor<1x128x1024xf32>, tensor<1x1x128x256xf32>, tensor<1x1x128x256xf32>)
    %y_12, %y_scale_13, %y_zero_point_14 = "onnx.DynamicQuantizeLinear"(%784#0) {onnx_node_name = "/model/layers.1/attn/GroupQueryAttention/output_0_QuantizeLinear"} : (tensor<1x128x1024xf32>) -> (tensor<1x128x1024xui8>, tensor<f32>, tensor<ui8>)
    %785 = "onnx.MatMulInteger"(%y_12, %204, %y_zero_point_14, %203) {onnx_node_name = "/model/layers.1/attn/o_proj/MatMul_quant"} : (tensor<1x128x1024xui8>, tensor<1024x1152xi8>, tensor<ui8>, tensor<i8>) -> tensor<1x128x1152xi32>
    %786 = "onnx.Cast"(%785) {onnx_node_name = "/model/layers.1/attn/o_proj/MatMul/output_0_output_quantized_cast", saturate = 1 : si64, to = f32} : (tensor<1x128x1152xi32>) -> tensor<1x128x1152xf32>
    %787 = "onnx.Mul"(%y_scale_13, %202) {onnx_node_name = "/model/layers.1/attn/o_proj/MatMul_quant_scales_mul"} : (tensor<f32>, tensor<f32>) -> tensor<f32>
    %788 = "onnx.Mul"(%786, %787) {onnx_node_name = "/model/layers.1/attn/o_proj/MatMul_quant_output_scale_mul"} : (tensor<1x128x1152xf32>, tensor<f32>) -> tensor<1x128x1152xf32>
    %789 = "onnx.Custom"(%788, %19) {axis = -1 : si64, domain_name = "", epsilon = 9.99999997E-7 : f32, function_name = "SimplifiedLayerNormalization", onnx_node_name = "/model/layers.1/post_attention_layernorm/LayerNorm", stash_type = 1 : si64} : (tensor<1x128x1152xf32>, tensor<1152xf32>) -> tensor<1x128x1152xf32>
    %790:4 = "onnx.Custom"(%765#3, %789, %20) {domain_name = "com.microsoft", epsilon = 9.99999997E-7 : f32, function_name = "SkipSimplifiedLayerNormalization", onnx_node_name = "/model/layers.1/pre_feedforward_layernorm/SkipLayerNorm"} : (tensor<1x128x1152xf32>, tensor<1x128x1152xf32>, tensor<1152xf32>) -> (tensor<1x128x1152xf32>, none, none, tensor<1x128x1152xf32>)
    %y_15, %y_scale_16, %y_zero_point_17 = "onnx.DynamicQuantizeLinear"(%790#0) {onnx_node_name = "/model/layers.1/pre_feedforward_layernorm/output_0_QuantizeLinear"} : (tensor<1x128x1152xf32>) -> (tensor<1x128x1152xui8>, tensor<f32>, tensor<ui8>)
    %791 = "onnx.MatMulInteger"(%y_15, %207, %y_zero_point_17, %206) {onnx_node_name = "/model/layers.1/mlp/gate_proj/MatMul_quant"} : (tensor<1x128x1152xui8>, tensor<1152x6912xi8>, tensor<ui8>, tensor<i8>) -> tensor<1x128x6912xi32>
    %792 = "onnx.Cast"(%791) {onnx_node_name = "/model/layers.1/mlp/gate_proj/MatMul/output_0_output_quantized_cast", saturate = 1 : si64, to = f32} : (tensor<1x128x6912xi32>) -> tensor<1x128x6912xf32>
    %793 = "onnx.Mul"(%y_scale_16, %205) {onnx_node_name = "/model/layers.1/mlp/gate_proj/MatMul_quant_scales_mul"} : (tensor<f32>, tensor<f32>) -> tensor<f32>
    %794 = "onnx.Mul"(%792, %793) {onnx_node_name = "/model/layers.1/mlp/gate_proj/MatMul_quant_output_scale_mul"} : (tensor<1x128x6912xf32>, tensor<f32>) -> tensor<1x128x6912xf32>
    %795 = "onnx.MatMulInteger"(%y_15, %210, %y_zero_point_17, %209) {onnx_node_name = "/model/layers.1/mlp/up_proj/MatMul_quant"} : (tensor<1x128x1152xui8>, tensor<1152x6912xi8>, tensor<ui8>, tensor<i8>) -> tensor<1x128x6912xi32>
    %796 = "onnx.Cast"(%795) {onnx_node_name = "/model/layers.1/mlp/up_proj/MatMul/output_0_output_quantized_cast", saturate = 1 : si64, to = f32} : (tensor<1x128x6912xi32>) -> tensor<1x128x6912xf32>
    %797 = "onnx.Mul"(%y_scale_16, %208) {onnx_node_name = "/model/layers.1/mlp/up_proj/MatMul_quant_scales_mul"} : (tensor<f32>, tensor<f32>) -> tensor<f32>
    %798 = "onnx.Mul"(%796, %797) {onnx_node_name = "/model/layers.1/mlp/up_proj/MatMul_quant_output_scale_mul"} : (tensor<1x128x6912xf32>, tensor<f32>) -> tensor<1x128x6912xf32>
    %799 = "onnx.Custom"(%794) {domain_name = "com.microsoft", function_name = "FastGelu", onnx_node_name = "/model/layers.1/mlp/act_fn/FastGelu"} : (tensor<1x128x6912xf32>) -> tensor<1x128x6912xf32>
    %800 = "onnx.Mul"(%799, %798) {onnx_node_name = "/model/layers.1/mlp/Mul"} : (tensor<1x128x6912xf32>, tensor<1x128x6912xf32>) -> tensor<1x128x6912xf32>
    %y_18, %y_scale_19, %y_zero_point_20 = "onnx.DynamicQuantizeLinear"(%800) {onnx_node_name = "/model/layers.1/mlp/Mul/output_0_QuantizeLinear"} : (tensor<1x128x6912xf32>) -> (tensor<1x128x6912xui8>, tensor<f32>, tensor<ui8>)
    %801 = "onnx.MatMulInteger"(%y_18, %213, %y_zero_point_20, %212) {onnx_node_name = "/model/layers.1/mlp/down_proj/MatMul_quant"} : (tensor<1x128x6912xui8>, tensor<6912x1152xi8>, tensor<ui8>, tensor<i8>) -> tensor<1x128x1152xi32>
    %802 = "onnx.Cast"(%801) {onnx_node_name = "/model/layers.1/mlp/down_proj/MatMul/output_0_output_quantized_cast", saturate = 1 : si64, to = f32} : (tensor<1x128x1152xi32>) -> tensor<1x128x1152xf32>
    %803 = "onnx.Mul"(%y_scale_19, %211) {onnx_node_name = "/model/layers.1/mlp/down_proj/MatMul_quant_scales_mul"} : (tensor<f32>, tensor<f32>) -> tensor<f32>
    %804 = "onnx.Mul"(%802, %803) {onnx_node_name = "/model/layers.1/mlp/down_proj/MatMul_quant_output_scale_mul"} : (tensor<1x128x1152xf32>, tensor<f32>) -> tensor<1x128x1152xf32>
    %805 = "onnx.Custom"(%804, %21) {axis = -1 : si64, domain_name = "", epsilon = 9.99999997E-7 : f32, function_name = "SimplifiedLayerNormalization", onnx_node_name = "/model/layers.1/post_feedforward_layernorm/LayerNorm", stash_type = 1 : si64} : (tensor<1x128x1152xf32>, tensor<1152xf32>) -> tensor<1x128x1152xf32>
    %806:4 = "onnx.Custom"(%790#3, %805, %22) {domain_name = "com.microsoft", epsilon = 9.99999997E-7 : f32, function_name = "SkipSimplifiedLayerNormalization", onnx_node_name = "/model/layers.2/input_layernorm/SkipLayerNorm"} : (tensor<1x128x1152xf32>, tensor<1x128x1152xf32>, tensor<1152xf32>) -> (tensor<1x128x1152xf32>, none, none, tensor<1x128x1152xf32>)
    %y_21, %y_scale_22, %y_zero_point_23 = "onnx.DynamicQuantizeLinear"(%806#0) {onnx_node_name = "/model/layers.2/input_layernorm/output_0_QuantizeLinear"} : (tensor<1x128x1152xf32>) -> (tensor<1x128x1152xui8>, tensor<f32>, tensor<ui8>)
    %807 = "onnx.MatMulInteger"(%y_21, %216, %y_zero_point_23, %215) {onnx_node_name = "/model/layers.2/attn/q_proj/MatMul_quant"} : (tensor<1x128x1152xui8>, tensor<1152x1024xi8>, tensor<ui8>, tensor<i8>) -> tensor<1x128x1024xi32>
    %808 = "onnx.Cast"(%807) {onnx_node_name = "/model/layers.2/attn/q_proj/MatMul/output_0_output_quantized_cast", saturate = 1 : si64, to = f32} : (tensor<1x128x1024xi32>) -> tensor<1x128x1024xf32>
    %809 = "onnx.Mul"(%y_scale_22, %214) {onnx_node_name = "/model/layers.2/attn/q_proj/MatMul_quant_scales_mul"} : (tensor<f32>, tensor<f32>) -> tensor<f32>
    %810 = "onnx.Mul"(%808, %809) {onnx_node_name = "/model/layers.2/attn/q_proj/MatMul_quant_output_scale_mul"} : (tensor<1x128x1024xf32>, tensor<f32>) -> tensor<1x128x1024xf32>
    %811 = "onnx.MatMulInteger"(%y_21, %219, %y_zero_point_23, %218) {onnx_node_name = "/model/layers.2/attn/k_proj/MatMul_quant"} : (tensor<1x128x1152xui8>, tensor<1152x256xi8>, tensor<ui8>, tensor<i8>) -> tensor<1x128x256xi32>
    %812 = "onnx.Cast"(%811) {onnx_node_name = "/model/layers.2/attn/k_proj/MatMul/output_0_output_quantized_cast", saturate = 1 : si64, to = f32} : (tensor<1x128x256xi32>) -> tensor<1x128x256xf32>
    %813 = "onnx.Mul"(%y_scale_22, %217) {onnx_node_name = "/model/layers.2/attn/k_proj/MatMul_quant_scales_mul"} : (tensor<f32>, tensor<f32>) -> tensor<f32>
    %814 = "onnx.Mul"(%812, %813) {onnx_node_name = "/model/layers.2/attn/k_proj/MatMul_quant_output_scale_mul"} : (tensor<1x128x256xf32>, tensor<f32>) -> tensor<1x128x256xf32>
    %815 = "onnx.MatMulInteger"(%y_21, %222, %y_zero_point_23, %221) {onnx_node_name = "/model/layers.2/attn/v_proj/MatMul_quant"} : (tensor<1x128x1152xui8>, tensor<1152x256xi8>, tensor<ui8>, tensor<i8>) -> tensor<1x128x256xi32>
    %816 = "onnx.Cast"(%815) {onnx_node_name = "/model/layers.2/attn/v_proj/MatMul/output_0_output_quantized_cast", saturate = 1 : si64, to = f32} : (tensor<1x128x256xi32>) -> tensor<1x128x256xf32>
    %817 = "onnx.Mul"(%y_scale_22, %220) {onnx_node_name = "/model/layers.2/attn/v_proj/MatMul_quant_scales_mul"} : (tensor<f32>, tensor<f32>) -> tensor<f32>
    %818 = "onnx.Mul"(%816, %817) {onnx_node_name = "/model/layers.2/attn/v_proj/MatMul_quant_output_scale_mul"} : (tensor<1x128x256xf32>, tensor<f32>) -> tensor<1x128x256xf32>
    %819 = "onnx.Reshape"(%810, %7) {allowzero = 0 : si64, onnx_node_name = "/model/layers.2/attn/q_norm/Reshape_1"} : (tensor<1x128x1024xf32>, tensor<3xi64>) -> tensor<1x512x256xf32>
    %820 = "onnx.Custom"(%819, %23) {axis = -1 : si64, domain_name = "", epsilon = 9.99999997E-7 : f32, function_name = "SimplifiedLayerNormalization", onnx_node_name = "/model/layers.2/attn/q_norm/SimplifiedLayerNormalization", stash_type = 1 : si64} : (tensor<1x512x256xf32>, tensor<256xf32>) -> tensor<1x512x256xf32>
    %821 = "onnx.Custom"(%814, %24) {axis = -1 : si64, domain_name = "", epsilon = 9.99999997E-7 : f32, function_name = "SimplifiedLayerNormalization", onnx_node_name = "/model/layers.2/attn/k_norm/SimplifiedLayerNormalization", stash_type = 1 : si64} : (tensor<1x128x256xf32>, tensor<256xf32>) -> tensor<1x128x256xf32>
    %822 = "onnx.Reshape"(%820, %10) {allowzero = 0 : si64, onnx_node_name = "/model/layers.2/attn/q_norm/Reshape_2"} : (tensor<1x512x256xf32>, tensor<3xi64>) -> tensor<1x128x1024xf32>
    %823 = "onnx.Custom"(%822, %arg2, %11, %12) {domain_name = "com.microsoft", function_name = "RotaryEmbedding", interleaved = 0 : si64, num_heads = 0 : si64, onnx_node_name = "/model/layers.2/attn/q_rotary/RotaryEmbedding", rotary_embedding_dim = 0 : si64} : (tensor<1x128x1024xf32>, tensor<1x128xi64>, tensor<32768x128xf32>, tensor<32768x128xf32>) -> tensor<1x128x1024xf32>
    %824 = "onnx.Custom"(%821, %arg2, %11, %12) {domain_name = "com.microsoft", function_name = "RotaryEmbedding", interleaved = 0 : si64, num_heads = 0 : si64, onnx_node_name = "/model/layers.2/attn/k_rotary/RotaryEmbedding", rotary_embedding_dim = 0 : si64} : (tensor<1x128x256xf32>, tensor<1x128xi64>, tensor<32768x128xf32>, tensor<32768x128xf32>) -> tensor<1x128x256xf32>
    %825:3 = "onnx.Custom"(%823, %824, %818, %arg7, %arg8, %724, %0, %3, %3) {do_rotary = 0 : si64, domain_name = "com.microsoft", function_name = "GroupQueryAttention", kv_num_heads = 1 : si64, local_window_size = 512 : si64, num_heads = 4 : si64, onnx_node_name = "/model/layers.2/attn/GroupQueryAttention", rotary_interleaved = 0 : si64, scale = 6.250000e-02 : f32, softcap = 0.000000e+00 : f32} : (tensor<1x128x1024xf32>, tensor<1x128x256xf32>, tensor<1x128x256xf32>, tensor<1x1x1x256xf32>, tensor<1x1x1x256xf32>, tensor<1x1xi32>, tensor<i32>, none, none) -> (tensor<1x128x1024xf32>, tensor<1x1x128x256xf32>, tensor<1x1x128x256xf32>)
    %y_24, %y_scale_25, %y_zero_point_26 = "onnx.DynamicQuantizeLinear"(%825#0) {onnx_node_name = "/model/layers.2/attn/GroupQueryAttention/output_0_QuantizeLinear"} : (tensor<1x128x1024xf32>) -> (tensor<1x128x1024xui8>, tensor<f32>, tensor<ui8>)
    %826 = "onnx.MatMulInteger"(%y_24, %225, %y_zero_point_26, %224) {onnx_node_name = "/model/layers.2/attn/o_proj/MatMul_quant"} : (tensor<1x128x1024xui8>, tensor<1024x1152xi8>, tensor<ui8>, tensor<i8>) -> tensor<1x128x1152xi32>
    %827 = "onnx.Cast"(%826) {onnx_node_name = "/model/layers.2/attn/o_proj/MatMul/output_0_output_quantized_cast", saturate = 1 : si64, to = f32} : (tensor<1x128x1152xi32>) -> tensor<1x128x1152xf32>
    %828 = "onnx.Mul"(%y_scale_25, %223) {onnx_node_name = "/model/layers.2/attn/o_proj/MatMul_quant_scales_mul"} : (tensor<f32>, tensor<f32>) -> tensor<f32>
    %829 = "onnx.Mul"(%827, %828) {onnx_node_name = "/model/layers.2/attn/o_proj/MatMul_quant_output_scale_mul"} : (tensor<1x128x1152xf32>, tensor<f32>) -> tensor<1x128x1152xf32>
    %830 = "onnx.Custom"(%829, %25) {axis = -1 : si64, domain_name = "", epsilon = 9.99999997E-7 : f32, function_name = "SimplifiedLayerNormalization", onnx_node_name = "/model/layers.2/post_attention_layernorm/LayerNorm", stash_type = 1 : si64} : (tensor<1x128x1152xf32>, tensor<1152xf32>) -> tensor<1x128x1152xf32>
    %831:4 = "onnx.Custom"(%806#3, %830, %26) {domain_name = "com.microsoft", epsilon = 9.99999997E-7 : f32, function_name = "SkipSimplifiedLayerNormalization", onnx_node_name = "/model/layers.2/pre_feedforward_layernorm/SkipLayerNorm"} : (tensor<1x128x1152xf32>, tensor<1x128x1152xf32>, tensor<1152xf32>) -> (tensor<1x128x1152xf32>, none, none, tensor<1x128x1152xf32>)
    %y_27, %y_scale_28, %y_zero_point_29 = "onnx.DynamicQuantizeLinear"(%831#0) {onnx_node_name = "/model/layers.2/pre_feedforward_layernorm/output_0_QuantizeLinear"} : (tensor<1x128x1152xf32>) -> (tensor<1x128x1152xui8>, tensor<f32>, tensor<ui8>)
    %832 = "onnx.MatMulInteger"(%y_27, %228, %y_zero_point_29, %227) {onnx_node_name = "/model/layers.2/mlp/gate_proj/MatMul_quant"} : (tensor<1x128x1152xui8>, tensor<1152x6912xi8>, tensor<ui8>, tensor<i8>) -> tensor<1x128x6912xi32>
    %833 = "onnx.Cast"(%832) {onnx_node_name = "/model/layers.2/mlp/gate_proj/MatMul/output_0_output_quantized_cast", saturate = 1 : si64, to = f32} : (tensor<1x128x6912xi32>) -> tensor<1x128x6912xf32>
    %834 = "onnx.Mul"(%y_scale_28, %226) {onnx_node_name = "/model/layers.2/mlp/gate_proj/MatMul_quant_scales_mul"} : (tensor<f32>, tensor<f32>) -> tensor<f32>
    %835 = "onnx.Mul"(%833, %834) {onnx_node_name = "/model/layers.2/mlp/gate_proj/MatMul_quant_output_scale_mul"} : (tensor<1x128x6912xf32>, tensor<f32>) -> tensor<1x128x6912xf32>
    %836 = "onnx.MatMulInteger"(%y_27, %231, %y_zero_point_29, %230) {onnx_node_name = "/model/layers.2/mlp/up_proj/MatMul_quant"} : (tensor<1x128x1152xui8>, tensor<1152x6912xi8>, tensor<ui8>, tensor<i8>) -> tensor<1x128x6912xi32>
    %837 = "onnx.Cast"(%836) {onnx_node_name = "/model/layers.2/mlp/up_proj/MatMul/output_0_output_quantized_cast", saturate = 1 : si64, to = f32} : (tensor<1x128x6912xi32>) -> tensor<1x128x6912xf32>
    %838 = "onnx.Mul"(%y_scale_28, %229) {onnx_node_name = "/model/layers.2/mlp/up_proj/MatMul_quant_scales_mul"} : (tensor<f32>, tensor<f32>) -> tensor<f32>
    %839 = "onnx.Mul"(%837, %838) {onnx_node_name = "/model/layers.2/mlp/up_proj/MatMul_quant_output_scale_mul"} : (tensor<1x128x6912xf32>, tensor<f32>) -> tensor<1x128x6912xf32>
    %840 = "onnx.Custom"(%835) {domain_name = "com.microsoft", function_name = "FastGelu", onnx_node_name = "/model/layers.2/mlp/act_fn/FastGelu"} : (tensor<1x128x6912xf32>) -> tensor<1x128x6912xf32>
    %841 = "onnx.Mul"(%840, %839) {onnx_node_name = "/model/layers.2/mlp/Mul"} : (tensor<1x128x6912xf32>, tensor<1x128x6912xf32>) -> tensor<1x128x6912xf32>
    %y_30, %y_scale_31, %y_zero_point_32 = "onnx.DynamicQuantizeLinear"(%841) {onnx_node_name = "/model/layers.2/mlp/Mul/output_0_QuantizeLinear"} : (tensor<1x128x6912xf32>) -> (tensor<1x128x6912xui8>, tensor<f32>, tensor<ui8>)
    %842 = "onnx.MatMulInteger"(%y_30, %234, %y_zero_point_32, %233) {onnx_node_name = "/model/layers.2/mlp/down_proj/MatMul_quant"} : (tensor<1x128x6912xui8>, tensor<6912x1152xi8>, tensor<ui8>, tensor<i8>) -> tensor<1x128x1152xi32>
    %843 = "onnx.Cast"(%842) {onnx_node_name = "/model/layers.2/mlp/down_proj/MatMul/output_0_output_quantized_cast", saturate = 1 : si64, to = f32} : (tensor<1x128x1152xi32>) -> tensor<1x128x1152xf32>
    %844 = "onnx.Mul"(%y_scale_31, %232) {onnx_node_name = "/model/layers.2/mlp/down_proj/MatMul_quant_scales_mul"} : (tensor<f32>, tensor<f32>) -> tensor<f32>
    %845 = "onnx.Mul"(%843, %844) {onnx_node_name = "/model/layers.2/mlp/down_proj/MatMul_quant_output_scale_mul"} : (tensor<1x128x1152xf32>, tensor<f32>) -> tensor<1x128x1152xf32>
    %846 = "onnx.Custom"(%845, %27) {axis = -1 : si64, domain_name = "", epsilon = 9.99999997E-7 : f32, function_name = "SimplifiedLayerNormalization", onnx_node_name = "/model/layers.2/post_feedforward_layernorm/LayerNorm", stash_type = 1 : si64} : (tensor<1x128x1152xf32>, tensor<1152xf32>) -> tensor<1x128x1152xf32>
    %847:4 = "onnx.Custom"(%831#3, %846, %28) {domain_name = "com.microsoft", epsilon = 9.99999997E-7 : f32, function_name = "SkipSimplifiedLayerNormalization", onnx_node_name = "/model/layers.3/input_layernorm/SkipLayerNorm"} : (tensor<1x128x1152xf32>, tensor<1x128x1152xf32>, tensor<1152xf32>) -> (tensor<1x128x1152xf32>, none, none, tensor<1x128x1152xf32>)
    %y_33, %y_scale_34, %y_zero_point_35 = "onnx.DynamicQuantizeLinear"(%847#0) {onnx_node_name = "/model/layers.3/input_layernorm/output_0_QuantizeLinear"} : (tensor<1x128x1152xf32>) -> (tensor<1x128x1152xui8>, tensor<f32>, tensor<ui8>)
    %848 = "onnx.MatMulInteger"(%y_33, %237, %y_zero_point_35, %236) {onnx_node_name = "/model/layers.3/attn/q_proj/MatMul_quant"} : (tensor<1x128x1152xui8>, tensor<1152x1024xi8>, tensor<ui8>, tensor<i8>) -> tensor<1x128x1024xi32>
    %849 = "onnx.Cast"(%848) {onnx_node_name = "/model/layers.3/attn/q_proj/MatMul/output_0_output_quantized_cast", saturate = 1 : si64, to = f32} : (tensor<1x128x1024xi32>) -> tensor<1x128x1024xf32>
    %850 = "onnx.Mul"(%y_scale_34, %235) {onnx_node_name = "/model/layers.3/attn/q_proj/MatMul_quant_scales_mul"} : (tensor<f32>, tensor<f32>) -> tensor<f32>
    %851 = "onnx.Mul"(%849, %850) {onnx_node_name = "/model/layers.3/attn/q_proj/MatMul_quant_output_scale_mul"} : (tensor<1x128x1024xf32>, tensor<f32>) -> tensor<1x128x1024xf32>
    %852 = "onnx.MatMulInteger"(%y_33, %240, %y_zero_point_35, %239) {onnx_node_name = "/model/layers.3/attn/k_proj/MatMul_quant"} : (tensor<1x128x1152xui8>, tensor<1152x256xi8>, tensor<ui8>, tensor<i8>) -> tensor<1x128x256xi32>
    %853 = "onnx.Cast"(%852) {onnx_node_name = "/model/layers.3/attn/k_proj/MatMul/output_0_output_quantized_cast", saturate = 1 : si64, to = f32} : (tensor<1x128x256xi32>) -> tensor<1x128x256xf32>
    %854 = "onnx.Mul"(%y_scale_34, %238) {onnx_node_name = "/model/layers.3/attn/k_proj/MatMul_quant_scales_mul"} : (tensor<f32>, tensor<f32>) -> tensor<f32>
    %855 = "onnx.Mul"(%853, %854) {onnx_node_name = "/model/layers.3/attn/k_proj/MatMul_quant_output_scale_mul"} : (tensor<1x128x256xf32>, tensor<f32>) -> tensor<1x128x256xf32>
    %856 = "onnx.MatMulInteger"(%y_33, %243, %y_zero_point_35, %242) {onnx_node_name = "/model/layers.3/attn/v_proj/MatMul_quant"} : (tensor<1x128x1152xui8>, tensor<1152x256xi8>, tensor<ui8>, tensor<i8>) -> tensor<1x128x256xi32>
    %857 = "onnx.Cast"(%856) {onnx_node_name = "/model/layers.3/attn/v_proj/MatMul/output_0_output_quantized_cast", saturate = 1 : si64, to = f32} : (tensor<1x128x256xi32>) -> tensor<1x128x256xf32>
    %858 = "onnx.Mul"(%y_scale_34, %241) {onnx_node_name = "/model/layers.3/attn/v_proj/MatMul_quant_scales_mul"} : (tensor<f32>, tensor<f32>) -> tensor<f32>
    %859 = "onnx.Mul"(%857, %858) {onnx_node_name = "/model/layers.3/attn/v_proj/MatMul_quant_output_scale_mul"} : (tensor<1x128x256xf32>, tensor<f32>) -> tensor<1x128x256xf32>
    %860 = "onnx.Reshape"(%851, %7) {allowzero = 0 : si64, onnx_node_name = "/model/layers.3/attn/q_norm/Reshape_1"} : (tensor<1x128x1024xf32>, tensor<3xi64>) -> tensor<1x512x256xf32>
    %861 = "onnx.Custom"(%860, %29) {axis = -1 : si64, domain_name = "", epsilon = 9.99999997E-7 : f32, function_name = "SimplifiedLayerNormalization", onnx_node_name = "/model/layers.3/attn/q_norm/SimplifiedLayerNormalization", stash_type = 1 : si64} : (tensor<1x512x256xf32>, tensor<256xf32>) -> tensor<1x512x256xf32>
    %862 = "onnx.Custom"(%855, %30) {axis = -1 : si64, domain_name = "", epsilon = 9.99999997E-7 : f32, function_name = "SimplifiedLayerNormalization", onnx_node_name = "/model/layers.3/attn/k_norm/SimplifiedLayerNormalization", stash_type = 1 : si64} : (tensor<1x128x256xf32>, tensor<256xf32>) -> tensor<1x128x256xf32>
    %863 = "onnx.Reshape"(%861, %10) {allowzero = 0 : si64, onnx_node_name = "/model/layers.3/attn/q_norm/Reshape_2"} : (tensor<1x512x256xf32>, tensor<3xi64>) -> tensor<1x128x1024xf32>
    %864 = "onnx.Custom"(%863, %arg2, %11, %12) {domain_name = "com.microsoft", function_name = "RotaryEmbedding", interleaved = 0 : si64, num_heads = 0 : si64, onnx_node_name = "/model/layers.3/attn/q_rotary/RotaryEmbedding", rotary_embedding_dim = 0 : si64} : (tensor<1x128x1024xf32>, tensor<1x128xi64>, tensor<32768x128xf32>, tensor<32768x128xf32>) -> tensor<1x128x1024xf32>
    %865 = "onnx.Custom"(%862, %arg2, %11, %12) {domain_name = "com.microsoft", function_name = "RotaryEmbedding", interleaved = 0 : si64, num_heads = 0 : si64, onnx_node_name = "/model/layers.3/attn/k_rotary/RotaryEmbedding", rotary_embedding_dim = 0 : si64} : (tensor<1x128x256xf32>, tensor<1x128xi64>, tensor<32768x128xf32>, tensor<32768x128xf32>) -> tensor<1x128x256xf32>
    %866:3 = "onnx.Custom"(%864, %865, %859, %arg9, %arg10, %724, %0, %3, %3) {do_rotary = 0 : si64, domain_name = "com.microsoft", function_name = "GroupQueryAttention", kv_num_heads = 1 : si64, local_window_size = 512 : si64, num_heads = 4 : si64, onnx_node_name = "/model/layers.3/attn/GroupQueryAttention", rotary_interleaved = 0 : si64, scale = 6.250000e-02 : f32, softcap = 0.000000e+00 : f32} : (tensor<1x128x1024xf32>, tensor<1x128x256xf32>, tensor<1x128x256xf32>, tensor<1x1x1x256xf32>, tensor<1x1x1x256xf32>, tensor<1x1xi32>, tensor<i32>, none, none) -> (tensor<1x128x1024xf32>, tensor<1x1x128x256xf32>, tensor<1x1x128x256xf32>)
    %y_36, %y_scale_37, %y_zero_point_38 = "onnx.DynamicQuantizeLinear"(%866#0) {onnx_node_name = "/model/layers.3/attn/GroupQueryAttention/output_0_QuantizeLinear"} : (tensor<1x128x1024xf32>) -> (tensor<1x128x1024xui8>, tensor<f32>, tensor<ui8>)
    %867 = "onnx.MatMulInteger"(%y_36, %246, %y_zero_point_38, %245) {onnx_node_name = "/model/layers.3/attn/o_proj/MatMul_quant"} : (tensor<1x128x1024xui8>, tensor<1024x1152xi8>, tensor<ui8>, tensor<i8>) -> tensor<1x128x1152xi32>
    %868 = "onnx.Cast"(%867) {onnx_node_name = "/model/layers.3/attn/o_proj/MatMul/output_0_output_quantized_cast", saturate = 1 : si64, to = f32} : (tensor<1x128x1152xi32>) -> tensor<1x128x1152xf32>
    %869 = "onnx.Mul"(%y_scale_37, %244) {onnx_node_name = "/model/layers.3/attn/o_proj/MatMul_quant_scales_mul"} : (tensor<f32>, tensor<f32>) -> tensor<f32>
    %870 = "onnx.Mul"(%868, %869) {onnx_node_name = "/model/layers.3/attn/o_proj/MatMul_quant_output_scale_mul"} : (tensor<1x128x1152xf32>, tensor<f32>) -> tensor<1x128x1152xf32>
    %871 = "onnx.Custom"(%870, %31) {axis = -1 : si64, domain_name = "", epsilon = 9.99999997E-7 : f32, function_name = "SimplifiedLayerNormalization", onnx_node_name = "/model/layers.3/post_attention_layernorm/LayerNorm", stash_type = 1 : si64} : (tensor<1x128x1152xf32>, tensor<1152xf32>) -> tensor<1x128x1152xf32>
    %872:4 = "onnx.Custom"(%847#3, %871, %32) {domain_name = "com.microsoft", epsilon = 9.99999997E-7 : f32, function_name = "SkipSimplifiedLayerNormalization", onnx_node_name = "/model/layers.3/pre_feedforward_layernorm/SkipLayerNorm"} : (tensor<1x128x1152xf32>, tensor<1x128x1152xf32>, tensor<1152xf32>) -> (tensor<1x128x1152xf32>, none, none, tensor<1x128x1152xf32>)
    %y_39, %y_scale_40, %y_zero_point_41 = "onnx.DynamicQuantizeLinear"(%872#0) {onnx_node_name = "/model/layers.3/pre_feedforward_layernorm/output_0_QuantizeLinear"} : (tensor<1x128x1152xf32>) -> (tensor<1x128x1152xui8>, tensor<f32>, tensor<ui8>)
    %873 = "onnx.MatMulInteger"(%y_39, %249, %y_zero_point_41, %248) {onnx_node_name = "/model/layers.3/mlp/gate_proj/MatMul_quant"} : (tensor<1x128x1152xui8>, tensor<1152x6912xi8>, tensor<ui8>, tensor<i8>) -> tensor<1x128x6912xi32>
    %874 = "onnx.Cast"(%873) {onnx_node_name = "/model/layers.3/mlp/gate_proj/MatMul/output_0_output_quantized_cast", saturate = 1 : si64, to = f32} : (tensor<1x128x6912xi32>) -> tensor<1x128x6912xf32>
    %875 = "onnx.Mul"(%y_scale_40, %247) {onnx_node_name = "/model/layers.3/mlp/gate_proj/MatMul_quant_scales_mul"} : (tensor<f32>, tensor<f32>) -> tensor<f32>
    %876 = "onnx.Mul"(%874, %875) {onnx_node_name = "/model/layers.3/mlp/gate_proj/MatMul_quant_output_scale_mul"} : (tensor<1x128x6912xf32>, tensor<f32>) -> tensor<1x128x6912xf32>
    %877 = "onnx.MatMulInteger"(%y_39, %252, %y_zero_point_41, %251) {onnx_node_name = "/model/layers.3/mlp/up_proj/MatMul_quant"} : (tensor<1x128x1152xui8>, tensor<1152x6912xi8>, tensor<ui8>, tensor<i8>) -> tensor<1x128x6912xi32>
    %878 = "onnx.Cast"(%877) {onnx_node_name = "/model/layers.3/mlp/up_proj/MatMul/output_0_output_quantized_cast", saturate = 1 : si64, to = f32} : (tensor<1x128x6912xi32>) -> tensor<1x128x6912xf32>
    %879 = "onnx.Mul"(%y_scale_40, %250) {onnx_node_name = "/model/layers.3/mlp/up_proj/MatMul_quant_scales_mul"} : (tensor<f32>, tensor<f32>) -> tensor<f32>
    %880 = "onnx.Mul"(%878, %879) {onnx_node_name = "/model/layers.3/mlp/up_proj/MatMul_quant_output_scale_mul"} : (tensor<1x128x6912xf32>, tensor<f32>) -> tensor<1x128x6912xf32>
    %881 = "onnx.Custom"(%876) {domain_name = "com.microsoft", function_name = "FastGelu", onnx_node_name = "/model/layers.3/mlp/act_fn/FastGelu"} : (tensor<1x128x6912xf32>) -> tensor<1x128x6912xf32>
    %882 = "onnx.Mul"(%881, %880) {onnx_node_name = "/model/layers.3/mlp/Mul"} : (tensor<1x128x6912xf32>, tensor<1x128x6912xf32>) -> tensor<1x128x6912xf32>
    %y_42, %y_scale_43, %y_zero_point_44 = "onnx.DynamicQuantizeLinear"(%882) {onnx_node_name = "/model/layers.3/mlp/Mul/output_0_QuantizeLinear"} : (tensor<1x128x6912xf32>) -> (tensor<1x128x6912xui8>, tensor<f32>, tensor<ui8>)
    %883 = "onnx.MatMulInteger"(%y_42, %255, %y_zero_point_44, %254) {onnx_node_name = "/model/layers.3/mlp/down_proj/MatMul_quant"} : (tensor<1x128x6912xui8>, tensor<6912x1152xi8>, tensor<ui8>, tensor<i8>) -> tensor<1x128x1152xi32>
    %884 = "onnx.Cast"(%883) {onnx_node_name = "/model/layers.3/mlp/down_proj/MatMul/output_0_output_quantized_cast", saturate = 1 : si64, to = f32} : (tensor<1x128x1152xi32>) -> tensor<1x128x1152xf32>
    %885 = "onnx.Mul"(%y_scale_43, %253) {onnx_node_name = "/model/layers.3/mlp/down_proj/MatMul_quant_scales_mul"} : (tensor<f32>, tensor<f32>) -> tensor<f32>
    %886 = "onnx.Mul"(%884, %885) {onnx_node_name = "/model/layers.3/mlp/down_proj/MatMul_quant_output_scale_mul"} : (tensor<1x128x1152xf32>, tensor<f32>) -> tensor<1x128x1152xf32>
    %887 = "onnx.Custom"(%886, %33) {axis = -1 : si64, domain_name = "", epsilon = 9.99999997E-7 : f32, function_name = "SimplifiedLayerNormalization", onnx_node_name = "/model/layers.3/post_feedforward_layernorm/LayerNorm", stash_type = 1 : si64} : (tensor<1x128x1152xf32>, tensor<1152xf32>) -> tensor<1x128x1152xf32>
    %888:4 = "onnx.Custom"(%872#3, %887, %34) {domain_name = "com.microsoft", epsilon = 9.99999997E-7 : f32, function_name = "SkipSimplifiedLayerNormalization", onnx_node_name = "/model/layers.4/input_layernorm/SkipLayerNorm"} : (tensor<1x128x1152xf32>, tensor<1x128x1152xf32>, tensor<1152xf32>) -> (tensor<1x128x1152xf32>, none, none, tensor<1x128x1152xf32>)
    %y_45, %y_scale_46, %y_zero_point_47 = "onnx.DynamicQuantizeLinear"(%888#0) {onnx_node_name = "/model/layers.4/input_layernorm/output_0_QuantizeLinear"} : (tensor<1x128x1152xf32>) -> (tensor<1x128x1152xui8>, tensor<f32>, tensor<ui8>)
    %889 = "onnx.MatMulInteger"(%y_45, %258, %y_zero_point_47, %257) {onnx_node_name = "/model/layers.4/attn/q_proj/MatMul_quant"} : (tensor<1x128x1152xui8>, tensor<1152x1024xi8>, tensor<ui8>, tensor<i8>) -> tensor<1x128x1024xi32>
    %890 = "onnx.Cast"(%889) {onnx_node_name = "/model/layers.4/attn/q_proj/MatMul/output_0_output_quantized_cast", saturate = 1 : si64, to = f32} : (tensor<1x128x1024xi32>) -> tensor<1x128x1024xf32>
    %891 = "onnx.Mul"(%y_scale_46, %256) {onnx_node_name = "/model/layers.4/attn/q_proj/MatMul_quant_scales_mul"} : (tensor<f32>, tensor<f32>) -> tensor<f32>
    %892 = "onnx.Mul"(%890, %891) {onnx_node_name = "/model/layers.4/attn/q_proj/MatMul_quant_output_scale_mul"} : (tensor<1x128x1024xf32>, tensor<f32>) -> tensor<1x128x1024xf32>
    %893 = "onnx.MatMulInteger"(%y_45, %261, %y_zero_point_47, %260) {onnx_node_name = "/model/layers.4/attn/k_proj/MatMul_quant"} : (tensor<1x128x1152xui8>, tensor<1152x256xi8>, tensor<ui8>, tensor<i8>) -> tensor<1x128x256xi32>
    %894 = "onnx.Cast"(%893) {onnx_node_name = "/model/layers.4/attn/k_proj/MatMul/output_0_output_quantized_cast", saturate = 1 : si64, to = f32} : (tensor<1x128x256xi32>) -> tensor<1x128x256xf32>
    %895 = "onnx.Mul"(%y_scale_46, %259) {onnx_node_name = "/model/layers.4/attn/k_proj/MatMul_quant_scales_mul"} : (tensor<f32>, tensor<f32>) -> tensor<f32>
    %896 = "onnx.Mul"(%894, %895) {onnx_node_name = "/model/layers.4/attn/k_proj/MatMul_quant_output_scale_mul"} : (tensor<1x128x256xf32>, tensor<f32>) -> tensor<1x128x256xf32>
    %897 = "onnx.MatMulInteger"(%y_45, %264, %y_zero_point_47, %263) {onnx_node_name = "/model/layers.4/attn/v_proj/MatMul_quant"} : (tensor<1x128x1152xui8>, tensor<1152x256xi8>, tensor<ui8>, tensor<i8>) -> tensor<1x128x256xi32>
    %898 = "onnx.Cast"(%897) {onnx_node_name = "/model/layers.4/attn/v_proj/MatMul/output_0_output_quantized_cast", saturate = 1 : si64, to = f32} : (tensor<1x128x256xi32>) -> tensor<1x128x256xf32>
    %899 = "onnx.Mul"(%y_scale_46, %262) {onnx_node_name = "/model/layers.4/attn/v_proj/MatMul_quant_scales_mul"} : (tensor<f32>, tensor<f32>) -> tensor<f32>
    %900 = "onnx.Mul"(%898, %899) {onnx_node_name = "/model/layers.4/attn/v_proj/MatMul_quant_output_scale_mul"} : (tensor<1x128x256xf32>, tensor<f32>) -> tensor<1x128x256xf32>
    %901 = "onnx.Reshape"(%892, %7) {allowzero = 0 : si64, onnx_node_name = "/model/layers.4/attn/q_norm/Reshape_1"} : (tensor<1x128x1024xf32>, tensor<3xi64>) -> tensor<1x512x256xf32>
    %902 = "onnx.Custom"(%901, %35) {axis = -1 : si64, domain_name = "", epsilon = 9.99999997E-7 : f32, function_name = "SimplifiedLayerNormalization", onnx_node_name = "/model/layers.4/attn/q_norm/SimplifiedLayerNormalization", stash_type = 1 : si64} : (tensor<1x512x256xf32>, tensor<256xf32>) -> tensor<1x512x256xf32>
    %903 = "onnx.Custom"(%896, %36) {axis = -1 : si64, domain_name = "", epsilon = 9.99999997E-7 : f32, function_name = "SimplifiedLayerNormalization", onnx_node_name = "/model/layers.4/attn/k_norm/SimplifiedLayerNormalization", stash_type = 1 : si64} : (tensor<1x128x256xf32>, tensor<256xf32>) -> tensor<1x128x256xf32>
    %904 = "onnx.Reshape"(%902, %10) {allowzero = 0 : si64, onnx_node_name = "/model/layers.4/attn/q_norm/Reshape_2"} : (tensor<1x512x256xf32>, tensor<3xi64>) -> tensor<1x128x1024xf32>
    %905 = "onnx.Custom"(%904, %arg2, %11, %12) {domain_name = "com.microsoft", function_name = "RotaryEmbedding", interleaved = 0 : si64, num_heads = 0 : si64, onnx_node_name = "/model/layers.4/attn/q_rotary/RotaryEmbedding", rotary_embedding_dim = 0 : si64} : (tensor<1x128x1024xf32>, tensor<1x128xi64>, tensor<32768x128xf32>, tensor<32768x128xf32>) -> tensor<1x128x1024xf32>
    %906 = "onnx.Custom"(%903, %arg2, %11, %12) {domain_name = "com.microsoft", function_name = "RotaryEmbedding", interleaved = 0 : si64, num_heads = 0 : si64, onnx_node_name = "/model/layers.4/attn/k_rotary/RotaryEmbedding", rotary_embedding_dim = 0 : si64} : (tensor<1x128x256xf32>, tensor<1x128xi64>, tensor<32768x128xf32>, tensor<32768x128xf32>) -> tensor<1x128x256xf32>
    %907:3 = "onnx.Custom"(%905, %906, %900, %arg11, %arg12, %724, %0, %3, %3) {do_rotary = 0 : si64, domain_name = "com.microsoft", function_name = "GroupQueryAttention", kv_num_heads = 1 : si64, local_window_size = 512 : si64, num_heads = 4 : si64, onnx_node_name = "/model/layers.4/attn/GroupQueryAttention", rotary_interleaved = 0 : si64, scale = 6.250000e-02 : f32, softcap = 0.000000e+00 : f32} : (tensor<1x128x1024xf32>, tensor<1x128x256xf32>, tensor<1x128x256xf32>, tensor<1x1x1x256xf32>, tensor<1x1x1x256xf32>, tensor<1x1xi32>, tensor<i32>, none, none) -> (tensor<1x128x1024xf32>, tensor<1x1x128x256xf32>, tensor<1x1x128x256xf32>)
    %y_48, %y_scale_49, %y_zero_point_50 = "onnx.DynamicQuantizeLinear"(%907#0) {onnx_node_name = "/model/layers.4/attn/GroupQueryAttention/output_0_QuantizeLinear"} : (tensor<1x128x1024xf32>) -> (tensor<1x128x1024xui8>, tensor<f32>, tensor<ui8>)
    %908 = "onnx.MatMulInteger"(%y_48, %267, %y_zero_point_50, %266) {onnx_node_name = "/model/layers.4/attn/o_proj/MatMul_quant"} : (tensor<1x128x1024xui8>, tensor<1024x1152xi8>, tensor<ui8>, tensor<i8>) -> tensor<1x128x1152xi32>
    %909 = "onnx.Cast"(%908) {onnx_node_name = "/model/layers.4/attn/o_proj/MatMul/output_0_output_quantized_cast", saturate = 1 : si64, to = f32} : (tensor<1x128x1152xi32>) -> tensor<1x128x1152xf32>
    %910 = "onnx.Mul"(%y_scale_49, %265) {onnx_node_name = "/model/layers.4/attn/o_proj/MatMul_quant_scales_mul"} : (tensor<f32>, tensor<f32>) -> tensor<f32>
    %911 = "onnx.Mul"(%909, %910) {onnx_node_name = "/model/layers.4/attn/o_proj/MatMul_quant_output_scale_mul"} : (tensor<1x128x1152xf32>, tensor<f32>) -> tensor<1x128x1152xf32>
    %912 = "onnx.Custom"(%911, %37) {axis = -1 : si64, domain_name = "", epsilon = 9.99999997E-7 : f32, function_name = "SimplifiedLayerNormalization", onnx_node_name = "/model/layers.4/post_attention_layernorm/LayerNorm", stash_type = 1 : si64} : (tensor<1x128x1152xf32>, tensor<1152xf32>) -> tensor<1x128x1152xf32>
    %913:4 = "onnx.Custom"(%888#3, %912, %38) {domain_name = "com.microsoft", epsilon = 9.99999997E-7 : f32, function_name = "SkipSimplifiedLayerNormalization", onnx_node_name = "/model/layers.4/pre_feedforward_layernorm/SkipLayerNorm"} : (tensor<1x128x1152xf32>, tensor<1x128x1152xf32>, tensor<1152xf32>) -> (tensor<1x128x1152xf32>, none, none, tensor<1x128x1152xf32>)
    %y_51, %y_scale_52, %y_zero_point_53 = "onnx.DynamicQuantizeLinear"(%913#0) {onnx_node_name = "/model/layers.4/pre_feedforward_layernorm/output_0_QuantizeLinear"} : (tensor<1x128x1152xf32>) -> (tensor<1x128x1152xui8>, tensor<f32>, tensor<ui8>)
    %914 = "onnx.MatMulInteger"(%y_51, %270, %y_zero_point_53, %269) {onnx_node_name = "/model/layers.4/mlp/gate_proj/MatMul_quant"} : (tensor<1x128x1152xui8>, tensor<1152x6912xi8>, tensor<ui8>, tensor<i8>) -> tensor<1x128x6912xi32>
    %915 = "onnx.Cast"(%914) {onnx_node_name = "/model/layers.4/mlp/gate_proj/MatMul/output_0_output_quantized_cast", saturate = 1 : si64, to = f32} : (tensor<1x128x6912xi32>) -> tensor<1x128x6912xf32>
    %916 = "onnx.Mul"(%y_scale_52, %268) {onnx_node_name = "/model/layers.4/mlp/gate_proj/MatMul_quant_scales_mul"} : (tensor<f32>, tensor<f32>) -> tensor<f32>
    %917 = "onnx.Mul"(%915, %916) {onnx_node_name = "/model/layers.4/mlp/gate_proj/MatMul_quant_output_scale_mul"} : (tensor<1x128x6912xf32>, tensor<f32>) -> tensor<1x128x6912xf32>
    %918 = "onnx.MatMulInteger"(%y_51, %273, %y_zero_point_53, %272) {onnx_node_name = "/model/layers.4/mlp/up_proj/MatMul_quant"} : (tensor<1x128x1152xui8>, tensor<1152x6912xi8>, tensor<ui8>, tensor<i8>) -> tensor<1x128x6912xi32>
    %919 = "onnx.Cast"(%918) {onnx_node_name = "/model/layers.4/mlp/up_proj/MatMul/output_0_output_quantized_cast", saturate = 1 : si64, to = f32} : (tensor<1x128x6912xi32>) -> tensor<1x128x6912xf32>
    %920 = "onnx.Mul"(%y_scale_52, %271) {onnx_node_name = "/model/layers.4/mlp/up_proj/MatMul_quant_scales_mul"} : (tensor<f32>, tensor<f32>) -> tensor<f32>
    %921 = "onnx.Mul"(%919, %920) {onnx_node_name = "/model/layers.4/mlp/up_proj/MatMul_quant_output_scale_mul"} : (tensor<1x128x6912xf32>, tensor<f32>) -> tensor<1x128x6912xf32>
    %922 = "onnx.Custom"(%917) {domain_name = "com.microsoft", function_name = "FastGelu", onnx_node_name = "/model/layers.4/mlp/act_fn/FastGelu"} : (tensor<1x128x6912xf32>) -> tensor<1x128x6912xf32>
    %923 = "onnx.Mul"(%922, %921) {onnx_node_name = "/model/layers.4/mlp/Mul"} : (tensor<1x128x6912xf32>, tensor<1x128x6912xf32>) -> tensor<1x128x6912xf32>
    %y_54, %y_scale_55, %y_zero_point_56 = "onnx.DynamicQuantizeLinear"(%923) {onnx_node_name = "/model/layers.4/mlp/Mul/output_0_QuantizeLinear"} : (tensor<1x128x6912xf32>) -> (tensor<1x128x6912xui8>, tensor<f32>, tensor<ui8>)
    %924 = "onnx.MatMulInteger"(%y_54, %276, %y_zero_point_56, %275) {onnx_node_name = "/model/layers.4/mlp/down_proj/MatMul_quant"} : (tensor<1x128x6912xui8>, tensor<6912x1152xi8>, tensor<ui8>, tensor<i8>) -> tensor<1x128x1152xi32>
    %925 = "onnx.Cast"(%924) {onnx_node_name = "/model/layers.4/mlp/down_proj/MatMul/output_0_output_quantized_cast", saturate = 1 : si64, to = f32} : (tensor<1x128x1152xi32>) -> tensor<1x128x1152xf32>
    %926 = "onnx.Mul"(%y_scale_55, %274) {onnx_node_name = "/model/layers.4/mlp/down_proj/MatMul_quant_scales_mul"} : (tensor<f32>, tensor<f32>) -> tensor<f32>
    %927 = "onnx.Mul"(%925, %926) {onnx_node_name = "/model/layers.4/mlp/down_proj/MatMul_quant_output_scale_mul"} : (tensor<1x128x1152xf32>, tensor<f32>) -> tensor<1x128x1152xf32>
    %928 = "onnx.Custom"(%927, %39) {axis = -1 : si64, domain_name = "", epsilon = 9.99999997E-7 : f32, function_name = "SimplifiedLayerNormalization", onnx_node_name = "/model/layers.4/post_feedforward_layernorm/LayerNorm", stash_type = 1 : si64} : (tensor<1x128x1152xf32>, tensor<1152xf32>) -> tensor<1x128x1152xf32>
    %929:4 = "onnx.Custom"(%913#3, %928, %40) {domain_name = "com.microsoft", epsilon = 9.99999997E-7 : f32, function_name = "SkipSimplifiedLayerNormalization", onnx_node_name = "/model/layers.5/input_layernorm/SkipLayerNorm"} : (tensor<1x128x1152xf32>, tensor<1x128x1152xf32>, tensor<1152xf32>) -> (tensor<1x128x1152xf32>, none, none, tensor<1x128x1152xf32>)
    %y_57, %y_scale_58, %y_zero_point_59 = "onnx.DynamicQuantizeLinear"(%929#0) {onnx_node_name = "/model/layers.5/input_layernorm/output_0_QuantizeLinear"} : (tensor<1x128x1152xf32>) -> (tensor<1x128x1152xui8>, tensor<f32>, tensor<ui8>)
    %930 = "onnx.MatMulInteger"(%y_57, %279, %y_zero_point_59, %278) {onnx_node_name = "/model/layers.5/attn/q_proj/MatMul_quant"} : (tensor<1x128x1152xui8>, tensor<1152x1024xi8>, tensor<ui8>, tensor<i8>) -> tensor<1x128x1024xi32>
    %931 = "onnx.Cast"(%930) {onnx_node_name = "/model/layers.5/attn/q_proj/MatMul/output_0_output_quantized_cast", saturate = 1 : si64, to = f32} : (tensor<1x128x1024xi32>) -> tensor<1x128x1024xf32>
    %932 = "onnx.Mul"(%y_scale_58, %277) {onnx_node_name = "/model/layers.5/attn/q_proj/MatMul_quant_scales_mul"} : (tensor<f32>, tensor<f32>) -> tensor<f32>
    %933 = "onnx.Mul"(%931, %932) {onnx_node_name = "/model/layers.5/attn/q_proj/MatMul_quant_output_scale_mul"} : (tensor<1x128x1024xf32>, tensor<f32>) -> tensor<1x128x1024xf32>
    %934 = "onnx.MatMulInteger"(%y_57, %282, %y_zero_point_59, %281) {onnx_node_name = "/model/layers.5/attn/k_proj/MatMul_quant"} : (tensor<1x128x1152xui8>, tensor<1152x256xi8>, tensor<ui8>, tensor<i8>) -> tensor<1x128x256xi32>
    %935 = "onnx.Cast"(%934) {onnx_node_name = "/model/layers.5/attn/k_proj/MatMul/output_0_output_quantized_cast", saturate = 1 : si64, to = f32} : (tensor<1x128x256xi32>) -> tensor<1x128x256xf32>
    %936 = "onnx.Mul"(%y_scale_58, %280) {onnx_node_name = "/model/layers.5/attn/k_proj/MatMul_quant_scales_mul"} : (tensor<f32>, tensor<f32>) -> tensor<f32>
    %937 = "onnx.Mul"(%935, %936) {onnx_node_name = "/model/layers.5/attn/k_proj/MatMul_quant_output_scale_mul"} : (tensor<1x128x256xf32>, tensor<f32>) -> tensor<1x128x256xf32>
    %938 = "onnx.MatMulInteger"(%y_57, %285, %y_zero_point_59, %284) {onnx_node_name = "/model/layers.5/attn/v_proj/MatMul_quant"} : (tensor<1x128x1152xui8>, tensor<1152x256xi8>, tensor<ui8>, tensor<i8>) -> tensor<1x128x256xi32>
    %939 = "onnx.Cast"(%938) {onnx_node_name = "/model/layers.5/attn/v_proj/MatMul/output_0_output_quantized_cast", saturate = 1 : si64, to = f32} : (tensor<1x128x256xi32>) -> tensor<1x128x256xf32>
    %940 = "onnx.Mul"(%y_scale_58, %283) {onnx_node_name = "/model/layers.5/attn/v_proj/MatMul_quant_scales_mul"} : (tensor<f32>, tensor<f32>) -> tensor<f32>
    %941 = "onnx.Mul"(%939, %940) {onnx_node_name = "/model/layers.5/attn/v_proj/MatMul_quant_output_scale_mul"} : (tensor<1x128x256xf32>, tensor<f32>) -> tensor<1x128x256xf32>
    %942 = "onnx.Reshape"(%933, %7) {allowzero = 0 : si64, onnx_node_name = "/model/layers.5/attn/q_norm/Reshape_1"} : (tensor<1x128x1024xf32>, tensor<3xi64>) -> tensor<1x512x256xf32>
    %943 = "onnx.Custom"(%942, %41) {axis = -1 : si64, domain_name = "", epsilon = 9.99999997E-7 : f32, function_name = "SimplifiedLayerNormalization", onnx_node_name = "/model/layers.5/attn/q_norm/SimplifiedLayerNormalization", stash_type = 1 : si64} : (tensor<1x512x256xf32>, tensor<256xf32>) -> tensor<1x512x256xf32>
    %944 = "onnx.Custom"(%937, %42) {axis = -1 : si64, domain_name = "", epsilon = 9.99999997E-7 : f32, function_name = "SimplifiedLayerNormalization", onnx_node_name = "/model/layers.5/attn/k_norm/SimplifiedLayerNormalization", stash_type = 1 : si64} : (tensor<1x128x256xf32>, tensor<256xf32>) -> tensor<1x128x256xf32>
    %945 = "onnx.Reshape"(%943, %10) {allowzero = 0 : si64, onnx_node_name = "/model/layers.5/attn/q_norm/Reshape_2"} : (tensor<1x512x256xf32>, tensor<3xi64>) -> tensor<1x128x1024xf32>
    %946 = "onnx.Custom"(%945, %arg2, %43, %44) {domain_name = "com.microsoft", function_name = "RotaryEmbedding", interleaved = 0 : si64, num_heads = 0 : si64, onnx_node_name = "/model/layers.5/attn/q_rotary/RotaryEmbedding", rotary_embedding_dim = 0 : si64} : (tensor<1x128x1024xf32>, tensor<1x128xi64>, tensor<32768x128xf32>, tensor<32768x128xf32>) -> tensor<1x128x1024xf32>
    %947 = "onnx.Custom"(%944, %arg2, %43, %44) {domain_name = "com.microsoft", function_name = "RotaryEmbedding", interleaved = 0 : si64, num_heads = 0 : si64, onnx_node_name = "/model/layers.5/attn/k_rotary/RotaryEmbedding", rotary_embedding_dim = 0 : si64} : (tensor<1x128x256xf32>, tensor<1x128xi64>, tensor<32768x128xf32>, tensor<32768x128xf32>) -> tensor<1x128x256xf32>
    %948:3 = "onnx.Custom"(%946, %947, %941, %arg13, %arg14, %724, %0, %3, %3) {do_rotary = 0 : si64, domain_name = "com.microsoft", function_name = "GroupQueryAttention", kv_num_heads = 1 : si64, local_window_size = -1 : si64, num_heads = 4 : si64, onnx_node_name = "/model/layers.5/attn/GroupQueryAttention", rotary_interleaved = 0 : si64, scale = 6.250000e-02 : f32, softcap = 0.000000e+00 : f32} : (tensor<1x128x1024xf32>, tensor<1x128x256xf32>, tensor<1x128x256xf32>, tensor<1x1x1x256xf32>, tensor<1x1x1x256xf32>, tensor<1x1xi32>, tensor<i32>, none, none) -> (tensor<1x128x1024xf32>, tensor<1x1x128x256xf32>, tensor<1x1x128x256xf32>)
    %y_60, %y_scale_61, %y_zero_point_62 = "onnx.DynamicQuantizeLinear"(%948#0) {onnx_node_name = "/model/layers.5/attn/GroupQueryAttention/output_0_QuantizeLinear"} : (tensor<1x128x1024xf32>) -> (tensor<1x128x1024xui8>, tensor<f32>, tensor<ui8>)
    %949 = "onnx.MatMulInteger"(%y_60, %288, %y_zero_point_62, %287) {onnx_node_name = "/model/layers.5/attn/o_proj/MatMul_quant"} : (tensor<1x128x1024xui8>, tensor<1024x1152xi8>, tensor<ui8>, tensor<i8>) -> tensor<1x128x1152xi32>
    %950 = "onnx.Cast"(%949) {onnx_node_name = "/model/layers.5/attn/o_proj/MatMul/output_0_output_quantized_cast", saturate = 1 : si64, to = f32} : (tensor<1x128x1152xi32>) -> tensor<1x128x1152xf32>
    %951 = "onnx.Mul"(%y_scale_61, %286) {onnx_node_name = "/model/layers.5/attn/o_proj/MatMul_quant_scales_mul"} : (tensor<f32>, tensor<f32>) -> tensor<f32>
    %952 = "onnx.Mul"(%950, %951) {onnx_node_name = "/model/layers.5/attn/o_proj/MatMul_quant_output_scale_mul"} : (tensor<1x128x1152xf32>, tensor<f32>) -> tensor<1x128x1152xf32>
    %953 = "onnx.Custom"(%952, %45) {axis = -1 : si64, domain_name = "", epsilon = 9.99999997E-7 : f32, function_name = "SimplifiedLayerNormalization", onnx_node_name = "/model/layers.5/post_attention_layernorm/LayerNorm", stash_type = 1 : si64} : (tensor<1x128x1152xf32>, tensor<1152xf32>) -> tensor<1x128x1152xf32>
    %954:4 = "onnx.Custom"(%929#3, %953, %46) {domain_name = "com.microsoft", epsilon = 9.99999997E-7 : f32, function_name = "SkipSimplifiedLayerNormalization", onnx_node_name = "/model/layers.5/pre_feedforward_layernorm/SkipLayerNorm"} : (tensor<1x128x1152xf32>, tensor<1x128x1152xf32>, tensor<1152xf32>) -> (tensor<1x128x1152xf32>, none, none, tensor<1x128x1152xf32>)
    %y_63, %y_scale_64, %y_zero_point_65 = "onnx.DynamicQuantizeLinear"(%954#0) {onnx_node_name = "/model/layers.5/pre_feedforward_layernorm/output_0_QuantizeLinear"} : (tensor<1x128x1152xf32>) -> (tensor<1x128x1152xui8>, tensor<f32>, tensor<ui8>)
    %955 = "onnx.MatMulInteger"(%y_63, %291, %y_zero_point_65, %290) {onnx_node_name = "/model/layers.5/mlp/gate_proj/MatMul_quant"} : (tensor<1x128x1152xui8>, tensor<1152x6912xi8>, tensor<ui8>, tensor<i8>) -> tensor<1x128x6912xi32>
    %956 = "onnx.Cast"(%955) {onnx_node_name = "/model/layers.5/mlp/gate_proj/MatMul/output_0_output_quantized_cast", saturate = 1 : si64, to = f32} : (tensor<1x128x6912xi32>) -> tensor<1x128x6912xf32>
    %957 = "onnx.Mul"(%y_scale_64, %289) {onnx_node_name = "/model/layers.5/mlp/gate_proj/MatMul_quant_scales_mul"} : (tensor<f32>, tensor<f32>) -> tensor<f32>
    %958 = "onnx.Mul"(%956, %957) {onnx_node_name = "/model/layers.5/mlp/gate_proj/MatMul_quant_output_scale_mul"} : (tensor<1x128x6912xf32>, tensor<f32>) -> tensor<1x128x6912xf32>
    %959 = "onnx.MatMulInteger"(%y_63, %294, %y_zero_point_65, %293) {onnx_node_name = "/model/layers.5/mlp/up_proj/MatMul_quant"} : (tensor<1x128x1152xui8>, tensor<1152x6912xi8>, tensor<ui8>, tensor<i8>) -> tensor<1x128x6912xi32>
    %960 = "onnx.Cast"(%959) {onnx_node_name = "/model/layers.5/mlp/up_proj/MatMul/output_0_output_quantized_cast", saturate = 1 : si64, to = f32} : (tensor<1x128x6912xi32>) -> tensor<1x128x6912xf32>
    %961 = "onnx.Mul"(%y_scale_64, %292) {onnx_node_name = "/model/layers.5/mlp/up_proj/MatMul_quant_scales_mul"} : (tensor<f32>, tensor<f32>) -> tensor<f32>
    %962 = "onnx.Mul"(%960, %961) {onnx_node_name = "/model/layers.5/mlp/up_proj/MatMul_quant_output_scale_mul"} : (tensor<1x128x6912xf32>, tensor<f32>) -> tensor<1x128x6912xf32>
    %963 = "onnx.Custom"(%958) {domain_name = "com.microsoft", function_name = "FastGelu", onnx_node_name = "/model/layers.5/mlp/act_fn/FastGelu"} : (tensor<1x128x6912xf32>) -> tensor<1x128x6912xf32>
    %964 = "onnx.Mul"(%963, %962) {onnx_node_name = "/model/layers.5/mlp/Mul"} : (tensor<1x128x6912xf32>, tensor<1x128x6912xf32>) -> tensor<1x128x6912xf32>
    %y_66, %y_scale_67, %y_zero_point_68 = "onnx.DynamicQuantizeLinear"(%964) {onnx_node_name = "/model/layers.5/mlp/Mul/output_0_QuantizeLinear"} : (tensor<1x128x6912xf32>) -> (tensor<1x128x6912xui8>, tensor<f32>, tensor<ui8>)
    %965 = "onnx.MatMulInteger"(%y_66, %297, %y_zero_point_68, %296) {onnx_node_name = "/model/layers.5/mlp/down_proj/MatMul_quant"} : (tensor<1x128x6912xui8>, tensor<6912x1152xi8>, tensor<ui8>, tensor<i8>) -> tensor<1x128x1152xi32>
    %966 = "onnx.Cast"(%965) {onnx_node_name = "/model/layers.5/mlp/down_proj/MatMul/output_0_output_quantized_cast", saturate = 1 : si64, to = f32} : (tensor<1x128x1152xi32>) -> tensor<1x128x1152xf32>
    %967 = "onnx.Mul"(%y_scale_67, %295) {onnx_node_name = "/model/layers.5/mlp/down_proj/MatMul_quant_scales_mul"} : (tensor<f32>, tensor<f32>) -> tensor<f32>
    %968 = "onnx.Mul"(%966, %967) {onnx_node_name = "/model/layers.5/mlp/down_proj/MatMul_quant_output_scale_mul"} : (tensor<1x128x1152xf32>, tensor<f32>) -> tensor<1x128x1152xf32>
    %969 = "onnx.Custom"(%968, %47) {axis = -1 : si64, domain_name = "", epsilon = 9.99999997E-7 : f32, function_name = "SimplifiedLayerNormalization", onnx_node_name = "/model/layers.5/post_feedforward_layernorm/LayerNorm", stash_type = 1 : si64} : (tensor<1x128x1152xf32>, tensor<1152xf32>) -> tensor<1x128x1152xf32>
    %970:4 = "onnx.Custom"(%954#3, %969, %48) {domain_name = "com.microsoft", epsilon = 9.99999997E-7 : f32, function_name = "SkipSimplifiedLayerNormalization", onnx_node_name = "/model/layers.6/input_layernorm/SkipLayerNorm"} : (tensor<1x128x1152xf32>, tensor<1x128x1152xf32>, tensor<1152xf32>) -> (tensor<1x128x1152xf32>, none, none, tensor<1x128x1152xf32>)
    %y_69, %y_scale_70, %y_zero_point_71 = "onnx.DynamicQuantizeLinear"(%970#0) {onnx_node_name = "/model/layers.6/input_layernorm/output_0_QuantizeLinear"} : (tensor<1x128x1152xf32>) -> (tensor<1x128x1152xui8>, tensor<f32>, tensor<ui8>)
    %971 = "onnx.MatMulInteger"(%y_69, %300, %y_zero_point_71, %299) {onnx_node_name = "/model/layers.6/attn/q_proj/MatMul_quant"} : (tensor<1x128x1152xui8>, tensor<1152x1024xi8>, tensor<ui8>, tensor<i8>) -> tensor<1x128x1024xi32>
    %972 = "onnx.Cast"(%971) {onnx_node_name = "/model/layers.6/attn/q_proj/MatMul/output_0_output_quantized_cast", saturate = 1 : si64, to = f32} : (tensor<1x128x1024xi32>) -> tensor<1x128x1024xf32>
    %973 = "onnx.Mul"(%y_scale_70, %298) {onnx_node_name = "/model/layers.6/attn/q_proj/MatMul_quant_scales_mul"} : (tensor<f32>, tensor<f32>) -> tensor<f32>
    %974 = "onnx.Mul"(%972, %973) {onnx_node_name = "/model/layers.6/attn/q_proj/MatMul_quant_output_scale_mul"} : (tensor<1x128x1024xf32>, tensor<f32>) -> tensor<1x128x1024xf32>
    %975 = "onnx.MatMulInteger"(%y_69, %303, %y_zero_point_71, %302) {onnx_node_name = "/model/layers.6/attn/k_proj/MatMul_quant"} : (tensor<1x128x1152xui8>, tensor<1152x256xi8>, tensor<ui8>, tensor<i8>) -> tensor<1x128x256xi32>
    %976 = "onnx.Cast"(%975) {onnx_node_name = "/model/layers.6/attn/k_proj/MatMul/output_0_output_quantized_cast", saturate = 1 : si64, to = f32} : (tensor<1x128x256xi32>) -> tensor<1x128x256xf32>
    %977 = "onnx.Mul"(%y_scale_70, %301) {onnx_node_name = "/model/layers.6/attn/k_proj/MatMul_quant_scales_mul"} : (tensor<f32>, tensor<f32>) -> tensor<f32>
    %978 = "onnx.Mul"(%976, %977) {onnx_node_name = "/model/layers.6/attn/k_proj/MatMul_quant_output_scale_mul"} : (tensor<1x128x256xf32>, tensor<f32>) -> tensor<1x128x256xf32>
    %979 = "onnx.MatMulInteger"(%y_69, %306, %y_zero_point_71, %305) {onnx_node_name = "/model/layers.6/attn/v_proj/MatMul_quant"} : (tensor<1x128x1152xui8>, tensor<1152x256xi8>, tensor<ui8>, tensor<i8>) -> tensor<1x128x256xi32>
    %980 = "onnx.Cast"(%979) {onnx_node_name = "/model/layers.6/attn/v_proj/MatMul/output_0_output_quantized_cast", saturate = 1 : si64, to = f32} : (tensor<1x128x256xi32>) -> tensor<1x128x256xf32>
    %981 = "onnx.Mul"(%y_scale_70, %304) {onnx_node_name = "/model/layers.6/attn/v_proj/MatMul_quant_scales_mul"} : (tensor<f32>, tensor<f32>) -> tensor<f32>
    %982 = "onnx.Mul"(%980, %981) {onnx_node_name = "/model/layers.6/attn/v_proj/MatMul_quant_output_scale_mul"} : (tensor<1x128x256xf32>, tensor<f32>) -> tensor<1x128x256xf32>
    %983 = "onnx.Reshape"(%974, %7) {allowzero = 0 : si64, onnx_node_name = "/model/layers.6/attn/q_norm/Reshape_1"} : (tensor<1x128x1024xf32>, tensor<3xi64>) -> tensor<1x512x256xf32>
    %984 = "onnx.Custom"(%983, %49) {axis = -1 : si64, domain_name = "", epsilon = 9.99999997E-7 : f32, function_name = "SimplifiedLayerNormalization", onnx_node_name = "/model/layers.6/attn/q_norm/SimplifiedLayerNormalization", stash_type = 1 : si64} : (tensor<1x512x256xf32>, tensor<256xf32>) -> tensor<1x512x256xf32>
    %985 = "onnx.Custom"(%978, %50) {axis = -1 : si64, domain_name = "", epsilon = 9.99999997E-7 : f32, function_name = "SimplifiedLayerNormalization", onnx_node_name = "/model/layers.6/attn/k_norm/SimplifiedLayerNormalization", stash_type = 1 : si64} : (tensor<1x128x256xf32>, tensor<256xf32>) -> tensor<1x128x256xf32>
    %986 = "onnx.Reshape"(%984, %10) {allowzero = 0 : si64, onnx_node_name = "/model/layers.6/attn/q_norm/Reshape_2"} : (tensor<1x512x256xf32>, tensor<3xi64>) -> tensor<1x128x1024xf32>
    %987 = "onnx.Custom"(%986, %arg2, %11, %12) {domain_name = "com.microsoft", function_name = "RotaryEmbedding", interleaved = 0 : si64, num_heads = 0 : si64, onnx_node_name = "/model/layers.6/attn/q_rotary/RotaryEmbedding", rotary_embedding_dim = 0 : si64} : (tensor<1x128x1024xf32>, tensor<1x128xi64>, tensor<32768x128xf32>, tensor<32768x128xf32>) -> tensor<1x128x1024xf32>
    %988 = "onnx.Custom"(%985, %arg2, %11, %12) {domain_name = "com.microsoft", function_name = "RotaryEmbedding", interleaved = 0 : si64, num_heads = 0 : si64, onnx_node_name = "/model/layers.6/attn/k_rotary/RotaryEmbedding", rotary_embedding_dim = 0 : si64} : (tensor<1x128x256xf32>, tensor<1x128xi64>, tensor<32768x128xf32>, tensor<32768x128xf32>) -> tensor<1x128x256xf32>
    %989:3 = "onnx.Custom"(%987, %988, %982, %arg15, %arg16, %724, %0, %3, %3) {do_rotary = 0 : si64, domain_name = "com.microsoft", function_name = "GroupQueryAttention", kv_num_heads = 1 : si64, local_window_size = 512 : si64, num_heads = 4 : si64, onnx_node_name = "/model/layers.6/attn/GroupQueryAttention", rotary_interleaved = 0 : si64, scale = 6.250000e-02 : f32, softcap = 0.000000e+00 : f32} : (tensor<1x128x1024xf32>, tensor<1x128x256xf32>, tensor<1x128x256xf32>, tensor<1x1x1x256xf32>, tensor<1x1x1x256xf32>, tensor<1x1xi32>, tensor<i32>, none, none) -> (tensor<1x128x1024xf32>, tensor<1x1x128x256xf32>, tensor<1x1x128x256xf32>)
    %y_72, %y_scale_73, %y_zero_point_74 = "onnx.DynamicQuantizeLinear"(%989#0) {onnx_node_name = "/model/layers.6/attn/GroupQueryAttention/output_0_QuantizeLinear"} : (tensor<1x128x1024xf32>) -> (tensor<1x128x1024xui8>, tensor<f32>, tensor<ui8>)
    %990 = "onnx.MatMulInteger"(%y_72, %309, %y_zero_point_74, %308) {onnx_node_name = "/model/layers.6/attn/o_proj/MatMul_quant"} : (tensor<1x128x1024xui8>, tensor<1024x1152xi8>, tensor<ui8>, tensor<i8>) -> tensor<1x128x1152xi32>
    %991 = "onnx.Cast"(%990) {onnx_node_name = "/model/layers.6/attn/o_proj/MatMul/output_0_output_quantized_cast", saturate = 1 : si64, to = f32} : (tensor<1x128x1152xi32>) -> tensor<1x128x1152xf32>
    %992 = "onnx.Mul"(%y_scale_73, %307) {onnx_node_name = "/model/layers.6/attn/o_proj/MatMul_quant_scales_mul"} : (tensor<f32>, tensor<f32>) -> tensor<f32>
    %993 = "onnx.Mul"(%991, %992) {onnx_node_name = "/model/layers.6/attn/o_proj/MatMul_quant_output_scale_mul"} : (tensor<1x128x1152xf32>, tensor<f32>) -> tensor<1x128x1152xf32>
    %994 = "onnx.Custom"(%993, %51) {axis = -1 : si64, domain_name = "", epsilon = 9.99999997E-7 : f32, function_name = "SimplifiedLayerNormalization", onnx_node_name = "/model/layers.6/post_attention_layernorm/LayerNorm", stash_type = 1 : si64} : (tensor<1x128x1152xf32>, tensor<1152xf32>) -> tensor<1x128x1152xf32>
    %995:4 = "onnx.Custom"(%970#3, %994, %52) {domain_name = "com.microsoft", epsilon = 9.99999997E-7 : f32, function_name = "SkipSimplifiedLayerNormalization", onnx_node_name = "/model/layers.6/pre_feedforward_layernorm/SkipLayerNorm"} : (tensor<1x128x1152xf32>, tensor<1x128x1152xf32>, tensor<1152xf32>) -> (tensor<1x128x1152xf32>, none, none, tensor<1x128x1152xf32>)
    %y_75, %y_scale_76, %y_zero_point_77 = "onnx.DynamicQuantizeLinear"(%995#0) {onnx_node_name = "/model/layers.6/pre_feedforward_layernorm/output_0_QuantizeLinear"} : (tensor<1x128x1152xf32>) -> (tensor<1x128x1152xui8>, tensor<f32>, tensor<ui8>)
    %996 = "onnx.MatMulInteger"(%y_75, %312, %y_zero_point_77, %311) {onnx_node_name = "/model/layers.6/mlp/gate_proj/MatMul_quant"} : (tensor<1x128x1152xui8>, tensor<1152x6912xi8>, tensor<ui8>, tensor<i8>) -> tensor<1x128x6912xi32>
    %997 = "onnx.Cast"(%996) {onnx_node_name = "/model/layers.6/mlp/gate_proj/MatMul/output_0_output_quantized_cast", saturate = 1 : si64, to = f32} : (tensor<1x128x6912xi32>) -> tensor<1x128x6912xf32>
    %998 = "onnx.Mul"(%y_scale_76, %310) {onnx_node_name = "/model/layers.6/mlp/gate_proj/MatMul_quant_scales_mul"} : (tensor<f32>, tensor<f32>) -> tensor<f32>
    %999 = "onnx.Mul"(%997, %998) {onnx_node_name = "/model/layers.6/mlp/gate_proj/MatMul_quant_output_scale_mul"} : (tensor<1x128x6912xf32>, tensor<f32>) -> tensor<1x128x6912xf32>
    %1000 = "onnx.MatMulInteger"(%y_75, %315, %y_zero_point_77, %314) {onnx_node_name = "/model/layers.6/mlp/up_proj/MatMul_quant"} : (tensor<1x128x1152xui8>, tensor<1152x6912xi8>, tensor<ui8>, tensor<i8>) -> tensor<1x128x6912xi32>
    %1001 = "onnx.Cast"(%1000) {onnx_node_name = "/model/layers.6/mlp/up_proj/MatMul/output_0_output_quantized_cast", saturate = 1 : si64, to = f32} : (tensor<1x128x6912xi32>) -> tensor<1x128x6912xf32>
    %1002 = "onnx.Mul"(%y_scale_76, %313) {onnx_node_name = "/model/layers.6/mlp/up_proj/MatMul_quant_scales_mul"} : (tensor<f32>, tensor<f32>) -> tensor<f32>
    %1003 = "onnx.Mul"(%1001, %1002) {onnx_node_name = "/model/layers.6/mlp/up_proj/MatMul_quant_output_scale_mul"} : (tensor<1x128x6912xf32>, tensor<f32>) -> tensor<1x128x6912xf32>
    %1004 = "onnx.Custom"(%999) {domain_name = "com.microsoft", function_name = "FastGelu", onnx_node_name = "/model/layers.6/mlp/act_fn/FastGelu"} : (tensor<1x128x6912xf32>) -> tensor<1x128x6912xf32>
    %1005 = "onnx.Mul"(%1004, %1003) {onnx_node_name = "/model/layers.6/mlp/Mul"} : (tensor<1x128x6912xf32>, tensor<1x128x6912xf32>) -> tensor<1x128x6912xf32>
    %y_78, %y_scale_79, %y_zero_point_80 = "onnx.DynamicQuantizeLinear"(%1005) {onnx_node_name = "/model/layers.6/mlp/Mul/output_0_QuantizeLinear"} : (tensor<1x128x6912xf32>) -> (tensor<1x128x6912xui8>, tensor<f32>, tensor<ui8>)
    %1006 = "onnx.MatMulInteger"(%y_78, %318, %y_zero_point_80, %317) {onnx_node_name = "/model/layers.6/mlp/down_proj/MatMul_quant"} : (tensor<1x128x6912xui8>, tensor<6912x1152xi8>, tensor<ui8>, tensor<i8>) -> tensor<1x128x1152xi32>
    %1007 = "onnx.Cast"(%1006) {onnx_node_name = "/model/layers.6/mlp/down_proj/MatMul/output_0_output_quantized_cast", saturate = 1 : si64, to = f32} : (tensor<1x128x1152xi32>) -> tensor<1x128x1152xf32>
    %1008 = "onnx.Mul"(%y_scale_79, %316) {onnx_node_name = "/model/layers.6/mlp/down_proj/MatMul_quant_scales_mul"} : (tensor<f32>, tensor<f32>) -> tensor<f32>
    %1009 = "onnx.Mul"(%1007, %1008) {onnx_node_name = "/model/layers.6/mlp/down_proj/MatMul_quant_output_scale_mul"} : (tensor<1x128x1152xf32>, tensor<f32>) -> tensor<1x128x1152xf32>
    %1010 = "onnx.Custom"(%1009, %53) {axis = -1 : si64, domain_name = "", epsilon = 9.99999997E-7 : f32, function_name = "SimplifiedLayerNormalization", onnx_node_name = "/model/layers.6/post_feedforward_layernorm/LayerNorm", stash_type = 1 : si64} : (tensor<1x128x1152xf32>, tensor<1152xf32>) -> tensor<1x128x1152xf32>
    %1011:4 = "onnx.Custom"(%995#3, %1010, %54) {domain_name = "com.microsoft", epsilon = 9.99999997E-7 : f32, function_name = "SkipSimplifiedLayerNormalization", onnx_node_name = "/model/layers.7/input_layernorm/SkipLayerNorm"} : (tensor<1x128x1152xf32>, tensor<1x128x1152xf32>, tensor<1152xf32>) -> (tensor<1x128x1152xf32>, none, none, tensor<1x128x1152xf32>)
    %y_81, %y_scale_82, %y_zero_point_83 = "onnx.DynamicQuantizeLinear"(%1011#0) {onnx_node_name = "/model/layers.7/input_layernorm/output_0_QuantizeLinear"} : (tensor<1x128x1152xf32>) -> (tensor<1x128x1152xui8>, tensor<f32>, tensor<ui8>)
    %1012 = "onnx.MatMulInteger"(%y_81, %321, %y_zero_point_83, %320) {onnx_node_name = "/model/layers.7/attn/q_proj/MatMul_quant"} : (tensor<1x128x1152xui8>, tensor<1152x1024xi8>, tensor<ui8>, tensor<i8>) -> tensor<1x128x1024xi32>
    %1013 = "onnx.Cast"(%1012) {onnx_node_name = "/model/layers.7/attn/q_proj/MatMul/output_0_output_quantized_cast", saturate = 1 : si64, to = f32} : (tensor<1x128x1024xi32>) -> tensor<1x128x1024xf32>
    %1014 = "onnx.Mul"(%y_scale_82, %319) {onnx_node_name = "/model/layers.7/attn/q_proj/MatMul_quant_scales_mul"} : (tensor<f32>, tensor<f32>) -> tensor<f32>
    %1015 = "onnx.Mul"(%1013, %1014) {onnx_node_name = "/model/layers.7/attn/q_proj/MatMul_quant_output_scale_mul"} : (tensor<1x128x1024xf32>, tensor<f32>) -> tensor<1x128x1024xf32>
    %1016 = "onnx.MatMulInteger"(%y_81, %324, %y_zero_point_83, %323) {onnx_node_name = "/model/layers.7/attn/k_proj/MatMul_quant"} : (tensor<1x128x1152xui8>, tensor<1152x256xi8>, tensor<ui8>, tensor<i8>) -> tensor<1x128x256xi32>
    %1017 = "onnx.Cast"(%1016) {onnx_node_name = "/model/layers.7/attn/k_proj/MatMul/output_0_output_quantized_cast", saturate = 1 : si64, to = f32} : (tensor<1x128x256xi32>) -> tensor<1x128x256xf32>
    %1018 = "onnx.Mul"(%y_scale_82, %322) {onnx_node_name = "/model/layers.7/attn/k_proj/MatMul_quant_scales_mul"} : (tensor<f32>, tensor<f32>) -> tensor<f32>
    %1019 = "onnx.Mul"(%1017, %1018) {onnx_node_name = "/model/layers.7/attn/k_proj/MatMul_quant_output_scale_mul"} : (tensor<1x128x256xf32>, tensor<f32>) -> tensor<1x128x256xf32>
    %1020 = "onnx.MatMulInteger"(%y_81, %327, %y_zero_point_83, %326) {onnx_node_name = "/model/layers.7/attn/v_proj/MatMul_quant"} : (tensor<1x128x1152xui8>, tensor<1152x256xi8>, tensor<ui8>, tensor<i8>) -> tensor<1x128x256xi32>
    %1021 = "onnx.Cast"(%1020) {onnx_node_name = "/model/layers.7/attn/v_proj/MatMul/output_0_output_quantized_cast", saturate = 1 : si64, to = f32} : (tensor<1x128x256xi32>) -> tensor<1x128x256xf32>
    %1022 = "onnx.Mul"(%y_scale_82, %325) {onnx_node_name = "/model/layers.7/attn/v_proj/MatMul_quant_scales_mul"} : (tensor<f32>, tensor<f32>) -> tensor<f32>
    %1023 = "onnx.Mul"(%1021, %1022) {onnx_node_name = "/model/layers.7/attn/v_proj/MatMul_quant_output_scale_mul"} : (tensor<1x128x256xf32>, tensor<f32>) -> tensor<1x128x256xf32>
    %1024 = "onnx.Reshape"(%1015, %7) {allowzero = 0 : si64, onnx_node_name = "/model/layers.7/attn/q_norm/Reshape_1"} : (tensor<1x128x1024xf32>, tensor<3xi64>) -> tensor<1x512x256xf32>
    %1025 = "onnx.Custom"(%1024, %55) {axis = -1 : si64, domain_name = "", epsilon = 9.99999997E-7 : f32, function_name = "SimplifiedLayerNormalization", onnx_node_name = "/model/layers.7/attn/q_norm/SimplifiedLayerNormalization", stash_type = 1 : si64} : (tensor<1x512x256xf32>, tensor<256xf32>) -> tensor<1x512x256xf32>
    %1026 = "onnx.Custom"(%1019, %56) {axis = -1 : si64, domain_name = "", epsilon = 9.99999997E-7 : f32, function_name = "SimplifiedLayerNormalization", onnx_node_name = "/model/layers.7/attn/k_norm/SimplifiedLayerNormalization", stash_type = 1 : si64} : (tensor<1x128x256xf32>, tensor<256xf32>) -> tensor<1x128x256xf32>
    %1027 = "onnx.Reshape"(%1025, %10) {allowzero = 0 : si64, onnx_node_name = "/model/layers.7/attn/q_norm/Reshape_2"} : (tensor<1x512x256xf32>, tensor<3xi64>) -> tensor<1x128x1024xf32>
    %1028 = "onnx.Custom"(%1027, %arg2, %11, %12) {domain_name = "com.microsoft", function_name = "RotaryEmbedding", interleaved = 0 : si64, num_heads = 0 : si64, onnx_node_name = "/model/layers.7/attn/q_rotary/RotaryEmbedding", rotary_embedding_dim = 0 : si64} : (tensor<1x128x1024xf32>, tensor<1x128xi64>, tensor<32768x128xf32>, tensor<32768x128xf32>) -> tensor<1x128x1024xf32>
    %1029 = "onnx.Custom"(%1026, %arg2, %11, %12) {domain_name = "com.microsoft", function_name = "RotaryEmbedding", interleaved = 0 : si64, num_heads = 0 : si64, onnx_node_name = "/model/layers.7/attn/k_rotary/RotaryEmbedding", rotary_embedding_dim = 0 : si64} : (tensor<1x128x256xf32>, tensor<1x128xi64>, tensor<32768x128xf32>, tensor<32768x128xf32>) -> tensor<1x128x256xf32>
    %1030:3 = "onnx.Custom"(%1028, %1029, %1023, %arg17, %arg18, %724, %0, %3, %3) {do_rotary = 0 : si64, domain_name = "com.microsoft", function_name = "GroupQueryAttention", kv_num_heads = 1 : si64, local_window_size = 512 : si64, num_heads = 4 : si64, onnx_node_name = "/model/layers.7/attn/GroupQueryAttention", rotary_interleaved = 0 : si64, scale = 6.250000e-02 : f32, softcap = 0.000000e+00 : f32} : (tensor<1x128x1024xf32>, tensor<1x128x256xf32>, tensor<1x128x256xf32>, tensor<1x1x1x256xf32>, tensor<1x1x1x256xf32>, tensor<1x1xi32>, tensor<i32>, none, none) -> (tensor<1x128x1024xf32>, tensor<1x1x128x256xf32>, tensor<1x1x128x256xf32>)
    %y_84, %y_scale_85, %y_zero_point_86 = "onnx.DynamicQuantizeLinear"(%1030#0) {onnx_node_name = "/model/layers.7/attn/GroupQueryAttention/output_0_QuantizeLinear"} : (tensor<1x128x1024xf32>) -> (tensor<1x128x1024xui8>, tensor<f32>, tensor<ui8>)
    %1031 = "onnx.MatMulInteger"(%y_84, %330, %y_zero_point_86, %329) {onnx_node_name = "/model/layers.7/attn/o_proj/MatMul_quant"} : (tensor<1x128x1024xui8>, tensor<1024x1152xi8>, tensor<ui8>, tensor<i8>) -> tensor<1x128x1152xi32>
    %1032 = "onnx.Cast"(%1031) {onnx_node_name = "/model/layers.7/attn/o_proj/MatMul/output_0_output_quantized_cast", saturate = 1 : si64, to = f32} : (tensor<1x128x1152xi32>) -> tensor<1x128x1152xf32>
    %1033 = "onnx.Mul"(%y_scale_85, %328) {onnx_node_name = "/model/layers.7/attn/o_proj/MatMul_quant_scales_mul"} : (tensor<f32>, tensor<f32>) -> tensor<f32>
    %1034 = "onnx.Mul"(%1032, %1033) {onnx_node_name = "/model/layers.7/attn/o_proj/MatMul_quant_output_scale_mul"} : (tensor<1x128x1152xf32>, tensor<f32>) -> tensor<1x128x1152xf32>
    %1035 = "onnx.Custom"(%1034, %57) {axis = -1 : si64, domain_name = "", epsilon = 9.99999997E-7 : f32, function_name = "SimplifiedLayerNormalization", onnx_node_name = "/model/layers.7/post_attention_layernorm/LayerNorm", stash_type = 1 : si64} : (tensor<1x128x1152xf32>, tensor<1152xf32>) -> tensor<1x128x1152xf32>
    %1036:4 = "onnx.Custom"(%1011#3, %1035, %58) {domain_name = "com.microsoft", epsilon = 9.99999997E-7 : f32, function_name = "SkipSimplifiedLayerNormalization", onnx_node_name = "/model/layers.7/pre_feedforward_layernorm/SkipLayerNorm"} : (tensor<1x128x1152xf32>, tensor<1x128x1152xf32>, tensor<1152xf32>) -> (tensor<1x128x1152xf32>, none, none, tensor<1x128x1152xf32>)
    %y_87, %y_scale_88, %y_zero_point_89 = "onnx.DynamicQuantizeLinear"(%1036#0) {onnx_node_name = "/model/layers.7/pre_feedforward_layernorm/output_0_QuantizeLinear"} : (tensor<1x128x1152xf32>) -> (tensor<1x128x1152xui8>, tensor<f32>, tensor<ui8>)
    %1037 = "onnx.MatMulInteger"(%y_87, %333, %y_zero_point_89, %332) {onnx_node_name = "/model/layers.7/mlp/gate_proj/MatMul_quant"} : (tensor<1x128x1152xui8>, tensor<1152x6912xi8>, tensor<ui8>, tensor<i8>) -> tensor<1x128x6912xi32>
    %1038 = "onnx.Cast"(%1037) {onnx_node_name = "/model/layers.7/mlp/gate_proj/MatMul/output_0_output_quantized_cast", saturate = 1 : si64, to = f32} : (tensor<1x128x6912xi32>) -> tensor<1x128x6912xf32>
    %1039 = "onnx.Mul"(%y_scale_88, %331) {onnx_node_name = "/model/layers.7/mlp/gate_proj/MatMul_quant_scales_mul"} : (tensor<f32>, tensor<f32>) -> tensor<f32>
    %1040 = "onnx.Mul"(%1038, %1039) {onnx_node_name = "/model/layers.7/mlp/gate_proj/MatMul_quant_output_scale_mul"} : (tensor<1x128x6912xf32>, tensor<f32>) -> tensor<1x128x6912xf32>
    %1041 = "onnx.MatMulInteger"(%y_87, %336, %y_zero_point_89, %335) {onnx_node_name = "/model/layers.7/mlp/up_proj/MatMul_quant"} : (tensor<1x128x1152xui8>, tensor<1152x6912xi8>, tensor<ui8>, tensor<i8>) -> tensor<1x128x6912xi32>
    %1042 = "onnx.Cast"(%1041) {onnx_node_name = "/model/layers.7/mlp/up_proj/MatMul/output_0_output_quantized_cast", saturate = 1 : si64, to = f32} : (tensor<1x128x6912xi32>) -> tensor<1x128x6912xf32>
    %1043 = "onnx.Mul"(%y_scale_88, %334) {onnx_node_name = "/model/layers.7/mlp/up_proj/MatMul_quant_scales_mul"} : (tensor<f32>, tensor<f32>) -> tensor<f32>
    %1044 = "onnx.Mul"(%1042, %1043) {onnx_node_name = "/model/layers.7/mlp/up_proj/MatMul_quant_output_scale_mul"} : (tensor<1x128x6912xf32>, tensor<f32>) -> tensor<1x128x6912xf32>
    %1045 = "onnx.Custom"(%1040) {domain_name = "com.microsoft", function_name = "FastGelu", onnx_node_name = "/model/layers.7/mlp/act_fn/FastGelu"} : (tensor<1x128x6912xf32>) -> tensor<1x128x6912xf32>
    %1046 = "onnx.Mul"(%1045, %1044) {onnx_node_name = "/model/layers.7/mlp/Mul"} : (tensor<1x128x6912xf32>, tensor<1x128x6912xf32>) -> tensor<1x128x6912xf32>
    %y_90, %y_scale_91, %y_zero_point_92 = "onnx.DynamicQuantizeLinear"(%1046) {onnx_node_name = "/model/layers.7/mlp/Mul/output_0_QuantizeLinear"} : (tensor<1x128x6912xf32>) -> (tensor<1x128x6912xui8>, tensor<f32>, tensor<ui8>)
    %1047 = "onnx.MatMulInteger"(%y_90, %339, %y_zero_point_92, %338) {onnx_node_name = "/model/layers.7/mlp/down_proj/MatMul_quant"} : (tensor<1x128x6912xui8>, tensor<6912x1152xi8>, tensor<ui8>, tensor<i8>) -> tensor<1x128x1152xi32>
    %1048 = "onnx.Cast"(%1047) {onnx_node_name = "/model/layers.7/mlp/down_proj/MatMul/output_0_output_quantized_cast", saturate = 1 : si64, to = f32} : (tensor<1x128x1152xi32>) -> tensor<1x128x1152xf32>
    %1049 = "onnx.Mul"(%y_scale_91, %337) {onnx_node_name = "/model/layers.7/mlp/down_proj/MatMul_quant_scales_mul"} : (tensor<f32>, tensor<f32>) -> tensor<f32>
    %1050 = "onnx.Mul"(%1048, %1049) {onnx_node_name = "/model/layers.7/mlp/down_proj/MatMul_quant_output_scale_mul"} : (tensor<1x128x1152xf32>, tensor<f32>) -> tensor<1x128x1152xf32>
    %1051 = "onnx.Custom"(%1050, %59) {axis = -1 : si64, domain_name = "", epsilon = 9.99999997E-7 : f32, function_name = "SimplifiedLayerNormalization", onnx_node_name = "/model/layers.7/post_feedforward_layernorm/LayerNorm", stash_type = 1 : si64} : (tensor<1x128x1152xf32>, tensor<1152xf32>) -> tensor<1x128x1152xf32>
    %1052:4 = "onnx.Custom"(%1036#3, %1051, %60) {domain_name = "com.microsoft", epsilon = 9.99999997E-7 : f32, function_name = "SkipSimplifiedLayerNormalization", onnx_node_name = "/model/layers.8/input_layernorm/SkipLayerNorm"} : (tensor<1x128x1152xf32>, tensor<1x128x1152xf32>, tensor<1152xf32>) -> (tensor<1x128x1152xf32>, none, none, tensor<1x128x1152xf32>)
    %y_93, %y_scale_94, %y_zero_point_95 = "onnx.DynamicQuantizeLinear"(%1052#0) {onnx_node_name = "/model/layers.8/input_layernorm/output_0_QuantizeLinear"} : (tensor<1x128x1152xf32>) -> (tensor<1x128x1152xui8>, tensor<f32>, tensor<ui8>)
    %1053 = "onnx.MatMulInteger"(%y_93, %342, %y_zero_point_95, %341) {onnx_node_name = "/model/layers.8/attn/q_proj/MatMul_quant"} : (tensor<1x128x1152xui8>, tensor<1152x1024xi8>, tensor<ui8>, tensor<i8>) -> tensor<1x128x1024xi32>
    %1054 = "onnx.Cast"(%1053) {onnx_node_name = "/model/layers.8/attn/q_proj/MatMul/output_0_output_quantized_cast", saturate = 1 : si64, to = f32} : (tensor<1x128x1024xi32>) -> tensor<1x128x1024xf32>
    %1055 = "onnx.Mul"(%y_scale_94, %340) {onnx_node_name = "/model/layers.8/attn/q_proj/MatMul_quant_scales_mul"} : (tensor<f32>, tensor<f32>) -> tensor<f32>
    %1056 = "onnx.Mul"(%1054, %1055) {onnx_node_name = "/model/layers.8/attn/q_proj/MatMul_quant_output_scale_mul"} : (tensor<1x128x1024xf32>, tensor<f32>) -> tensor<1x128x1024xf32>
    %1057 = "onnx.MatMulInteger"(%y_93, %345, %y_zero_point_95, %344) {onnx_node_name = "/model/layers.8/attn/k_proj/MatMul_quant"} : (tensor<1x128x1152xui8>, tensor<1152x256xi8>, tensor<ui8>, tensor<i8>) -> tensor<1x128x256xi32>
    %1058 = "onnx.Cast"(%1057) {onnx_node_name = "/model/layers.8/attn/k_proj/MatMul/output_0_output_quantized_cast", saturate = 1 : si64, to = f32} : (tensor<1x128x256xi32>) -> tensor<1x128x256xf32>
    %1059 = "onnx.Mul"(%y_scale_94, %343) {onnx_node_name = "/model/layers.8/attn/k_proj/MatMul_quant_scales_mul"} : (tensor<f32>, tensor<f32>) -> tensor<f32>
    %1060 = "onnx.Mul"(%1058, %1059) {onnx_node_name = "/model/layers.8/attn/k_proj/MatMul_quant_output_scale_mul"} : (tensor<1x128x256xf32>, tensor<f32>) -> tensor<1x128x256xf32>
    %1061 = "onnx.MatMulInteger"(%y_93, %348, %y_zero_point_95, %347) {onnx_node_name = "/model/layers.8/attn/v_proj/MatMul_quant"} : (tensor<1x128x1152xui8>, tensor<1152x256xi8>, tensor<ui8>, tensor<i8>) -> tensor<1x128x256xi32>
    %1062 = "onnx.Cast"(%1061) {onnx_node_name = "/model/layers.8/attn/v_proj/MatMul/output_0_output_quantized_cast", saturate = 1 : si64, to = f32} : (tensor<1x128x256xi32>) -> tensor<1x128x256xf32>
    %1063 = "onnx.Mul"(%y_scale_94, %346) {onnx_node_name = "/model/layers.8/attn/v_proj/MatMul_quant_scales_mul"} : (tensor<f32>, tensor<f32>) -> tensor<f32>
    %1064 = "onnx.Mul"(%1062, %1063) {onnx_node_name = "/model/layers.8/attn/v_proj/MatMul_quant_output_scale_mul"} : (tensor<1x128x256xf32>, tensor<f32>) -> tensor<1x128x256xf32>
    %1065 = "onnx.Reshape"(%1056, %7) {allowzero = 0 : si64, onnx_node_name = "/model/layers.8/attn/q_norm/Reshape_1"} : (tensor<1x128x1024xf32>, tensor<3xi64>) -> tensor<1x512x256xf32>
    %1066 = "onnx.Custom"(%1065, %61) {axis = -1 : si64, domain_name = "", epsilon = 9.99999997E-7 : f32, function_name = "SimplifiedLayerNormalization", onnx_node_name = "/model/layers.8/attn/q_norm/SimplifiedLayerNormalization", stash_type = 1 : si64} : (tensor<1x512x256xf32>, tensor<256xf32>) -> tensor<1x512x256xf32>
    %1067 = "onnx.Custom"(%1060, %62) {axis = -1 : si64, domain_name = "", epsilon = 9.99999997E-7 : f32, function_name = "SimplifiedLayerNormalization", onnx_node_name = "/model/layers.8/attn/k_norm/SimplifiedLayerNormalization", stash_type = 1 : si64} : (tensor<1x128x256xf32>, tensor<256xf32>) -> tensor<1x128x256xf32>
    %1068 = "onnx.Reshape"(%1066, %10) {allowzero = 0 : si64, onnx_node_name = "/model/layers.8/attn/q_norm/Reshape_2"} : (tensor<1x512x256xf32>, tensor<3xi64>) -> tensor<1x128x1024xf32>
    %1069 = "onnx.Custom"(%1068, %arg2, %11, %12) {domain_name = "com.microsoft", function_name = "RotaryEmbedding", interleaved = 0 : si64, num_heads = 0 : si64, onnx_node_name = "/model/layers.8/attn/q_rotary/RotaryEmbedding", rotary_embedding_dim = 0 : si64} : (tensor<1x128x1024xf32>, tensor<1x128xi64>, tensor<32768x128xf32>, tensor<32768x128xf32>) -> tensor<1x128x1024xf32>
    %1070 = "onnx.Custom"(%1067, %arg2, %11, %12) {domain_name = "com.microsoft", function_name = "RotaryEmbedding", interleaved = 0 : si64, num_heads = 0 : si64, onnx_node_name = "/model/layers.8/attn/k_rotary/RotaryEmbedding", rotary_embedding_dim = 0 : si64} : (tensor<1x128x256xf32>, tensor<1x128xi64>, tensor<32768x128xf32>, tensor<32768x128xf32>) -> tensor<1x128x256xf32>
    %1071:3 = "onnx.Custom"(%1069, %1070, %1064, %arg19, %arg20, %724, %0, %3, %3) {do_rotary = 0 : si64, domain_name = "com.microsoft", function_name = "GroupQueryAttention", kv_num_heads = 1 : si64, local_window_size = 512 : si64, num_heads = 4 : si64, onnx_node_name = "/model/layers.8/attn/GroupQueryAttention", rotary_interleaved = 0 : si64, scale = 6.250000e-02 : f32, softcap = 0.000000e+00 : f32} : (tensor<1x128x1024xf32>, tensor<1x128x256xf32>, tensor<1x128x256xf32>, tensor<1x1x1x256xf32>, tensor<1x1x1x256xf32>, tensor<1x1xi32>, tensor<i32>, none, none) -> (tensor<1x128x1024xf32>, tensor<1x1x128x256xf32>, tensor<1x1x128x256xf32>)
    %y_96, %y_scale_97, %y_zero_point_98 = "onnx.DynamicQuantizeLinear"(%1071#0) {onnx_node_name = "/model/layers.8/attn/GroupQueryAttention/output_0_QuantizeLinear"} : (tensor<1x128x1024xf32>) -> (tensor<1x128x1024xui8>, tensor<f32>, tensor<ui8>)
    %1072 = "onnx.MatMulInteger"(%y_96, %351, %y_zero_point_98, %350) {onnx_node_name = "/model/layers.8/attn/o_proj/MatMul_quant"} : (tensor<1x128x1024xui8>, tensor<1024x1152xi8>, tensor<ui8>, tensor<i8>) -> tensor<1x128x1152xi32>
    %1073 = "onnx.Cast"(%1072) {onnx_node_name = "/model/layers.8/attn/o_proj/MatMul/output_0_output_quantized_cast", saturate = 1 : si64, to = f32} : (tensor<1x128x1152xi32>) -> tensor<1x128x1152xf32>
    %1074 = "onnx.Mul"(%y_scale_97, %349) {onnx_node_name = "/model/layers.8/attn/o_proj/MatMul_quant_scales_mul"} : (tensor<f32>, tensor<f32>) -> tensor<f32>
    %1075 = "onnx.Mul"(%1073, %1074) {onnx_node_name = "/model/layers.8/attn/o_proj/MatMul_quant_output_scale_mul"} : (tensor<1x128x1152xf32>, tensor<f32>) -> tensor<1x128x1152xf32>
    %1076 = "onnx.Custom"(%1075, %63) {axis = -1 : si64, domain_name = "", epsilon = 9.99999997E-7 : f32, function_name = "SimplifiedLayerNormalization", onnx_node_name = "/model/layers.8/post_attention_layernorm/LayerNorm", stash_type = 1 : si64} : (tensor<1x128x1152xf32>, tensor<1152xf32>) -> tensor<1x128x1152xf32>
    %1077:4 = "onnx.Custom"(%1052#3, %1076, %64) {domain_name = "com.microsoft", epsilon = 9.99999997E-7 : f32, function_name = "SkipSimplifiedLayerNormalization", onnx_node_name = "/model/layers.8/pre_feedforward_layernorm/SkipLayerNorm"} : (tensor<1x128x1152xf32>, tensor<1x128x1152xf32>, tensor<1152xf32>) -> (tensor<1x128x1152xf32>, none, none, tensor<1x128x1152xf32>)
    %y_99, %y_scale_100, %y_zero_point_101 = "onnx.DynamicQuantizeLinear"(%1077#0) {onnx_node_name = "/model/layers.8/pre_feedforward_layernorm/output_0_QuantizeLinear"} : (tensor<1x128x1152xf32>) -> (tensor<1x128x1152xui8>, tensor<f32>, tensor<ui8>)
    %1078 = "onnx.MatMulInteger"(%y_99, %354, %y_zero_point_101, %353) {onnx_node_name = "/model/layers.8/mlp/gate_proj/MatMul_quant"} : (tensor<1x128x1152xui8>, tensor<1152x6912xi8>, tensor<ui8>, tensor<i8>) -> tensor<1x128x6912xi32>
    %1079 = "onnx.Cast"(%1078) {onnx_node_name = "/model/layers.8/mlp/gate_proj/MatMul/output_0_output_quantized_cast", saturate = 1 : si64, to = f32} : (tensor<1x128x6912xi32>) -> tensor<1x128x6912xf32>
    %1080 = "onnx.Mul"(%y_scale_100, %352) {onnx_node_name = "/model/layers.8/mlp/gate_proj/MatMul_quant_scales_mul"} : (tensor<f32>, tensor<f32>) -> tensor<f32>
    %1081 = "onnx.Mul"(%1079, %1080) {onnx_node_name = "/model/layers.8/mlp/gate_proj/MatMul_quant_output_scale_mul"} : (tensor<1x128x6912xf32>, tensor<f32>) -> tensor<1x128x6912xf32>
    %1082 = "onnx.MatMulInteger"(%y_99, %357, %y_zero_point_101, %356) {onnx_node_name = "/model/layers.8/mlp/up_proj/MatMul_quant"} : (tensor<1x128x1152xui8>, tensor<1152x6912xi8>, tensor<ui8>, tensor<i8>) -> tensor<1x128x6912xi32>
    %1083 = "onnx.Cast"(%1082) {onnx_node_name = "/model/layers.8/mlp/up_proj/MatMul/output_0_output_quantized_cast", saturate = 1 : si64, to = f32} : (tensor<1x128x6912xi32>) -> tensor<1x128x6912xf32>
    %1084 = "onnx.Mul"(%y_scale_100, %355) {onnx_node_name = "/model/layers.8/mlp/up_proj/MatMul_quant_scales_mul"} : (tensor<f32>, tensor<f32>) -> tensor<f32>
    %1085 = "onnx.Mul"(%1083, %1084) {onnx_node_name = "/model/layers.8/mlp/up_proj/MatMul_quant_output_scale_mul"} : (tensor<1x128x6912xf32>, tensor<f32>) -> tensor<1x128x6912xf32>
    %1086 = "onnx.Custom"(%1081) {domain_name = "com.microsoft", function_name = "FastGelu", onnx_node_name = "/model/layers.8/mlp/act_fn/FastGelu"} : (tensor<1x128x6912xf32>) -> tensor<1x128x6912xf32>
    %1087 = "onnx.Mul"(%1086, %1085) {onnx_node_name = "/model/layers.8/mlp/Mul"} : (tensor<1x128x6912xf32>, tensor<1x128x6912xf32>) -> tensor<1x128x6912xf32>
    %y_102, %y_scale_103, %y_zero_point_104 = "onnx.DynamicQuantizeLinear"(%1087) {onnx_node_name = "/model/layers.8/mlp/Mul/output_0_QuantizeLinear"} : (tensor<1x128x6912xf32>) -> (tensor<1x128x6912xui8>, tensor<f32>, tensor<ui8>)
    %1088 = "onnx.MatMulInteger"(%y_102, %360, %y_zero_point_104, %359) {onnx_node_name = "/model/layers.8/mlp/down_proj/MatMul_quant"} : (tensor<1x128x6912xui8>, tensor<6912x1152xi8>, tensor<ui8>, tensor<i8>) -> tensor<1x128x1152xi32>
    %1089 = "onnx.Cast"(%1088) {onnx_node_name = "/model/layers.8/mlp/down_proj/MatMul/output_0_output_quantized_cast", saturate = 1 : si64, to = f32} : (tensor<1x128x1152xi32>) -> tensor<1x128x1152xf32>
    %1090 = "onnx.Mul"(%y_scale_103, %358) {onnx_node_name = "/model/layers.8/mlp/down_proj/MatMul_quant_scales_mul"} : (tensor<f32>, tensor<f32>) -> tensor<f32>
    %1091 = "onnx.Mul"(%1089, %1090) {onnx_node_name = "/model/layers.8/mlp/down_proj/MatMul_quant_output_scale_mul"} : (tensor<1x128x1152xf32>, tensor<f32>) -> tensor<1x128x1152xf32>
    %1092 = "onnx.Custom"(%1091, %65) {axis = -1 : si64, domain_name = "", epsilon = 9.99999997E-7 : f32, function_name = "SimplifiedLayerNormalization", onnx_node_name = "/model/layers.8/post_feedforward_layernorm/LayerNorm", stash_type = 1 : si64} : (tensor<1x128x1152xf32>, tensor<1152xf32>) -> tensor<1x128x1152xf32>
    %1093:4 = "onnx.Custom"(%1077#3, %1092, %66) {domain_name = "com.microsoft", epsilon = 9.99999997E-7 : f32, function_name = "SkipSimplifiedLayerNormalization", onnx_node_name = "/model/layers.9/input_layernorm/SkipLayerNorm"} : (tensor<1x128x1152xf32>, tensor<1x128x1152xf32>, tensor<1152xf32>) -> (tensor<1x128x1152xf32>, none, none, tensor<1x128x1152xf32>)
    %y_105, %y_scale_106, %y_zero_point_107 = "onnx.DynamicQuantizeLinear"(%1093#0) {onnx_node_name = "/model/layers.9/input_layernorm/output_0_QuantizeLinear"} : (tensor<1x128x1152xf32>) -> (tensor<1x128x1152xui8>, tensor<f32>, tensor<ui8>)
    %1094 = "onnx.MatMulInteger"(%y_105, %363, %y_zero_point_107, %362) {onnx_node_name = "/model/layers.9/attn/q_proj/MatMul_quant"} : (tensor<1x128x1152xui8>, tensor<1152x1024xi8>, tensor<ui8>, tensor<i8>) -> tensor<1x128x1024xi32>
    %1095 = "onnx.Cast"(%1094) {onnx_node_name = "/model/layers.9/attn/q_proj/MatMul/output_0_output_quantized_cast", saturate = 1 : si64, to = f32} : (tensor<1x128x1024xi32>) -> tensor<1x128x1024xf32>
    %1096 = "onnx.Mul"(%y_scale_106, %361) {onnx_node_name = "/model/layers.9/attn/q_proj/MatMul_quant_scales_mul"} : (tensor<f32>, tensor<f32>) -> tensor<f32>
    %1097 = "onnx.Mul"(%1095, %1096) {onnx_node_name = "/model/layers.9/attn/q_proj/MatMul_quant_output_scale_mul"} : (tensor<1x128x1024xf32>, tensor<f32>) -> tensor<1x128x1024xf32>
    %1098 = "onnx.MatMulInteger"(%y_105, %366, %y_zero_point_107, %365) {onnx_node_name = "/model/layers.9/attn/k_proj/MatMul_quant"} : (tensor<1x128x1152xui8>, tensor<1152x256xi8>, tensor<ui8>, tensor<i8>) -> tensor<1x128x256xi32>
    %1099 = "onnx.Cast"(%1098) {onnx_node_name = "/model/layers.9/attn/k_proj/MatMul/output_0_output_quantized_cast", saturate = 1 : si64, to = f32} : (tensor<1x128x256xi32>) -> tensor<1x128x256xf32>
    %1100 = "onnx.Mul"(%y_scale_106, %364) {onnx_node_name = "/model/layers.9/attn/k_proj/MatMul_quant_scales_mul"} : (tensor<f32>, tensor<f32>) -> tensor<f32>
    %1101 = "onnx.Mul"(%1099, %1100) {onnx_node_name = "/model/layers.9/attn/k_proj/MatMul_quant_output_scale_mul"} : (tensor<1x128x256xf32>, tensor<f32>) -> tensor<1x128x256xf32>
    %1102 = "onnx.MatMulInteger"(%y_105, %369, %y_zero_point_107, %368) {onnx_node_name = "/model/layers.9/attn/v_proj/MatMul_quant"} : (tensor<1x128x1152xui8>, tensor<1152x256xi8>, tensor<ui8>, tensor<i8>) -> tensor<1x128x256xi32>
…
    %1605 = "onnx.MatMulInteger"(%y_252, %624, %y_zero_point_254, %623) {onnx_node_name = "/model/layers.21/attn/o_proj/MatMul_quant"} : (tensor<1x128x1024xui8>, tensor<1024x1152xi8>, tensor<ui8>, tensor<i8>) -> tensor<1x128x1152xi32>
    %1606 = "onnx.Cast"(%1605) {onnx_node_name = "/model/layers.21/attn/o_proj/MatMul/output_0_output_quantized_cast", saturate = 1 : si64, to = f32} : (tensor<1x128x1152xi32>) -> tensor<1x128x1152xf32>
    %1607 = "onnx.Mul"(%y_scale_253, %622) {onnx_node_name = "/model/layers.21/attn/o_proj/MatMul_quant_scales_mul"} : (tensor<f32>, tensor<f32>) -> tensor<f32>
    %1608 = "onnx.Mul"(%1606, %1607) {onnx_node_name = "/model/layers.21/attn/o_proj/MatMul_quant_output_scale_mul"} : (tensor<1x128x1152xf32>, tensor<f32>) -> tensor<1x128x1152xf32>
    %1609 = "onnx.Custom"(%1608, %141) {axis = -1 : si64, domain_name = "", epsilon = 9.99999997E-7 : f32, function_name = "SimplifiedLayerNormalization", onnx_node_name = "/model/layers.21/post_attention_layernorm/LayerNorm", stash_type = 1 : si64} : (tensor<1x128x1152xf32>, tensor<1152xf32>) -> tensor<1x128x1152xf32>
    %1610:4 = "onnx.Custom"(%1585#3, %1609, %142) {domain_name = "com.microsoft", epsilon = 9.99999997E-7 : f32, function_name = "SkipSimplifiedLayerNormalization", onnx_node_name = "/model/layers.21/pre_feedforward_layernorm/SkipLayerNorm"} : (tensor<1x128x1152xf32>, tensor<1x128x1152xf32>, tensor<1152xf32>) -> (tensor<1x128x1152xf32>, none, none, tensor<1x128x1152xf32>)
    %y_255, %y_scale_256, %y_zero_point_257 = "onnx.DynamicQuantizeLinear"(%1610#0) {onnx_node_name = "/model/layers.21/pre_feedforward_layernorm/output_0_QuantizeLinear"} : (tensor<1x128x1152xf32>) -> (tensor<1x128x1152xui8>, tensor<f32>, tensor<ui8>)
    %1611 = "onnx.MatMulInteger"(%y_255, %627, %y_zero_point_257, %626) {onnx_node_name = "/model/layers.21/mlp/gate_proj/MatMul_quant"} : (tensor<1x128x1152xui8>, tensor<1152x6912xi8>, tensor<ui8>, tensor<i8>) -> tensor<1x128x6912xi32>
    %1612 = "onnx.Cast"(%1611) {onnx_node_name = "/model/layers.21/mlp/gate_proj/MatMul/output_0_output_quantized_cast", saturate = 1 : si64, to = f32} : (tensor<1x128x6912xi32>) -> tensor<1x128x6912xf32>
    %1613 = "onnx.Mul"(%y_scale_256, %625) {onnx_node_name = "/model/layers.21/mlp/gate_proj/MatMul_quant_scales_mul"} : (tensor<f32>, tensor<f32>) -> tensor<f32>
    %1614 = "onnx.Mul"(%1612, %1613) {onnx_node_name = "/model/layers.21/mlp/gate_proj/MatMul_quant_output_scale_mul"} : (tensor<1x128x6912xf32>, tensor<f32>) -> tensor<1x128x6912xf32>
    %1615 = "onnx.MatMulInteger"(%y_255, %630, %y_zero_point_257, %629) {onnx_node_name = "/model/layers.21/mlp/up_proj/MatMul_quant"} : (tensor<1x128x1152xui8>, tensor<1152x6912xi8>, tensor<ui8>, tensor<i8>) -> tensor<1x128x6912xi32>
    %1616 = "onnx.Cast"(%1615) {onnx_node_name = "/model/layers.21/mlp/up_proj/MatMul/output_0_output_quantized_cast", saturate = 1 : si64, to = f32} : (tensor<1x128x6912xi32>) -> tensor<1x128x6912xf32>
    %1617 = "onnx.Mul"(%y_scale_256, %628) {onnx_node_name = "/model/layers.21/mlp/up_proj/MatMul_quant_scales_mul"} : (tensor<f32>, tensor<f32>) -> tensor<f32>
    %1618 = "onnx.Mul"(%1616, %1617) {onnx_node_name = "/model/layers.21/mlp/up_proj/MatMul_quant_output_scale_mul"} : (tensor<1x128x6912xf32>, tensor<f32>) -> tensor<1x128x6912xf32>
    %1619 = "onnx.Custom"(%1614) {domain_name = "com.microsoft", function_name = "FastGelu", onnx_node_name = "/model/layers.21/mlp/act_fn/FastGelu"} : (tensor<1x128x6912xf32>) -> tensor<1x128x6912xf32>
    %1620 = "onnx.Mul"(%1619, %1618) {onnx_node_name = "/model/layers.21/mlp/Mul"} : (tensor<1x128x6912xf32>, tensor<1x128x6912xf32>) -> tensor<1x128x6912xf32>
    %y_258, %y_scale_259, %y_zero_point_260 = "onnx.DynamicQuantizeLinear"(%1620) {onnx_node_name = "/model/layers.21/mlp/Mul/output_0_QuantizeLinear"} : (tensor<1x128x6912xf32>) -> (tensor<1x128x6912xui8>, tensor<f32>, tensor<ui8>)
    %1621 = "onnx.MatMulInteger"(%y_258, %633, %y_zero_point_260, %632) {onnx_node_name = "/model/layers.21/mlp/down_proj/MatMul_quant"} : (tensor<1x128x6912xui8>, tensor<6912x1152xi8>, tensor<ui8>, tensor<i8>) -> tensor<1x128x1152xi32>
    %1622 = "onnx.Cast"(%1621) {onnx_node_name = "/model/layers.21/mlp/down_proj/MatMul/output_0_output_quantized_cast", saturate = 1 : si64, to = f32} : (tensor<1x128x1152xi32>) -> tensor<1x128x1152xf32>
    %1623 = "onnx.Mul"(%y_scale_259, %631) {onnx_node_name = "/model/layers.21/mlp/down_proj/MatMul_quant_scales_mul"} : (tensor<f32>, tensor<f32>) -> tensor<f32>
    %1624 = "onnx.Mul"(%1622, %1623) {onnx_node_name = "/model/layers.21/mlp/down_proj/MatMul_quant_output_scale_mul"} : (tensor<1x128x1152xf32>, tensor<f32>) -> tensor<1x128x1152xf32>
    %1625 = "onnx.Custom"(%1624, %143) {axis = -1 : si64, domain_name = "", epsilon = 9.99999997E-7 : f32, function_name = "SimplifiedLayerNormalization", onnx_node_name = "/model/layers.21/post_feedforward_layernorm/LayerNorm", stash_type = 1 : si64} : (tensor<1x128x1152xf32>, tensor<1152xf32>) -> tensor<1x128x1152xf32>
    %1626:4 = "onnx.Custom"(%1610#3, %1625, %144) {domain_name = "com.microsoft", epsilon = 9.99999997E-7 : f32, function_name = "SkipSimplifiedLayerNormalization", onnx_node_name = "/model/layers.22/input_layernorm/SkipLayerNorm"} : (tensor<1x128x1152xf32>, tensor<1x128x1152xf32>, tensor<1152xf32>) -> (tensor<1x128x1152xf32>, none, none, tensor<1x128x1152xf32>)
    %y_261, %y_scale_262, %y_zero_point_263 = "onnx.DynamicQuantizeLinear"(%1626#0) {onnx_node_name = "/model/layers.22/input_layernorm/output_0_QuantizeLinear"} : (tensor<1x128x1152xf32>) -> (tensor<1x128x1152xui8>, tensor<f32>, tensor<ui8>)
    %1627 = "onnx.MatMulInteger"(%y_261, %636, %y_zero_point_263, %635) {onnx_node_name = "/model/layers.22/attn/q_proj/MatMul_quant"} : (tensor<1x128x1152xui8>, tensor<1152x1024xi8>, tensor<ui8>, tensor<i8>) -> tensor<1x128x1024xi32>
    %1628 = "onnx.Cast"(%1627) {onnx_node_name = "/model/layers.22/attn/q_proj/MatMul/output_0_output_quantized_cast", saturate = 1 : si64, to = f32} : (tensor<1x128x1024xi32>) -> tensor<1x128x1024xf32>
    %1629 = "onnx.Mul"(%y_scale_262, %634) {onnx_node_name = "/model/layers.22/attn/q_proj/MatMul_quant_scales_mul"} : (tensor<f32>, tensor<f32>) -> tensor<f32>
    %1630 = "onnx.Mul"(%1628, %1629) {onnx_node_name = "/model/layers.22/attn/q_proj/MatMul_quant_output_scale_mul"} : (tensor<1x128x1024xf32>, tensor<f32>) -> tensor<1x128x1024xf32>
    %1631 = "onnx.MatMulInteger"(%y_261, %639, %y_zero_point_263, %638) {onnx_node_name = "/model/layers.22/attn/k_proj/MatMul_quant"} : (tensor<1x128x1152xui8>, tensor<1152x256xi8>, tensor<ui8>, tensor<i8>) -> tensor<1x128x256xi32>
    %1632 = "onnx.Cast"(%1631) {onnx_node_name = "/model/layers.22/attn/k_proj/MatMul/output_0_output_quantized_cast", saturate = 1 : si64, to = f32} : (tensor<1x128x256xi32>) -> tensor<1x128x256xf32>
    %1633 = "onnx.Mul"(%y_scale_262, %637) {onnx_node_name = "/model/layers.22/attn/k_proj/MatMul_quant_scales_mul"} : (tensor<f32>, tensor<f32>) -> tensor<f32>
    %1634 = "onnx.Mul"(%1632, %1633) {onnx_node_name = "/model/layers.22/attn/k_proj/MatMul_quant_output_scale_mul"} : (tensor<1x128x256xf32>, tensor<f32>) -> tensor<1x128x256xf32>
    %1635 = "onnx.MatMulInteger"(%y_261, %642, %y_zero_point_263, %641) {onnx_node_name = "/model/layers.22/attn/v_proj/MatMul_quant"} : (tensor<1x128x1152xui8>, tensor<1152x256xi8>, tensor<ui8>, tensor<i8>) -> tensor<1x128x256xi32>
    %1636 = "onnx.Cast"(%1635) {onnx_node_name = "/model/layers.22/attn/v_proj/MatMul/output_0_output_quantized_cast", saturate = 1 : si64, to = f32} : (tensor<1x128x256xi32>) -> tensor<1x128x256xf32>
    %1637 = "onnx.Mul"(%y_scale_262, %640) {onnx_node_name = "/model/layers.22/attn/v_proj/MatMul_quant_scales_mul"} : (tensor<f32>, tensor<f32>) -> tensor<f32>
    %1638 = "onnx.Mul"(%1636, %1637) {onnx_node_name = "/model/layers.22/attn/v_proj/MatMul_quant_output_scale_mul"} : (tensor<1x128x256xf32>, tensor<f32>) -> tensor<1x128x256xf32>
    %1639 = "onnx.Reshape"(%1630, %7) {allowzero = 0 : si64, onnx_node_name = "/model/layers.22/attn/q_norm/Reshape_1"} : (tensor<1x128x1024xf32>, tensor<3xi64>) -> tensor<1x512x256xf32>
    %1640 = "onnx.Custom"(%1639, %145) {axis = -1 : si64, domain_name = "", epsilon = 9.99999997E-7 : f32, function_name = "SimplifiedLayerNormalization", onnx_node_name = "/model/layers.22/attn/q_norm/SimplifiedLayerNormalization", stash_type = 1 : si64} : (tensor<1x512x256xf32>, tensor<256xf32>) -> tensor<1x512x256xf32>
    %1641 = "onnx.Custom"(%1634, %146) {axis = -1 : si64, domain_name = "", epsilon = 9.99999997E-7 : f32, function_name = "SimplifiedLayerNormalization", onnx_node_name = "/model/layers.22/attn/k_norm/SimplifiedLayerNormalization", stash_type = 1 : si64} : (tensor<1x128x256xf32>, tensor<256xf32>) -> tensor<1x128x256xf32>
    %1642 = "onnx.Reshape"(%1640, %10) {allowzero = 0 : si64, onnx_node_name = "/model/layers.22/attn/q_norm/Reshape_2"} : (tensor<1x512x256xf32>, tensor<3xi64>) -> tensor<1x128x1024xf32>
    %1643 = "onnx.Custom"(%1642, %arg2, %11, %12) {domain_name = "com.microsoft", function_name = "RotaryEmbedding", interleaved = 0 : si64, num_heads = 0 : si64, onnx_node_name = "/model/layers.22/attn/q_rotary/RotaryEmbedding", rotary_embedding_dim = 0 : si64} : (tensor<1x128x1024xf32>, tensor<1x128xi64>, tensor<32768x128xf32>, tensor<32768x128xf32>) -> tensor<1x128x1024xf32>
    %1644 = "onnx.Custom"(%1641, %arg2, %11, %12) {domain_name = "com.microsoft", function_name = "RotaryEmbedding", interleaved = 0 : si64, num_heads = 0 : si64, onnx_node_name = "/model/layers.22/attn/k_rotary/RotaryEmbedding", rotary_embedding_dim = 0 : si64} : (tensor<1x128x256xf32>, tensor<1x128xi64>, tensor<32768x128xf32>, tensor<32768x128xf32>) -> tensor<1x128x256xf32>
    %1645:3 = "onnx.Custom"(%1643, %1644, %1638, %arg47, %arg48, %724, %0, %3, %3) {do_rotary = 0 : si64, domain_name = "com.microsoft", function_name = "GroupQueryAttention", kv_num_heads = 1 : si64, local_window_size = 512 : si64, num_heads = 4 : si64, onnx_node_name = "/model/layers.22/attn/GroupQueryAttention", rotary_interleaved = 0 : si64, scale = 6.250000e-02 : f32, softcap = 0.000000e+00 : f32} : (tensor<1x128x1024xf32>, tensor<1x128x256xf32>, tensor<1x128x256xf32>, tensor<1x1x1x256xf32>, tensor<1x1x1x256xf32>, tensor<1x1xi32>, tensor<i32>, none, none) -> (tensor<1x128x1024xf32>, tensor<1x1x128x256xf32>, tensor<1x1x128x256xf32>)
    %y_264, %y_scale_265, %y_zero_point_266 = "onnx.DynamicQuantizeLinear"(%1645#0) {onnx_node_name = "/model/layers.22/attn/GroupQueryAttention/output_0_QuantizeLinear"} : (tensor<1x128x1024xf32>) -> (tensor<1x128x1024xui8>, tensor<f32>, tensor<ui8>)
    %1646 = "onnx.MatMulInteger"(%y_264, %645, %y_zero_point_266, %644) {onnx_node_name = "/model/layers.22/attn/o_proj/MatMul_quant"} : (tensor<1x128x1024xui8>, tensor<1024x1152xi8>, tensor<ui8>, tensor<i8>) -> tensor<1x128x1152xi32>
    %1647 = "onnx.Cast"(%1646) {onnx_node_name = "/model/layers.22/attn/o_proj/MatMul/output_0_output_quantized_cast", saturate = 1 : si64, to = f32} : (tensor<1x128x1152xi32>) -> tensor<1x128x1152xf32>
    %1648 = "onnx.Mul"(%y_scale_265, %643) {onnx_node_name = "/model/layers.22/attn/o_proj/MatMul_quant_scales_mul"} : (tensor<f32>, tensor<f32>) -> tensor<f32>
    %1649 = "onnx.Mul"(%1647, %1648) {onnx_node_name = "/model/layers.22/attn/o_proj/MatMul_quant_output_scale_mul"} : (tensor<1x128x1152xf32>, tensor<f32>) -> tensor<1x128x1152xf32>
    %1650 = "onnx.Custom"(%1649, %147) {axis = -1 : si64, domain_name = "", epsilon = 9.99999997E-7 : f32, function_name = "SimplifiedLayerNormalization", onnx_node_name = "/model/layers.22/post_attention_layernorm/LayerNorm", stash_type = 1 : si64} : (tensor<1x128x1152xf32>, tensor<1152xf32>) -> tensor<1x128x1152xf32>
    %1651:4 = "onnx.Custom"(%1626#3, %1650, %148) {domain_name = "com.microsoft", epsilon = 9.99999997E-7 : f32, function_name = "SkipSimplifiedLayerNormalization", onnx_node_name = "/model/layers.22/pre_feedforward_layernorm/SkipLayerNorm"} : (tensor<1x128x1152xf32>, tensor<1x128x1152xf32>, tensor<1152xf32>) -> (tensor<1x128x1152xf32>, none, none, tensor<1x128x1152xf32>)
    %y_267, %y_scale_268, %y_zero_point_269 = "onnx.DynamicQuantizeLinear"(%1651#0) {onnx_node_name = "/model/layers.22/pre_feedforward_layernorm/output_0_QuantizeLinear"} : (tensor<1x128x1152xf32>) -> (tensor<1x128x1152xui8>, tensor<f32>, tensor<ui8>)
    %1652 = "onnx.MatMulInteger"(%y_267, %648, %y_zero_point_269, %647) {onnx_node_name = "/model/layers.22/mlp/gate_proj/MatMul_quant"} : (tensor<1x128x1152xui8>, tensor<1152x6912xi8>, tensor<ui8>, tensor<i8>) -> tensor<1x128x6912xi32>
    %1653 = "onnx.Cast"(%1652) {onnx_node_name = "/model/layers.22/mlp/gate_proj/MatMul/output_0_output_quantized_cast", saturate = 1 : si64, to = f32} : (tensor<1x128x6912xi32>) -> tensor<1x128x6912xf32>
    %1654 = "onnx.Mul"(%y_scale_268, %646) {onnx_node_name = "/model/layers.22/mlp/gate_proj/MatMul_quant_scales_mul"} : (tensor<f32>, tensor<f32>) -> tensor<f32>
    %1655 = "onnx.Mul"(%1653, %1654) {onnx_node_name = "/model/layers.22/mlp/gate_proj/MatMul_quant_output_scale_mul"} : (tensor<1x128x6912xf32>, tensor<f32>) -> tensor<1x128x6912xf32>
    %1656 = "onnx.MatMulInteger"(%y_267, %651, %y_zero_point_269, %650) {onnx_node_name = "/model/layers.22/mlp/up_proj/MatMul_quant"} : (tensor<1x128x1152xui8>, tensor<1152x6912xi8>, tensor<ui8>, tensor<i8>) -> tensor<1x128x6912xi32>
    %1657 = "onnx.Cast"(%1656) {onnx_node_name = "/model/layers.22/mlp/up_proj/MatMul/output_0_output_quantized_cast", saturate = 1 : si64, to = f32} : (tensor<1x128x6912xi32>) -> tensor<1x128x6912xf32>
    %1658 = "onnx.Mul"(%y_scale_268, %649) {onnx_node_name = "/model/layers.22/mlp/up_proj/MatMul_quant_scales_mul"} : (tensor<f32>, tensor<f32>) -> tensor<f32>
    %1659 = "onnx.Mul"(%1657, %1658) {onnx_node_name = "/model/layers.22/mlp/up_proj/MatMul_quant_output_scale_mul"} : (tensor<1x128x6912xf32>, tensor<f32>) -> tensor<1x128x6912xf32>
    %1660 = "onnx.Custom"(%1655) {domain_name = "com.microsoft", function_name = "FastGelu", onnx_node_name = "/model/layers.22/mlp/act_fn/FastGelu"} : (tensor<1x128x6912xf32>) -> tensor<1x128x6912xf32>
    %1661 = "onnx.Mul"(%1660, %1659) {onnx_node_name = "/model/layers.22/mlp/Mul"} : (tensor<1x128x6912xf32>, tensor<1x128x6912xf32>) -> tensor<1x128x6912xf32>
    %y_270, %y_scale_271, %y_zero_point_272 = "onnx.DynamicQuantizeLinear"(%1661) {onnx_node_name = "/model/layers.22/mlp/Mul/output_0_QuantizeLinear"} : (tensor<1x128x6912xf32>) -> (tensor<1x128x6912xui8>, tensor<f32>, tensor<ui8>)
    %1662 = "onnx.MatMulInteger"(%y_270, %654, %y_zero_point_272, %653) {onnx_node_name = "/model/layers.22/mlp/down_proj/MatMul_quant"} : (tensor<1x128x6912xui8>, tensor<6912x1152xi8>, tensor<ui8>, tensor<i8>) -> tensor<1x128x1152xi32>
    %1663 = "onnx.Cast"(%1662) {onnx_node_name = "/model/layers.22/mlp/down_proj/MatMul/output_0_output_quantized_cast", saturate = 1 : si64, to = f32} : (tensor<1x128x1152xi32>) -> tensor<1x128x1152xf32>
    %1664 = "onnx.Mul"(%y_scale_271, %652) {onnx_node_name = "/model/layers.22/mlp/down_proj/MatMul_quant_scales_mul"} : (tensor<f32>, tensor<f32>) -> tensor<f32>
    %1665 = "onnx.Mul"(%1663, %1664) {onnx_node_name = "/model/layers.22/mlp/down_proj/MatMul_quant_output_scale_mul"} : (tensor<1x128x1152xf32>, tensor<f32>) -> tensor<1x128x1152xf32>
    %1666 = "onnx.Custom"(%1665, %149) {axis = -1 : si64, domain_name = "", epsilon = 9.99999997E-7 : f32, function_name = "SimplifiedLayerNormalization", onnx_node_name = "/model/layers.22/post_feedforward_layernorm/LayerNorm", stash_type = 1 : si64} : (tensor<1x128x1152xf32>, tensor<1152xf32>) -> tensor<1x128x1152xf32>
    %1667:4 = "onnx.Custom"(%1651#3, %1666, %150) {domain_name = "com.microsoft", epsilon = 9.99999997E-7 : f32, function_name = "SkipSimplifiedLayerNormalization", onnx_node_name = "/model/layers.23/input_layernorm/SkipLayerNorm"} : (tensor<1x128x1152xf32>, tensor<1x128x1152xf32>, tensor<1152xf32>) -> (tensor<1x128x1152xf32>, none, none, tensor<1x128x1152xf32>)
    %y_273, %y_scale_274, %y_zero_point_275 = "onnx.DynamicQuantizeLinear"(%1667#0) {onnx_node_name = "/model/layers.23/input_layernorm/output_0_QuantizeLinear"} : (tensor<1x128x1152xf32>) -> (tensor<1x128x1152xui8>, tensor<f32>, tensor<ui8>)
    %1668 = "onnx.MatMulInteger"(%y_273, %657, %y_zero_point_275, %656) {onnx_node_name = "/model/layers.23/attn/q_proj/MatMul_quant"} : (tensor<1x128x1152xui8>, tensor<1152x1024xi8>, tensor<ui8>, tensor<i8>) -> tensor<1x128x1024xi32>
    %1669 = "onnx.Cast"(%1668) {onnx_node_name = "/model/layers.23/attn/q_proj/MatMul/output_0_output_quantized_cast", saturate = 1 : si64, to = f32} : (tensor<1x128x1024xi32>) -> tensor<1x128x1024xf32>
    %1670 = "onnx.Mul"(%y_scale_274, %655) {onnx_node_name = "/model/layers.23/attn/q_proj/MatMul_quant_scales_mul"} : (tensor<f32>, tensor<f32>) -> tensor<f32>
    %1671 = "onnx.Mul"(%1669, %1670) {onnx_node_name = "/model/layers.23/attn/q_proj/MatMul_quant_output_scale_mul"} : (tensor<1x128x1024xf32>, tensor<f32>) -> tensor<1x128x1024xf32>
    %1672 = "onnx.MatMulInteger"(%y_273, %660, %y_zero_point_275, %659) {onnx_node_name = "/model/layers.23/attn/k_proj/MatMul_quant"} : (tensor<1x128x1152xui8>, tensor<1152x256xi8>, tensor<ui8>, tensor<i8>) -> tensor<1x128x256xi32>
    %1673 = "onnx.Cast"(%1672) {onnx_node_name = "/model/layers.23/attn/k_proj/MatMul/output_0_output_quantized_cast", saturate = 1 : si64, to = f32} : (tensor<1x128x256xi32>) -> tensor<1x128x256xf32>
    %1674 = "onnx.Mul"(%y_scale_274, %658) {onnx_node_name = "/model/layers.23/attn/k_proj/MatMul_quant_scales_mul"} : (tensor<f32>, tensor<f32>) -> tensor<f32>
    %1675 = "onnx.Mul"(%1673, %1674) {onnx_node_name = "/model/layers.23/attn/k_proj/MatMul_quant_output_scale_mul"} : (tensor<1x128x256xf32>, tensor<f32>) -> tensor<1x128x256xf32>
    %1676 = "onnx.MatMulInteger"(%y_273, %663, %y_zero_point_275, %662) {onnx_node_name = "/model/layers.23/attn/v_proj/MatMul_quant"} : (tensor<1x128x1152xui8>, tensor<1152x256xi8>, tensor<ui8>, tensor<i8>) -> tensor<1x128x256xi32>
    %1677 = "onnx.Cast"(%1676) {onnx_node_name = "/model/layers.23/attn/v_proj/MatMul/output_0_output_quantized_cast", saturate = 1 : si64, to = f32} : (tensor<1x128x256xi32>) -> tensor<1x128x256xf32>
    %1678 = "onnx.Mul"(%y_scale_274, %661) {onnx_node_name = "/model/layers.23/attn/v_proj/MatMul_quant_scales_mul"} : (tensor<f32>, tensor<f32>) -> tensor<f32>
    %1679 = "onnx.Mul"(%1677, %1678) {onnx_node_name = "/model/layers.23/attn/v_proj/MatMul_quant_output_scale_mul"} : (tensor<1x128x256xf32>, tensor<f32>) -> tensor<1x128x256xf32>
    %1680 = "onnx.Reshape"(%1671, %7) {allowzero = 0 : si64, onnx_node_name = "/model/layers.23/attn/q_norm/Reshape_1"} : (tensor<1x128x1024xf32>, tensor<3xi64>) -> tensor<1x512x256xf32>
    %1681 = "onnx.Custom"(%1680, %151) {axis = -1 : si64, domain_name = "", epsilon = 9.99999997E-7 : f32, function_name = "SimplifiedLayerNormalization", onnx_node_name = "/model/layers.23/attn/q_norm/SimplifiedLayerNormalization", stash_type = 1 : si64} : (tensor<1x512x256xf32>, tensor<256xf32>) -> tensor<1x512x256xf32>
    %1682 = "onnx.Custom"(%1675, %152) {axis = -1 : si64, domain_name = "", epsilon = 9.99999997E-7 : f32, function_name = "SimplifiedLayerNormalization", onnx_node_name = "/model/layers.23/attn/k_norm/SimplifiedLayerNormalization", stash_type = 1 : si64} : (tensor<1x128x256xf32>, tensor<256xf32>) -> tensor<1x128x256xf32>
    %1683 = "onnx.Reshape"(%1681, %10) {allowzero = 0 : si64, onnx_node_name = "/model/layers.23/attn/q_norm/Reshape_2"} : (tensor<1x512x256xf32>, tensor<3xi64>) -> tensor<1x128x1024xf32>
    %1684 = "onnx.Custom"(%1683, %arg2, %43, %44) {domain_name = "com.microsoft", function_name = "RotaryEmbedding", interleaved = 0 : si64, num_heads = 0 : si64, onnx_node_name = "/model/layers.23/attn/q_rotary/RotaryEmbedding", rotary_embedding_dim = 0 : si64} : (tensor<1x128x1024xf32>, tensor<1x128xi64>, tensor<32768x128xf32>, tensor<32768x128xf32>) -> tensor<1x128x1024xf32>
    %1685 = "onnx.Custom"(%1682, %arg2, %43, %44) {domain_name = "com.microsoft", function_name = "RotaryEmbedding", interleaved = 0 : si64, num_heads = 0 : si64, onnx_node_name = "/model/layers.23/attn/k_rotary/RotaryEmbedding", rotary_embedding_dim = 0 : si64} : (tensor<1x128x256xf32>, tensor<1x128xi64>, tensor<32768x128xf32>, tensor<32768x128xf32>) -> tensor<1x128x256xf32>
    %1686:3 = "onnx.Custom"(%1684, %1685, %1679, %arg49, %arg50, %724, %0, %3, %3) {do_rotary = 0 : si64, domain_name = "com.microsoft", function_name = "GroupQueryAttention", kv_num_heads = 1 : si64, local_window_size = -1 : si64, num_heads = 4 : si64, onnx_node_name = "/model/layers.23/attn/GroupQueryAttention", rotary_interleaved = 0 : si64, scale = 6.250000e-02 : f32, softcap = 0.000000e+00 : f32} : (tensor<1x128x1024xf32>, tensor<1x128x256xf32>, tensor<1x128x256xf32>, tensor<1x1x1x256xf32>, tensor<1x1x1x256xf32>, tensor<1x1xi32>, tensor<i32>, none, none) -> (tensor<1x128x1024xf32>, tensor<1x1x128x256xf32>, tensor<1x1x128x256xf32>)
    %y_276, %y_scale_277, %y_zero_point_278 = "onnx.DynamicQuantizeLinear"(%1686#0) {onnx_node_name = "/model/layers.23/attn/GroupQueryAttention/output_0_QuantizeLinear"} : (tensor<1x128x1024xf32>) -> (tensor<1x128x1024xui8>, tensor<f32>, tensor<ui8>)
    %1687 = "onnx.MatMulInteger"(%y_276, %666, %y_zero_point_278, %665) {onnx_node_name = "/model/layers.23/attn/o_proj/MatMul_quant"} : (tensor<1x128x1024xui8>, tensor<1024x1152xi8>, tensor<ui8>, tensor<i8>) -> tensor<1x128x1152xi32>
    %1688 = "onnx.Cast"(%1687) {onnx_node_name = "/model/layers.23/attn/o_proj/MatMul/output_0_output_quantized_cast", saturate = 1 : si64, to = f32} : (tensor<1x128x1152xi32>) -> tensor<1x128x1152xf32>
    %1689 = "onnx.Mul"(%y_scale_277, %664) {onnx_node_name = "/model/layers.23/attn/o_proj/MatMul_quant_scales_mul"} : (tensor<f32>, tensor<f32>) -> tensor<f32>
    %1690 = "onnx.Mul"(%1688, %1689) {onnx_node_name = "/model/layers.23/attn/o_proj/MatMul_quant_output_scale_mul"} : (tensor<1x128x1152xf32>, tensor<f32>) -> tensor<1x128x1152xf32>
    %1691 = "onnx.Custom"(%1690, %153) {axis = -1 : si64, domain_name = "", epsilon = 9.99999997E-7 : f32, function_name = "SimplifiedLayerNormalization", onnx_node_name = "/model/layers.23/post_attention_layernorm/LayerNorm", stash_type = 1 : si64} : (tensor<1x128x1152xf32>, tensor<1152xf32>) -> tensor<1x128x1152xf32>
    %1692:4 = "onnx.Custom"(%1667#3, %1691, %154) {domain_name = "com.microsoft", epsilon = 9.99999997E-7 : f32, function_name = "SkipSimplifiedLayerNormalization", onnx_node_name = "/model/layers.23/pre_feedforward_layernorm/SkipLayerNorm"} : (tensor<1x128x1152xf32>, tensor<1x128x1152xf32>, tensor<1152xf32>) -> (tensor<1x128x1152xf32>, none, none, tensor<1x128x1152xf32>)
    %y_279, %y_scale_280, %y_zero_point_281 = "onnx.DynamicQuantizeLinear"(%1692#0) {onnx_node_name = "/model/layers.23/pre_feedforward_layernorm/output_0_QuantizeLinear"} : (tensor<1x128x1152xf32>) -> (tensor<1x128x1152xui8>, tensor<f32>, tensor<ui8>)
    %1693 = "onnx.MatMulInteger"(%y_279, %669, %y_zero_point_281, %668) {onnx_node_name = "/model/layers.23/mlp/gate_proj/MatMul_quant"} : (tensor<1x128x1152xui8>, tensor<1152x6912xi8>, tensor<ui8>, tensor<i8>) -> tensor<1x128x6912xi32>
    %1694 = "onnx.Cast"(%1693) {onnx_node_name = "/model/layers.23/mlp/gate_proj/MatMul/output_0_output_quantized_cast", saturate = 1 : si64, to = f32} : (tensor<1x128x6912xi32>) -> tensor<1x128x6912xf32>
    %1695 = "onnx.Mul"(%y_scale_280, %667) {onnx_node_name = "/model/layers.23/mlp/gate_proj/MatMul_quant_scales_mul"} : (tensor<f32>, tensor<f32>) -> tensor<f32>
    %1696 = "onnx.Mul"(%1694, %1695) {onnx_node_name = "/model/layers.23/mlp/gate_proj/MatMul_quant_output_scale_mul"} : (tensor<1x128x6912xf32>, tensor<f32>) -> tensor<1x128x6912xf32>
    %1697 = "onnx.MatMulInteger"(%y_279, %672, %y_zero_point_281, %671) {onnx_node_name = "/model/layers.23/mlp/up_proj/MatMul_quant"} : (tensor<1x128x1152xui8>, tensor<1152x6912xi8>, tensor<ui8>, tensor<i8>) -> tensor<1x128x6912xi32>
    %1698 = "onnx.Cast"(%1697) {onnx_node_name = "/model/layers.23/mlp/up_proj/MatMul/output_0_output_quantized_cast", saturate = 1 : si64, to = f32} : (tensor<1x128x6912xi32>) -> tensor<1x128x6912xf32>
    %1699 = "onnx.Mul"(%y_scale_280, %670) {onnx_node_name = "/model/layers.23/mlp/up_proj/MatMul_quant_scales_mul"} : (tensor<f32>, tensor<f32>) -> tensor<f32>
    %1700 = "onnx.Mul"(%1698, %1699) {onnx_node_name = "/model/layers.23/mlp/up_proj/MatMul_quant_output_scale_mul"} : (tensor<1x128x6912xf32>, tensor<f32>) -> tensor<1x128x6912xf32>
    %1701 = "onnx.Custom"(%1696) {domain_name = "com.microsoft", function_name = "FastGelu", onnx_node_name = "/model/layers.23/mlp/act_fn/FastGelu"} : (tensor<1x128x6912xf32>) -> tensor<1x128x6912xf32>
    %1702 = "onnx.Mul"(%1701, %1700) {onnx_node_name = "/model/layers.23/mlp/Mul"} : (tensor<1x128x6912xf32>, tensor<1x128x6912xf32>) -> tensor<1x128x6912xf32>
    %y_282, %y_scale_283, %y_zero_point_284 = "onnx.DynamicQuantizeLinear"(%1702) {onnx_node_name = "/model/layers.23/mlp/Mul/output_0_QuantizeLinear"} : (tensor<1x128x6912xf32>) -> (tensor<1x128x6912xui8>, tensor<f32>, tensor<ui8>)
    %1703 = "onnx.MatMulInteger"(%y_282, %675, %y_zero_point_284, %674) {onnx_node_name = "/model/layers.23/mlp/down_proj/MatMul_quant"} : (tensor<1x128x6912xui8>, tensor<6912x1152xi8>, tensor<ui8>, tensor<i8>) -> tensor<1x128x1152xi32>
    %1704 = "onnx.Cast"(%1703) {onnx_node_name = "/model/layers.23/mlp/down_proj/MatMul/output_0_output_quantized_cast", saturate = 1 : si64, to = f32} : (tensor<1x128x1152xi32>) -> tensor<1x128x1152xf32>
    %1705 = "onnx.Mul"(%y_scale_283, %673) {onnx_node_name = "/model/layers.23/mlp/down_proj/MatMul_quant_scales_mul"} : (tensor<f32>, tensor<f32>) -> tensor<f32>
    %1706 = "onnx.Mul"(%1704, %1705) {onnx_node_name = "/model/layers.23/mlp/down_proj/MatMul_quant_output_scale_mul"} : (tensor<1x128x1152xf32>, tensor<f32>) -> tensor<1x128x1152xf32>
    %1707 = "onnx.Custom"(%1706, %155) {axis = -1 : si64, domain_name = "", epsilon = 9.99999997E-7 : f32, function_name = "SimplifiedLayerNormalization", onnx_node_name = "/model/layers.23/post_feedforward_layernorm/LayerNorm", stash_type = 1 : si64} : (tensor<1x128x1152xf32>, tensor<1152xf32>) -> tensor<1x128x1152xf32>
    %1708:4 = "onnx.Custom"(%1692#3, %1707, %156) {domain_name = "com.microsoft", epsilon = 9.99999997E-7 : f32, function_name = "SkipSimplifiedLayerNormalization", onnx_node_name = "/model/layers.24/input_layernorm/SkipLayerNorm"} : (tensor<1x128x1152xf32>, tensor<1x128x1152xf32>, tensor<1152xf32>) -> (tensor<1x128x1152xf32>, none, none, tensor<1x128x1152xf32>)
    %y_285, %y_scale_286, %y_zero_point_287 = "onnx.DynamicQuantizeLinear"(%1708#0) {onnx_node_name = "/model/layers.24/input_layernorm/output_0_QuantizeLinear"} : (tensor<1x128x1152xf32>) -> (tensor<1x128x1152xui8>, tensor<f32>, tensor<ui8>)
    %1709 = "onnx.MatMulInteger"(%y_285, %678, %y_zero_point_287, %677) {onnx_node_name = "/model/layers.24/attn/q_proj/MatMul_quant"} : (tensor<1x128x1152xui8>, tensor<1152x1024xi8>, tensor<ui8>, tensor<i8>) -> tensor<1x128x1024xi32>
    %1710 = "onnx.Cast"(%1709) {onnx_node_name = "/model/layers.24/attn/q_proj/MatMul/output_0_output_quantized_cast", saturate = 1 : si64, to = f32} : (tensor<1x128x1024xi32>) -> tensor<1x128x1024xf32>
    %1711 = "onnx.Mul"(%y_scale_286, %676) {onnx_node_name = "/model/layers.24/attn/q_proj/MatMul_quant_scales_mul"} : (tensor<f32>, tensor<f32>) -> tensor<f32>
    %1712 = "onnx.Mul"(%1710, %1711) {onnx_node_name = "/model/layers.24/attn/q_proj/MatMul_quant_output_scale_mul"} : (tensor<1x128x1024xf32>, tensor<f32>) -> tensor<1x128x1024xf32>
    %1713 = "onnx.MatMulInteger"(%y_285, %681, %y_zero_point_287, %680) {onnx_node_name = "/model/layers.24/attn/k_proj/MatMul_quant"} : (tensor<1x128x1152xui8>, tensor<1152x256xi8>, tensor<ui8>, tensor<i8>) -> tensor<1x128x256xi32>
    %1714 = "onnx.Cast"(%1713) {onnx_node_name = "/model/layers.24/attn/k_proj/MatMul/output_0_output_quantized_cast", saturate = 1 : si64, to = f32} : (tensor<1x128x256xi32>) -> tensor<1x128x256xf32>
    %1715 = "onnx.Mul"(%y_scale_286, %679) {onnx_node_name = "/model/layers.24/attn/k_proj/MatMul_quant_scales_mul"} : (tensor<f32>, tensor<f32>) -> tensor<f32>
    %1716 = "onnx.Mul"(%1714, %1715) {onnx_node_name = "/model/layers.24/attn/k_proj/MatMul_quant_output_scale_mul"} : (tensor<1x128x256xf32>, tensor<f32>) -> tensor<1x128x256xf32>
    %1717 = "onnx.MatMulInteger"(%y_285, %684, %y_zero_point_287, %683) {onnx_node_name = "/model/layers.24/attn/v_proj/MatMul_quant"} : (tensor<1x128x1152xui8>, tensor<1152x256xi8>, tensor<ui8>, tensor<i8>) -> tensor<1x128x256xi32>
    %1718 = "onnx.Cast"(%1717) {onnx_node_name = "/model/layers.24/attn/v_proj/MatMul/output_0_output_quantized_cast", saturate = 1 : si64, to = f32} : (tensor<1x128x256xi32>) -> tensor<1x128x256xf32>
    %1719 = "onnx.Mul"(%y_scale_286, %682) {onnx_node_name = "/model/layers.24/attn/v_proj/MatMul_quant_scales_mul"} : (tensor<f32>, tensor<f32>) -> tensor<f32>
    %1720 = "onnx.Mul"(%1718, %1719) {onnx_node_name = "/model/layers.24/attn/v_proj/MatMul_quant_output_scale_mul"} : (tensor<1x128x256xf32>, tensor<f32>) -> tensor<1x128x256xf32>
    %1721 = "onnx.Reshape"(%1712, %7) {allowzero = 0 : si64, onnx_node_name = "/model/layers.24/attn/q_norm/Reshape_1"} : (tensor<1x128x1024xf32>, tensor<3xi64>) -> tensor<1x512x256xf32>
    %1722 = "onnx.Custom"(%1721, %157) {axis = -1 : si64, domain_name = "", epsilon = 9.99999997E-7 : f32, function_name = "SimplifiedLayerNormalization", onnx_node_name = "/model/layers.24/attn/q_norm/SimplifiedLayerNormalization", stash_type = 1 : si64} : (tensor<1x512x256xf32>, tensor<256xf32>) -> tensor<1x512x256xf32>
    %1723 = "onnx.Custom"(%1716, %158) {axis = -1 : si64, domain_name = "", epsilon = 9.99999997E-7 : f32, function_name = "SimplifiedLayerNormalization", onnx_node_name = "/model/layers.24/attn/k_norm/SimplifiedLayerNormalization", stash_type = 1 : si64} : (tensor<1x128x256xf32>, tensor<256xf32>) -> tensor<1x128x256xf32>
    %1724 = "onnx.Reshape"(%1722, %10) {allowzero = 0 : si64, onnx_node_name = "/model/layers.24/attn/q_norm/Reshape_2"} : (tensor<1x512x256xf32>, tensor<3xi64>) -> tensor<1x128x1024xf32>
    %1725 = "onnx.Custom"(%1724, %arg2, %11, %12) {domain_name = "com.microsoft", function_name = "RotaryEmbedding", interleaved = 0 : si64, num_heads = 0 : si64, onnx_node_name = "/model/layers.24/attn/q_rotary/RotaryEmbedding", rotary_embedding_dim = 0 : si64} : (tensor<1x128x1024xf32>, tensor<1x128xi64>, tensor<32768x128xf32>, tensor<32768x128xf32>) -> tensor<1x128x1024xf32>
    %1726 = "onnx.Custom"(%1723, %arg2, %11, %12) {domain_name = "com.microsoft", function_name = "RotaryEmbedding", interleaved = 0 : si64, num_heads = 0 : si64, onnx_node_name = "/model/layers.24/attn/k_rotary/RotaryEmbedding", rotary_embedding_dim = 0 : si64} : (tensor<1x128x256xf32>, tensor<1x128xi64>, tensor<32768x128xf32>, tensor<32768x128xf32>) -> tensor<1x128x256xf32>
    %1727:3 = "onnx.Custom"(%1725, %1726, %1720, %arg51, %arg52, %724, %0, %3, %3) {do_rotary = 0 : si64, domain_name = "com.microsoft", function_name = "GroupQueryAttention", kv_num_heads = 1 : si64, local_window_size = 512 : si64, num_heads = 4 : si64, onnx_node_name = "/model/layers.24/attn/GroupQueryAttention", rotary_interleaved = 0 : si64, scale = 6.250000e-02 : f32, softcap = 0.000000e+00 : f32} : (tensor<1x128x1024xf32>, tensor<1x128x256xf32>, tensor<1x128x256xf32>, tensor<1x1x1x256xf32>, tensor<1x1x1x256xf32>, tensor<1x1xi32>, tensor<i32>, none, none) -> (tensor<1x128x1024xf32>, tensor<1x1x128x256xf32>, tensor<1x1x128x256xf32>)
    %y_288, %y_scale_289, %y_zero_point_290 = "onnx.DynamicQuantizeLinear"(%1727#0) {onnx_node_name = "/model/layers.24/attn/GroupQueryAttention/output_0_QuantizeLinear"} : (tensor<1x128x1024xf32>) -> (tensor<1x128x1024xui8>, tensor<f32>, tensor<ui8>)
    %1728 = "onnx.MatMulInteger"(%y_288, %687, %y_zero_point_290, %686) {onnx_node_name = "/model/layers.24/attn/o_proj/MatMul_quant"} : (tensor<1x128x1024xui8>, tensor<1024x1152xi8>, tensor<ui8>, tensor<i8>) -> tensor<1x128x1152xi32>
    %1729 = "onnx.Cast"(%1728) {onnx_node_name = "/model/layers.24/attn/o_proj/MatMul/output_0_output_quantized_cast", saturate = 1 : si64, to = f32} : (tensor<1x128x1152xi32>) -> tensor<1x128x1152xf32>
    %1730 = "onnx.Mul"(%y_scale_289, %685) {onnx_node_name = "/model/layers.24/attn/o_proj/MatMul_quant_scales_mul"} : (tensor<f32>, tensor<f32>) -> tensor<f32>
    %1731 = "onnx.Mul"(%1729, %1730) {onnx_node_name = "/model/layers.24/attn/o_proj/MatMul_quant_output_scale_mul"} : (tensor<1x128x1152xf32>, tensor<f32>) -> tensor<1x128x1152xf32>
    %1732 = "onnx.Custom"(%1731, %159) {axis = -1 : si64, domain_name = "", epsilon = 9.99999997E-7 : f32, function_name = "SimplifiedLayerNormalization", onnx_node_name = "/model/layers.24/post_attention_layernorm/LayerNorm", stash_type = 1 : si64} : (tensor<1x128x1152xf32>, tensor<1152xf32>) -> tensor<1x128x1152xf32>
    %1733:4 = "onnx.Custom"(%1708#3, %1732, %160) {domain_name = "com.microsoft", epsilon = 9.99999997E-7 : f32, function_name = "SkipSimplifiedLayerNormalization", onnx_node_name = "/model/layers.24/pre_feedforward_layernorm/SkipLayerNorm"} : (tensor<1x128x1152xf32>, tensor<1x128x1152xf32>, tensor<1152xf32>) -> (tensor<1x128x1152xf32>, none, none, tensor<1x128x1152xf32>)
    %y_291, %y_scale_292, %y_zero_point_293 = "onnx.DynamicQuantizeLinear"(%1733#0) {onnx_node_name = "/model/layers.24/pre_feedforward_layernorm/output_0_QuantizeLinear"} : (tensor<1x128x1152xf32>) -> (tensor<1x128x1152xui8>, tensor<f32>, tensor<ui8>)
    %1734 = "onnx.MatMulInteger"(%y_291, %690, %y_zero_point_293, %689) {onnx_node_name = "/model/layers.24/mlp/gate_proj/MatMul_quant"} : (tensor<1x128x1152xui8>, tensor<1152x6912xi8>, tensor<ui8>, tensor<i8>) -> tensor<1x128x6912xi32>
    %1735 = "onnx.Cast"(%1734) {onnx_node_name = "/model/layers.24/mlp/gate_proj/MatMul/output_0_output_quantized_cast", saturate = 1 : si64, to = f32} : (tensor<1x128x6912xi32>) -> tensor<1x128x6912xf32>
    %1736 = "onnx.Mul"(%y_scale_292, %688) {onnx_node_name = "/model/layers.24/mlp/gate_proj/MatMul_quant_scales_mul"} : (tensor<f32>, tensor<f32>) -> tensor<f32>
    %1737 = "onnx.Mul"(%1735, %1736) {onnx_node_name = "/model/layers.24/mlp/gate_proj/MatMul_quant_output_scale_mul"} : (tensor<1x128x6912xf32>, tensor<f32>) -> tensor<1x128x6912xf32>
    %1738 = "onnx.MatMulInteger"(%y_291, %693, %y_zero_point_293, %692) {onnx_node_name = "/model/layers.24/mlp/up_proj/MatMul_quant"} : (tensor<1x128x1152xui8>, tensor<1152x6912xi8>, tensor<ui8>, tensor<i8>) -> tensor<1x128x6912xi32>
    %1739 = "onnx.Cast"(%1738) {onnx_node_name = "/model/layers.24/mlp/up_proj/MatMul/output_0_output_quantized_cast", saturate = 1 : si64, to = f32} : (tensor<1x128x6912xi32>) -> tensor<1x128x6912xf32>
    %1740 = "onnx.Mul"(%y_scale_292, %691) {onnx_node_name = "/model/layers.24/mlp/up_proj/MatMul_quant_scales_mul"} : (tensor<f32>, tensor<f32>) -> tensor<f32>
    %1741 = "onnx.Mul"(%1739, %1740) {onnx_node_name = "/model/layers.24/mlp/up_proj/MatMul_quant_output_scale_mul"} : (tensor<1x128x6912xf32>, tensor<f32>) -> tensor<1x128x6912xf32>
    %1742 = "onnx.Custom"(%1737) {domain_name = "com.microsoft", function_name = "FastGelu", onnx_node_name = "/model/layers.24/mlp/act_fn/FastGelu"} : (tensor<1x128x6912xf32>) -> tensor<1x128x6912xf32>
    %1743 = "onnx.Mul"(%1742, %1741) {onnx_node_name = "/model/layers.24/mlp/Mul"} : (tensor<1x128x6912xf32>, tensor<1x128x6912xf32>) -> tensor<1x128x6912xf32>
    %y_294, %y_scale_295, %y_zero_point_296 = "onnx.DynamicQuantizeLinear"(%1743) {onnx_node_name = "/model/layers.24/mlp/Mul/output_0_QuantizeLinear"} : (tensor<1x128x6912xf32>) -> (tensor<1x128x6912xui8>, tensor<f32>, tensor<ui8>)
    %1744 = "onnx.MatMulInteger"(%y_294, %696, %y_zero_point_296, %695) {onnx_node_name = "/model/layers.24/mlp/down_proj/MatMul_quant"} : (tensor<1x128x6912xui8>, tensor<6912x1152xi8>, tensor<ui8>, tensor<i8>) -> tensor<1x128x1152xi32>
    %1745 = "onnx.Cast"(%1744) {onnx_node_name = "/model/layers.24/mlp/down_proj/MatMul/output_0_output_quantized_cast", saturate = 1 : si64, to = f32} : (tensor<1x128x1152xi32>) -> tensor<1x128x1152xf32>
    %1746 = "onnx.Mul"(%y_scale_295, %694) {onnx_node_name = "/model/layers.24/mlp/down_proj/MatMul_quant_scales_mul"} : (tensor<f32>, tensor<f32>) -> tensor<f32>
    %1747 = "onnx.Mul"(%1745, %1746) {onnx_node_name = "/model/layers.24/mlp/down_proj/MatMul_quant_output_scale_mul"} : (tensor<1x128x1152xf32>, tensor<f32>) -> tensor<1x128x1152xf32>
    %1748 = "onnx.Custom"(%1747, %161) {axis = -1 : si64, domain_name = "", epsilon = 9.99999997E-7 : f32, function_name = "SimplifiedLayerNormalization", onnx_node_name = "/model/layers.24/post_feedforward_layernorm/LayerNorm", stash_type = 1 : si64} : (tensor<1x128x1152xf32>, tensor<1152xf32>) -> tensor<1x128x1152xf32>
    %1749:4 = "onnx.Custom"(%1733#3, %1748, %162) {domain_name = "com.microsoft", epsilon = 9.99999997E-7 : f32, function_name = "SkipSimplifiedLayerNormalization", onnx_node_name = "/model/layers.25/input_layernorm/SkipLayerNorm"} : (tensor<1x128x1152xf32>, tensor<1x128x1152xf32>, tensor<1152xf32>) -> (tensor<1x128x1152xf32>, none, none, tensor<1x128x1152xf32>)
    %y_297, %y_scale_298, %y_zero_point_299 = "onnx.DynamicQuantizeLinear"(%1749#0) {onnx_node_name = "/model/layers.25/input_layernorm/output_0_QuantizeLinear"} : (tensor<1x128x1152xf32>) -> (tensor<1x128x1152xui8>, tensor<f32>, tensor<ui8>)
    %1750 = "onnx.MatMulInteger"(%y_297, %699, %y_zero_point_299, %698) {onnx_node_name = "/model/layers.25/attn/q_proj/MatMul_quant"} : (tensor<1x128x1152xui8>, tensor<1152x1024xi8>, tensor<ui8>, tensor<i8>) -> tensor<1x128x1024xi32>
    %1751 = "onnx.Cast"(%1750) {onnx_node_name = "/model/layers.25/attn/q_proj/MatMul/output_0_output_quantized_cast", saturate = 1 : si64, to = f32} : (tensor<1x128x1024xi32>) -> tensor<1x128x1024xf32>
    %1752 = "onnx.Mul"(%y_scale_298, %697) {onnx_node_name = "/model/layers.25/attn/q_proj/MatMul_quant_scales_mul"} : (tensor<f32>, tensor<f32>) -> tensor<f32>
    %1753 = "onnx.Mul"(%1751, %1752) {onnx_node_name = "/model/layers.25/attn/q_proj/MatMul_quant_output_scale_mul"} : (tensor<1x128x1024xf32>, tensor<f32>) -> tensor<1x128x1024xf32>
    %1754 = "onnx.MatMulInteger"(%y_297, %702, %y_zero_point_299, %701) {onnx_node_name = "/model/layers.25/attn/k_proj/MatMul_quant"} : (tensor<1x128x1152xui8>, tensor<1152x256xi8>, tensor<ui8>, tensor<i8>) -> tensor<1x128x256xi32>
    %1755 = "onnx.Cast"(%1754) {onnx_node_name = "/model/layers.25/attn/k_proj/MatMul/output_0_output_quantized_cast", saturate = 1 : si64, to = f32} : (tensor<1x128x256xi32>) -> tensor<1x128x256xf32>
    %1756 = "onnx.Mul"(%y_scale_298, %700) {onnx_node_name = "/model/layers.25/attn/k_proj/MatMul_quant_scales_mul"} : (tensor<f32>, tensor<f32>) -> tensor<f32>
    %1757 = "onnx.Mul"(%1755, %1756) {onnx_node_name = "/model/layers.25/attn/k_proj/MatMul_quant_output_scale_mul"} : (tensor<1x128x256xf32>, tensor<f32>) -> tensor<1x128x256xf32>
    %1758 = "onnx.MatMulInteger"(%y_297, %705, %y_zero_point_299, %704) {onnx_node_name = "/model/layers.25/attn/v_proj/MatMul_quant"} : (tensor<1x128x1152xui8>, tensor<1152x256xi8>, tensor<ui8>, tensor<i8>) -> tensor<1x128x256xi32>
    %1759 = "onnx.Cast"(%1758) {onnx_node_name = "/model/layers.25/attn/v_proj/MatMul/output_0_output_quantized_cast", saturate = 1 : si64, to = f32} : (tensor<1x128x256xi32>) -> tensor<1x128x256xf32>
    %1760 = "onnx.Mul"(%y_scale_298, %703) {onnx_node_name = "/model/layers.25/attn/v_proj/MatMul_quant_scales_mul"} : (tensor<f32>, tensor<f32>) -> tensor<f32>
    %1761 = "onnx.Mul"(%1759, %1760) {onnx_node_name = "/model/layers.25/attn/v_proj/MatMul_quant_output_scale_mul"} : (tensor<1x128x256xf32>, tensor<f32>) -> tensor<1x128x256xf32>
    %1762 = "onnx.Reshape"(%1753, %7) {allowzero = 0 : si64, onnx_node_name = "/model/layers.25/attn/q_norm/Reshape_1"} : (tensor<1x128x1024xf32>, tensor<3xi64>) -> tensor<1x512x256xf32>
    %1763 = "onnx.Custom"(%1762, %163) {axis = -1 : si64, domain_name = "", epsilon = 9.99999997E-7 : f32, function_name = "SimplifiedLayerNormalization", onnx_node_name = "/model/layers.25/attn/q_norm/SimplifiedLayerNormalization", stash_type = 1 : si64} : (tensor<1x512x256xf32>, tensor<256xf32>) -> tensor<1x512x256xf32>
    %1764 = "onnx.Custom"(%1757, %164) {axis = -1 : si64, domain_name = "", epsilon = 9.99999997E-7 : f32, function_name = "SimplifiedLayerNormalization", onnx_node_name = "/model/layers.25/attn/k_norm/SimplifiedLayerNormalization", stash_type = 1 : si64} : (tensor<1x128x256xf32>, tensor<256xf32>) -> tensor<1x128x256xf32>
    %1765 = "onnx.Reshape"(%1763, %10) {allowzero = 0 : si64, onnx_node_name = "/model/layers.25/attn/q_norm/Reshape_2"} : (tensor<1x512x256xf32>, tensor<3xi64>) -> tensor<1x128x1024xf32>
    %1766 = "onnx.Custom"(%1765, %arg2, %11, %12) {domain_name = "com.microsoft", function_name = "RotaryEmbedding", interleaved = 0 : si64, num_heads = 0 : si64, onnx_node_name = "/model/layers.25/attn/q_rotary/RotaryEmbedding", rotary_embedding_dim = 0 : si64} : (tensor<1x128x1024xf32>, tensor<1x128xi64>, tensor<32768x128xf32>, tensor<32768x128xf32>) -> tensor<1x128x1024xf32>
    %1767 = "onnx.Custom"(%1764, %arg2, %11, %12) {domain_name = "com.microsoft", function_name = "RotaryEmbedding", interleaved = 0 : si64, num_heads = 0 : si64, onnx_node_name = "/model/layers.25/attn/k_rotary/RotaryEmbedding", rotary_embedding_dim = 0 : si64} : (tensor<1x128x256xf32>, tensor<1x128xi64>, tensor<32768x128xf32>, tensor<32768x128xf32>) -> tensor<1x128x256xf32>
    %1768:3 = "onnx.Custom"(%1766, %1767, %1761, %arg53, %arg54, %724, %0, %3, %3) {do_rotary = 0 : si64, domain_name = "com.microsoft", function_name = "GroupQueryAttention", kv_num_heads = 1 : si64, local_window_size = 512 : si64, num_heads = 4 : si64, onnx_node_name = "/model/layers.25/attn/GroupQueryAttention", rotary_interleaved = 0 : si64, scale = 6.250000e-02 : f32, softcap = 0.000000e+00 : f32} : (tensor<1x128x1024xf32>, tensor<1x128x256xf32>, tensor<1x128x256xf32>, tensor<1x1x1x256xf32>, tensor<1x1x1x256xf32>, tensor<1x1xi32>, tensor<i32>, none, none) -> (tensor<1x128x1024xf32>, tensor<1x1x128x256xf32>, tensor<1x1x128x256xf32>)
    %y_300, %y_scale_301, %y_zero_point_302 = "onnx.DynamicQuantizeLinear"(%1768#0) {onnx_node_name = "/model/layers.25/attn/GroupQueryAttention/output_0_QuantizeLinear"} : (tensor<1x128x1024xf32>) -> (tensor<1x128x1024xui8>, tensor<f32>, tensor<ui8>)
    %1769 = "onnx.MatMulInteger"(%y_300, %708, %y_zero_point_302, %707) {onnx_node_name = "/model/layers.25/attn/o_proj/MatMul_quant"} : (tensor<1x128x1024xui8>, tensor<1024x1152xi8>, tensor<ui8>, tensor<i8>) -> tensor<1x128x1152xi32>
    %1770 = "onnx.Cast"(%1769) {onnx_node_name = "/model/layers.25/attn/o_proj/MatMul/output_0_output_quantized_cast", saturate = 1 : si64, to = f32} : (tensor<1x128x1152xi32>) -> tensor<1x128x1152xf32>
    %1771 = "onnx.Mul"(%y_scale_301, %706) {onnx_node_name = "/model/layers.25/attn/o_proj/MatMul_quant_scales_mul"} : (tensor<f32>, tensor<f32>) -> tensor<f32>
    %1772 = "onnx.Mul"(%1770, %1771) {onnx_node_name = "/model/layers.25/attn/o_proj/MatMul_quant_output_scale_mul"} : (tensor<1x128x1152xf32>, tensor<f32>) -> tensor<1x128x1152xf32>
    %1773 = "onnx.Custom"(%1772, %165) {axis = -1 : si64, domain_name = "", epsilon = 9.99999997E-7 : f32, function_name = "SimplifiedLayerNormalization", onnx_node_name = "/model/layers.25/post_attention_layernorm/LayerNorm", stash_type = 1 : si64} : (tensor<1x128x1152xf32>, tensor<1152xf32>) -> tensor<1x128x1152xf32>
    %1774:4 = "onnx.Custom"(%1749#3, %1773, %166) {domain_name = "com.microsoft", epsilon = 9.99999997E-7 : f32, function_name = "SkipSimplifiedLayerNormalization", onnx_node_name = "/model/layers.25/pre_feedforward_layernorm/SkipLayerNorm"} : (tensor<1x128x1152xf32>, tensor<1x128x1152xf32>, tensor<1152xf32>) -> (tensor<1x128x1152xf32>, none, none, tensor<1x128x1152xf32>)
    %y_303, %y_scale_304, %y_zero_point_305 = "onnx.DynamicQuantizeLinear"(%1774#0) {onnx_node_name = "/model/layers.25/pre_feedforward_layernorm/output_0_QuantizeLinear"} : (tensor<1x128x1152xf32>) -> (tensor<1x128x1152xui8>, tensor<f32>, tensor<ui8>)
    %1775 = "onnx.MatMulInteger"(%y_303, %711, %y_zero_point_305, %710) {onnx_node_name = "/model/layers.25/mlp/gate_proj/MatMul_quant"} : (tensor<1x128x1152xui8>, tensor<1152x6912xi8>, tensor<ui8>, tensor<i8>) -> tensor<1x128x6912xi32>
    %1776 = "onnx.Cast"(%1775) {onnx_node_name = "/model/layers.25/mlp/gate_proj/MatMul/output_0_output_quantized_cast", saturate = 1 : si64, to = f32} : (tensor<1x128x6912xi32>) -> tensor<1x128x6912xf32>
    %1777 = "onnx.Mul"(%y_scale_304, %709) {onnx_node_name = "/model/layers.25/mlp/gate_proj/MatMul_quant_scales_mul"} : (tensor<f32>, tensor<f32>) -> tensor<f32>
    %1778 = "onnx.Mul"(%1776, %1777) {onnx_node_name = "/model/layers.25/mlp/gate_proj/MatMul_quant_output_scale_mul"} : (tensor<1x128x6912xf32>, tensor<f32>) -> tensor<1x128x6912xf32>
    %1779 = "onnx.MatMulInteger"(%y_303, %714, %y_zero_point_305, %713) {onnx_node_name = "/model/layers.25/mlp/up_proj/MatMul_quant"} : (tensor<1x128x1152xui8>, tensor<1152x6912xi8>, tensor<ui8>, tensor<i8>) -> tensor<1x128x6912xi32>
    %1780 = "onnx.Cast"(%1779) {onnx_node_name = "/model/layers.25/mlp/up_proj/MatMul/output_0_output_quantized_cast", saturate = 1 : si64, to = f32} : (tensor<1x128x6912xi32>) -> tensor<1x128x6912xf32>
    %1781 = "onnx.Mul"(%y_scale_304, %712) {onnx_node_name = "/model/layers.25/mlp/up_proj/MatMul_quant_scales_mul"} : (tensor<f32>, tensor<f32>) -> tensor<f32>
    %1782 = "onnx.Mul"(%1780, %1781) {onnx_node_name = "/model/layers.25/mlp/up_proj/MatMul_quant_output_scale_mul"} : (tensor<1x128x6912xf32>, tensor<f32>) -> tensor<1x128x6912xf32>
    %1783 = "onnx.Custom"(%1778) {domain_name = "com.microsoft", function_name = "FastGelu", onnx_node_name = "/model/layers.25/mlp/act_fn/FastGelu"} : (tensor<1x128x6912xf32>) -> tensor<1x128x6912xf32>
    %1784 = "onnx.Mul"(%1783, %1782) {onnx_node_name = "/model/layers.25/mlp/Mul"} : (tensor<1x128x6912xf32>, tensor<1x128x6912xf32>) -> tensor<1x128x6912xf32>
    %y_306, %y_scale_307, %y_zero_point_308 = "onnx.DynamicQuantizeLinear"(%1784) {onnx_node_name = "/model/layers.25/mlp/Mul/output_0_QuantizeLinear"} : (tensor<1x128x6912xf32>) -> (tensor<1x128x6912xui8>, tensor<f32>, tensor<ui8>)
    %1785 = "onnx.MatMulInteger"(%y_306, %717, %y_zero_point_308, %716) {onnx_node_name = "/model/layers.25/mlp/down_proj/MatMul_quant"} : (tensor<1x128x6912xui8>, tensor<6912x1152xi8>, tensor<ui8>, tensor<i8>) -> tensor<1x128x1152xi32>
    %1786 = "onnx.Cast"(%1785) {onnx_node_name = "/model/layers.25/mlp/down_proj/MatMul/output_0_output_quantized_cast", saturate = 1 : si64, to = f32} : (tensor<1x128x1152xi32>) -> tensor<1x128x1152xf32>
    %1787 = "onnx.Mul"(%y_scale_307, %715) {onnx_node_name = "/model/layers.25/mlp/down_proj/MatMul_quant_scales_mul"} : (tensor<f32>, tensor<f32>) -> tensor<f32>
    %1788 = "onnx.Mul"(%1786, %1787) {onnx_node_name = "/model/layers.25/mlp/down_proj/MatMul_quant_output_scale_mul"} : (tensor<1x128x1152xf32>, tensor<f32>) -> tensor<1x128x1152xf32>
    %1789 = "onnx.Custom"(%1788, %167) {axis = -1 : si64, domain_name = "", epsilon = 9.99999997E-7 : f32, function_name = "SimplifiedLayerNormalization", onnx_node_name = "/model/layers.25/post_feedforward_layernorm/LayerNorm", stash_type = 1 : si64} : (tensor<1x128x1152xf32>, tensor<1152xf32>) -> tensor<1x128x1152xf32>
    %1790 = "onnx.Custom"(%1774#3, %1789, %168) {domain_name = "com.microsoft", epsilon = 9.99999997E-7 : f32, function_name = "SkipSimplifiedLayerNormalization", onnx_node_name = "/model/layers.26/final_norm_layernorm/SkipLayerNorm"} : (tensor<1x128x1152xf32>, tensor<1x128x1152xf32>, tensor<1152xf32>) -> tensor<1x128x1152xf32>
    %1791 = "onnx.DequantizeLinear"(%2, %169, %170) {axis = 1 : si64, onnx_node_name = "model.embed_tokens.weight_transposed_DequantizeLinear"} : (tensor<1152x262144xui8>, tensor<f32>, tensor<ui8>) -> tensor<1152x262144xf32>
    %1792 = "onnx.MatMul"(%1790, %1791) {onnx_node_name = "/lm_head/MatMul"} : (tensor<1x128x1152xf32>, tensor<1152x262144xf32>) -> tensor<1x128x262144xf32>
    return %1792, %743#1, %743#2, %784#1, %784#2, %825#1, %825#2, %866#1, %866#2, %907#1, %907#2, %948#1, %948#2, %989#1, %989#2, %1030#1, %1030#2, %1071#1, %1071#2, %1112#1, %1112#2, %1153#1, %1153#2, %1194#1, %1194#2, %1235#1, %1235#2, %1276#1, %1276#2, %1317#1, %1317#2, %1358#1, %1358#2, %1399#1, %1399#2, %1440#1, %1440#2, %1481#1, %1481#2, %1522#1, %1522#2, %1563#1, %1563#2, %1604#1, %1604#2, %1645#1, %1645#2, %1686#1, %1686#2, %1727#1, %1727#2, %1768#1, %1768#2 : tensor<1x128x262144xf32>, tensor<1x1x128x256xf32>, tensor<1x1x128x256xf32>, tensor<1x1x128x256xf32>, tensor<1x1x128x256xf32>, tensor<1x1x128x256xf32>, tensor<1x1x128x256xf32>, tensor<1x1x128x256xf32>, tensor<1x1x128x256xf32>, tensor<1x1x128x256xf32>, tensor<1x1x128x256xf32>, tensor<1x1x128x256xf32>, tensor<1x1x128x256xf32>, tensor<1x1x128x256xf32>, tensor<1x1x128x256xf32>, tensor<1x1x128x256xf32>, tensor<1x1x128x256xf32>, tensor<1x1x128x256xf32>, tensor<1x1x128x256xf32>, tensor<1x1x128x256xf32>, tensor<1x1x128x256xf32>, tensor<1x1x128x256xf32>, tensor<1x1x128x256xf32>, tensor<1x1x128x256xf32>, tensor<1x1x128x256xf32>, tensor<1x1x128x256xf32>, tensor<1x1x128x256xf32>, tensor<1x1x128x256xf32>, tensor<1x1x128x256xf32>, tensor<1x1x128x256xf32>, tensor<1x1x128x256xf32>, tensor<1x1x128x256xf32>, tensor<1x1x128x256xf32>, tensor<1x1x128x256xf32>, tensor<1x1x128x256xf32>, tensor<1x1x128x256xf32>, tensor<1x1x128x256xf32>, tensor<1x1x128x256xf32>, tensor<1x1x128x256xf32>, tensor<1x1x128x256xf32>, tensor<1x1x128x256xf32>, tensor<1x1x128x256xf32>, tensor<1x1x128x256xf32>, tensor<1x1x128x256xf32>, tensor<1x1x128x256xf32>, tensor<1x1x128x256xf32>, tensor<1x1x128x256xf32>, tensor<1x1x128x256xf32>, tensor<1x1x128x256xf32>, tensor<1x1x128x256xf32>, tensor<1x1x128x256xf32>, tensor<1x1x128x256xf32>, tensor<1x1x128x256xf32>
  }
  "onnx.EntryPoint"() {func = @main_graph} : () -> ()
}
