"builtin.module"() ({
  "func.func"() <{arg_attrs = [{onnx.name = "input_ids"}, {onnx.name = "attention_mask"}, {onnx.name = "position_ids"}, {onnx.name = "past_key_values.0.key"}, {onnx.name = "past_key_values.0.value"}, {onnx.name = "past_key_values.1.key"}, {onnx.name = "past_key_values.1.value"}, {onnx.name = "past_key_values.2.key"}, {onnx.name = "past_key_values.2.value"}, {onnx.name = "past_key_values.3.key"}, {onnx.name = "past_key_values.3.value"}, {onnx.name = "past_key_values.4.key"}, {onnx.name = "past_key_values.4.value"}, {onnx.name = "past_key_values.5.key"}, {onnx.name = "past_key_values.5.value"}, {onnx.name = "past_key_values.6.key"}, {onnx.name = "past_key_values.6.value"}, {onnx.name = "past_key_values.7.key"}, {onnx.name = "past_key_values.7.value"}, {onnx.name = "past_key_values.8.key"}, {onnx.name = "past_key_values.8.value"}, {onnx.name = "past_key_values.9.key"}, {onnx.name = "past_key_values.9.value"}, {onnx.name = "past_key_values.10.key"}, {onnx.name = "past_key_values.10.value"}, {onnx.name = "past_key_values.11.key"}, {onnx.name = "past_key_values.11.value"}, {onnx.name = "past_key_values.12.key"}, {onnx.name = "past_key_values.12.value"}, {onnx.name = "past_key_values.13.key"}, {onnx.name = "past_key_values.13.value"}, {onnx.name = "past_key_values.14.key"}, {onnx.name = "past_key_values.14.value"}, {onnx.name = "past_key_values.15.key"}, {onnx.name = "past_key_values.15.value"}], function_type = (tensor<1x128xi64>, tensor<1x128xi64>, tensor<1x8x128x64xf32>, tensor<1...
  ^bb0(%arg0: tensor<1x128xi64>, %arg1: tensor<1x128xi64>, %arg2: tensor<1x8x128x64xf32>, %arg3: tensor<1x128x2048xf32>, %arg4: tensor<1xi64>, %arg5: tensor<1xi64>, %arg6: tensor<1xi64>, %arg7: tensor<1xi64>, %arg8: tensor<1xi64>, %arg9: tensor<1xi64>, %arg10: tensor<1xi64>, %arg11: tensor<1xi64>, %arg12: tensor<1xi64>, %arg13: tensor<1xi64>, %arg14: tensor<1xi64>, %arg15: tensor<1xi64>, %arg16: tensor<1xi64>, %arg17: tensor<1xi64>, %arg18: tensor<1xi64>, %arg19: tensor<1xi64>, %arg20: tensor<1xi64>, %arg21: tensor<1xi64>, %arg22: tensor<1xi64>, %arg23: tensor<1xi64>, %arg24: tensor<1xi64>, %arg25: tensor<1xi64>, %arg26: tensor<1xi64>, %arg27: tensor<1xi64>, %arg28: tensor<1xi64>, %arg29: tensor<1xi64>, %arg30: tensor<1xi64>, %arg31: tensor<1xi64>, %arg32: tensor<1xi64>, %arg33: tensor<1xi64>, %arg34: tensor<1xi64>):
    %0 = "onnx.Constant"() {value = #onnx.dense_disposable<1:"0x0100000000000000"> : tensor<1xi64>} : () -> tensor<1xi64>
    %1 = "onnx.Constant"() {value = #onnx.dense_disposable<2:"0x0100000000000000"> : tensor<1xi64>} : () -> tensor<1xi64>
    %2 = "onnx.Constant"() {value = #onnx.dense_disposable<3:"0x0200000000000000"> : tensor<i64>} : () -> tensor<i64>
    %3 = "onnx.Constant"() {value = #onnx.dense_disposable<4:"0x0100000000000000"> : tensor<i64>} : () -> tensor<i64>
    %4 = "onnx.Constant"() {value = #onnx.dense_disposable<5:"0x0000000000000000"> : tensor<i64>} : () -> tensor<i64>
    %5 = "onnx.Constant"() {value = #onnx.dense_disposable<6:"0x0200000000000000"> : tensor<1xi64>} : () -> tensor<1xi64>
    %6 = "onnx.Constant"() {value = #onnx.dense_disposable<7:"0x00000040"> : tensor<f32>} : () -> tensor<f32>
    %7 = "onnx.Constant"() {value = #onnx.dense_disposable<8:"0x0100000000000000"> : tensor<i64>} : () -> tensor<i64>
    %8 = "onnx.Constant"() {value = #onnx.dense_disposable<9:"0x0000000000000000"> : tensor<1xi64>} : () -> tensor<1xi64>
    %9 = "onnx.Constant"() {value = #onnx.dense_disposable<10:"0x0000000000000000"> : tensor<i64>} : () -> tensor<i64>
    %10 = "onnx.Constant"() {value = #onnx.dense_disposable<11:"0x0000000000000000"> : tensor<1xi64>} : () -> tensor<1xi64>
    %11 = "onnx.Constant"() {value = #onnx.dense_disposable<12:"0x0000000000000000"> : tensor<i64>} : () -> tensor<i64>
    %12 = "onnx.Constant"() {value = #onnx.dense_disposable<13:"0x0100000000000000"> : tensor<i64>} : () -> tensor<i64>
    %13 = "onnx.Constant"() {value = #onnx.dense_disposable<14:"0x0000000000000000"> : tensor<1xi64>} : () -> tensor<1xi64>
    %14 = "onnx.Constant"() {value = #onnx.dense_disposable<15:"0x0000000000000000"> : tensor<1xi64>} : () -> tensor<1xi64>
    %15 = "onnx.Constant"() {value = #onnx.dense_disposable<16:"0xFFFFFFFFFFFFFFFF"> : tensor<1xi64>} : () -> tensor<1xi64>
    %16 = "onnx.Constant"() {value = #onnx.dense_disposable<17:"0x0100000000000000"> : tensor<1xi64>} : () -> tensor<1xi64>
    %17 = "onnx.Constant"() {value = #onnx.dense_disposable<18:"0xACC52737"> : tensor<f32>} : () -> tensor<f32>
    %18 = "onnx.Constant"() {value = #onnx.dense_disposable<19:"0x0100000000000000"> : tensor<1xi64>} : () -> tensor<1xi64>
    %19 = "onnx.Constant"() {value = #onnx.dense_disposable<20:"0xFFFFFFFFFFFFFFFF"> : tensor<1xi64>} : () -> tensor<1xi64>
    %20 = "onnx.Constant"() {value = #onnx.dense_disposable<21:"0xFFFFFFFFFFFFFFFF"> : tensor<1xi64>} : () -> tensor<1xi64>
    %21 = "onnx.Constant"() {value = #onnx.dense_disposable<22:"0x0100000000000000"> : tensor<i64>} : () -> tensor<i64>
    %22 = "onnx.Constant"() {value = #onnx.dense_disposable<23:"0xFFFFFFFFFFFFFFFFFFFFFFFFFFFFFFFFFFFFFFFFFFFFFFFF"> : tensor<3xi64>} : () -> tensor<3xi64>
    %23 = "onnx.Constant"() {value = #onnx.dense_disposable<24:"0xFFFFFFFFFFFFFFFF0100000000000000"> : tensor<2xi64>} : () -> tensor<2xi64>
    %24 = "onnx.Constant"() {value = #onnx.dense_disposable<25:"0x0000803F"> : tensor<f32>} : () -> tensor<f32>
    %25 = "onnx.Constant"() {value = #onnx.dense_disposable<26:"…"> : tensor<4xi64>} : () -> tensor<4xi64>
    %26 = "onnx.Constant"() {value = #onnx.dense_disposable<27:"0x010000000000000001000000000000000100000000000000"> : tensor<3xi64>} : () -> tensor<3xi64>
    %27 = "onnx.Constant"() {value = #onnx.dense_disposable<28:"0x0100000000000000"> : tensor<i64>} : () -> tensor<i64>
    %28 = "onnx.Constant"() {value = #onnx.dense_disposable<29:"…"> : tensor<4xi64>} : () -> tensor<4xi64>
    %29 = "onnx.Constant"() {value = #onnx.dense_disposable<30:"…"> : tensor<1x32x1xf32>} : () -> tensor<1x32x1xf32>
    %30 = "onnx.Constant"() {value = #onnx.dense_disposable<31:"…...
    %31 = "onnx.Constant"() {value = #onnx.dense_disposable<32:"0x0000000000000000"> : tensor<1xi64>} : () -> tensor<1xi64>
    %32 = "onnx.Constant"() {value = #onnx.dense_disposable<33:"0x0000000000000000"> : tensor<i64>} : () -> tensor<i64>
    %33 = "onnx.Constant"() {value = #onnx.dense_disposable<34:"0x0100000000000000"> : tensor<i64>} : () -> tensor<i64>
    %34 = "onnx.Constant"() {value = #onnx.dense_disposable<35:"0x0100000000000000"> : tensor<1xi64>} : () -> tensor<1xi64>
    %35 = "onnx.Constant"() {value = #onnx.dense_disposable<36:"0x0000000000000000"> : tensor<1xi64>} : () -> tensor<1xi64>
    %36 = "onnx.Constant"() {value = #onnx.dense_disposable<37:"0x0000000000000000"> : tensor<1xi64>} : () -> tensor<1xi64>
    %37 = "onnx.Constant"() {value = #onnx.dense_disposable<38:"0x2000000000000000"> : tensor<1xi64>} : () -> tensor<1xi64>
    %38 = "onnx.Constant"() {value = #onnx.dense_disposable<39:"0x4000000000000000"> : tensor<1xi64>} : () -> tensor<1xi64>
    %39 = "onnx.Constant"() {value = #onnx.dense_disposable<40:"0x0800000000000000"> : tensor<1xi64>} : () -> tensor<1xi64>
    %40 = "onnx.Constant"() {value = #onnx.dense_disposable<41:"0x4000000000000000"> : tensor<1xi64>} : () -> tensor<1xi64>
    %41 = "onnx.Constant"() {value = #onnx.dense_disposable<42:"0xFFFFFFFFFFFFFFFF"> : tensor<1xi64>} : () -> tensor<1xi64>
    %42 = "onnx.Constant"() {value = #onnx.dense_disposable<43:"0x0100000000000000"> : tensor<1xi64>} : () -> tensor<1xi64>
    %43 = "onnx.Constant"() {value = #onnx.dense_disposable<44:"0x0100000000000000"> : tensor<1xi64>} : () -> tensor<1xi64>
    %44 = "onnx.Constant"() {value = #onnx.dense_disposable<45:"0x0000000000000000"> : tensor<1xi64>} : () -> tensor<1xi64>
    %45 = "onnx.Constant"() {value = #onnx.dense_disposable<46:"0x0300000000000000"> : tensor<1xi64>} : () -> tensor<1xi64>
    %46 = "onnx.Constant"() {value = #onnx.dense_disposable<47:"0x0100000000000000"> : tensor<1xi64>} : () -> tensor<1xi64>
    %47 = "onnx.Constant"() {value = #onnx.dense_disposable<48:"0x0000000000000000"> : tensor<i64>} : () -> tensor<i64>
    %48 = "onnx.Constant"() {value = #onnx.dense_disposable<49:"0x0200000000000000"> : tensor<i64>} : () -> tensor<i64>
    %49 = "onnx.Constant"() {value = #onnx.dense_disposable<50:"0x0300000000000000"> : tensor<i64>} : () -> tensor<i64>
    %50 = "onnx.Constant"() {value = #onnx.dense_disposable<51:"0x00000000"> : tensor<f32>} : () -> tensor<f32>
    %51 = "onnx.Constant"() {value = #onnx.dense_disposable<52:"0x0000000000000000"> : tensor<i64>} : () -> tensor<i64>
    %52 = "onnx.Constant"() {value = #onnx.dense_disposable<53:"0x0100000000000000"> : tensor<i64>} : () -> tensor<i64>
    %53 = "onnx.Constant"() {value = #onnx.dense_disposable<54:"0x0000000000000000"> : tensor<i64>} : () -> tensor<i64>
    %54 = "onnx.Constant"() {value = #onnx.dense_disposable<55:"0x0100000000000000"> : tensor<i64>} : () -> tensor<i64>
    %55 = "onnx.Constant"() {value = #onnx.dense_disposable<56:"0x0000000000000000"> : tensor<i64>} : () -> tensor<i64>
    %56 = "onnx.Constant"() {value = #onnx.dense_disposable<57:"0x0100000000000000"> : tensor<i64>} : () -> tensor<i64>
    %57 = "onnx.Constant"() {value = #onnx.dense_disposable<58:"0x0000000000000000"> : tensor<1xi64>} : () -> tensor<1xi64>
    %58 = "onnx.Constant"() {value = #onnx.dense_disposable<59:"0x2000000000000000"> : tensor<1xi64>} : () -> tensor<1xi64>
    %59 = "onnx.Constant"() {value = #onnx.dense_disposable<60:"0x0300000000000000"> : tensor<1xi64>} : () -> tensor<1xi64>
    %60 = "onnx.Constant"() {value = #onnx.dense_disposable<61:"0x0100000000000000"> : tensor<1xi64>} : () -> tensor<1xi64>
    %61 = "onnx.Constant"() {value = #onnx.dense_disposable<62:"0x2000000000000000"> : tensor<1xi64>} : () -> tensor<1xi64>
    %62 = "onnx.Constant"() {value = #onnx.dense_disposable<63:"0xFFFFFFFFFFFFFF7F"> : tensor<1xi64>} : () -> tensor<1xi64>
    %63 = "onnx.Constant"() {value = #onnx.dense_disposable<64:"0x0300000000000000"> : tensor<1xi64>} : () -> tensor<1xi64>
    %64 = "onnx.Constant"() {value = #onnx.dense_disposable<65:"0x0100000000000000"> : tensor<1xi64>} : () -> tensor<1xi64>
    %65 = "onnx.Constant"() {value = #onnx.dense_disposable<66:"0x0000000000000000"> : tensor<1xi64>} : () -> tensor<1xi64>
    %66 = "onnx.Constant"() {value = #onnx.dense_disposable<67:"0x2000000000000000"> : tensor<1xi64>} : () -> tensor<1xi64>
    %67 = "onnx.Constant"() {value = #onnx.dense_disposable<68:"0x0300000000000000"> : tensor<1xi64>} : () -> tensor<1xi64>
    %68 = "onnx.Constant"() {value = #onnx.dense_disposable<69:"0x0100000000000000"> : tensor<1xi64>} : () -> tensor<1xi64>
    %69 = "onnx.Constant"() {value = #onnx.dense_disposable<70:"0x2000000000000000"> : tensor<1xi64>} : () -> tensor<1xi64>
    %70 = "onnx.Constant"() {value = #onnx.dense_disposable<71:"0xFFFFFFFFFFFFFF7F"> : tensor<1xi64>} : () -> tensor<1xi64>
    %71 = "onnx.Constant"() {value = #onnx.dense_disposable<72:"0x0300000000000000"> : tensor<1xi64>} : () -> tensor<1xi64>
    %72 = "onnx.Constant"() {value = #onnx.dense_disposable<73:"0x0100000000000000"> : tensor<1xi64>} : () -> tensor<1xi64>
    %73 = "onnx.Constant"() {value = #onnx.dense_disposable<74:"0xFFFF7FFF"> : tensor<f32>} : () -> tensor<f32>
    %74 = "onnx.Constant"() {value = #onnx.dense_disposable<75:"0x0000000000000000"> : tensor<1xi64>} : () -> tensor<1xi64>
    %75 = "onnx.Constant"() {value = #onnx.dense_disposable<76:"0x0000000000000000"> : tensor<1xi64>} : () -> tensor<1xi64>
    %76 = "onnx.Constant"() {value = #onnx.dense_disposable<77:"0x0100000000000000"> : tensor<1xi64>} : () -> tensor<1xi64>
    %77 = "onnx.Constant"() {value = #onnx.dense_disposable<78:"…"> : tensor<4xi64>} : () -> tensor<4xi64>
    %78 = "onnx.Constant"() {value = #onnx.dense_disposable<79:"0xFFFFFFFFFFFFFFFF0100000000000000"> : tensor<2xi64>} : () -> tensor<2xi64>
    %79 = "onnx.Constant"() {value = #onnx.dense_disposable<80:"0x0200000000000000"> : tensor<1xi64>} : () -> tensor<1xi64>
    %80 = "onnx.Constant"() {value = #onnx.dense_disposable<81:"0x0000000000000000"> : tensor<1x1x1xi64>} : () -> tensor<1x1x1xi64>
    %81 = "onnx.Constant"() {value = #onnx.dense_disposable<82:"0x0000000000000000"> : tensor<i64>} : () -> tensor<i64>
    %82 = "onnx.Constant"() {value = #onnx.dense_disposable<83:"0x0200000000000000"> : tensor<i64>} : () -> tensor<i64>
    %83 = "onnx.Constant"() {value = #onnx.dense_disposable<84:"0x0000000000000000"> : tensor<1xi64>} : () -> tensor<1xi64>
    %84 = "onnx.Constant"() {value = #onnx.dense_disposable<85:"0x0000000000000000"> : tensor<1xi64>} : () -> tensor<1xi64>
    %85 = "onnx.Constant"() {value = #onnx.dense_disposable<86:"0x0800000000000000"> : tensor<1xi64>} : () -> tensor<1xi64>
    %86 = "onnx.Constant"() {value = #onnx.dense_disposable<87:"0x0400000000000000"> : tensor<1xi64>} : () -> tensor<1xi64>
    %87 = "onnx.Constant"() {value = #onnx.dense_disposable<88:"0x4000000000000000"> : tensor<1xi64>} : () -> tensor<1xi64>
    %88 = "onnx.Constant"() {value = #onnx.dense_disposable<89:"0x2000000000000000"> : tensor<1xi64>} : () -> tensor<1xi64>
    %89 = "onnx.Constant"() {value = #onnx.dense_disposable<90:"0x4000000000000000"> : tensor<1xi64>} : () -> tensor<1xi64>
    %90 = "onnx.Constant"() {value = #onnx.dense_disposable<91:"0xF304B53E"> : tensor<1xf32>} : () -> tensor<1xf32>
    %91 = "onnx.Constant"() {value = #onnx.dense_disposable<92:"…"> : tensor<5xi64>} : () -> tensor<5xi64>
    %92 = "onnx.Constant"() {value = #onnx.dense_disposable<93:"…"> : tensor<4xi64>} : () -> tensor<4xi64>
    %93 = "onnx.Constant"() {value = #onnx.dense_disposable<94:"0x0200000000000000"> : tensor<1xi64>} : () -> tensor<1xi64>
    %94 = "onnx.Constant"() {value = #onnx.dense_disposable<95:"…"> : tensor<5xi64>} : () -> tensor<5xi64>
    %95 = "onnx.Constant"() {value = #onnx.dense_disposable<96:"…"> : tensor<4xi64>} : () -> tensor<4xi64>
    %96 = "onnx.Constant"() {value = #onnx.dense_disposable<97:"0x0000000000000000"> : tensor<i64>} : () -> tensor<i64>
    %97 = "onnx.Constant"() {value = #onnx.dense_disposable<98:"0x0200000000000000"> : tensor<i64>} : () -> tensor<i64>
    %98 = "onnx.Constant"() {value = #onnx.dense_disposable<99:"0x0000000000000000"> : tensor<1xi64>} : () -> tensor<1xi64>
    %99 = "onnx.Constant"() {value = #onnx.dense_disposable<100:"0x0000000000000000"> : tensor<1xi64>} : () -> tensor<1xi64>
    %100 = "onnx.Constant"() {value = #onnx.dense_disposable<101:"0xFFFFFFFFFFFFFFFF"> : tensor<1xi64>} : () -> tensor<1xi64>
    %101 = "onnx.Constant"() {value = #onnx.dense_disposable<102:"0xFFFFFFFFFFFFFFFF"> : tensor<1xi64>} : () -> tensor<1xi64>
    %102 = "onnx.Constant"() {value = #onnx.dense_disposable<103:"0xFFFFFFFFFFFFFFFF"> : tensor<1xi64>} : () -> tensor<1xi64>
    %103 = "onnx.Constant"() {value = #onnx.dense_disposable<104:"0xFFFFFFFFFFFFFFFF"> : tensor<1xi64>} : () -> tensor<1xi64>
    %104 = "onnx.Constant"() {value = #onnx.dense_disposable<105:"0x0800000000000000"> : tensor<1xi64>} : () -> tensor<1xi64>
    %105 = "onnx.Constant"() {value = #onnx.dense_disposable<106:"0x0400000000000000"> : tensor<1xi64>} : () -> tensor<1xi64>
    %106 = "onnx.Constant"() {value = #onnx.dense_disposable<107:"0x4000000000000000"> : tensor<1xi64>} : () -> tensor<1xi64>
    %107 = "onnx.Constant"() {value = #onnx.dense_disposable<108:"0x2000000000000000"> : tensor<1xi64>} : () -> tensor<1xi64>
    %108 = "onnx.Constant"() {value = #onnx.dense_disposable<109:"0x4000000000000000"> : tensor<1xi64>} : () -> tensor<1xi64>
    %109 = "onnx.Constant"() {value = #onnx.dense_disposable<110:"…"> : tensor<5xi64>} : () -> tensor<5xi64>
    %110 = "onnx.Constant"() {value = #onnx.dense_disposable<111:"…"> : tensor<5xi64>} : () -> tensor<5xi64>
    %111 = "onnx.Constant"() {value = #onnx.dense_disposable<112:"0x0200000000000000"> : tensor<i64>} : () -> tensor<i64>
    %112 = "onnx.Constant"() {value = #onnx.dense_disposable<113:"0xF304B53E"> : tensor<1xf32>} : () -> tensor<1xf32>
    %113 = "onnx.Constant"() {value = #onnx.dense_disposable<114:"0x0000000000000000"> : tensor<1xi64>} : () -> tensor<1xi64>
    %114 = "onnx.Constant"() {value = #onnx.dense_disposable<115:"0x0000000000000000"> : tensor<1xi64>} : () -> tensor<1xi64>
    %115 = "onnx.Constant"() {value = #onnx.dense_disposable<116:"0x0300000000000000"> : tensor<1xi64>} : () -> tensor<1xi64>
    %116 = "onnx.Constant"() {value = #onnx.dense_disposable<117:"0x0100000000000000"> : tensor<1xi64>} : () -> tensor<1xi64>
    %117 = "onnx.Constant"() {value = #onnx.dense_disposable<118:"0x00000040"> : tensor<f32>} : () -> tensor<f32>
    %118 = "onnx.Constant"() {value = #onnx.dense_disposable<119:"0xACC52737"> : tensor<f32>} : () -> tensor<f32>
    %119 = "onnx.Constant"() {value = #onnx.dense_disposable<120:"0x0000803F"> : tensor<f32>} : () -> tensor<f32>
    %120 = "onnx.Constant"() {value = #onnx.dense_disposable<121:"…...
    %121 = "onnx.Constant"() {value = #onnx.dense_disposable<122:"0x00000040"> : tensor<f32>} : () -> tensor<f32>
    %122 = "onnx.Constant"() {value = #onnx.dense_disposable<123:"0xACC52737"> : tensor<f32>} : () -> tensor<f32>
    %123 = "onnx.Constant"() {value = #onnx.dense_disposable<124:"0x0000803F"> : tensor<f32>} : () -> tensor<f32>
    %124 = "onnx.Constant"() {value = #onnx.dense_disposable<125:"…...
    %125 = "onnx.Constant"() {value = #onnx.dense_disposable<126:"0x0000000000000000"> : tensor<i64>} : () -> tensor<i64>
    %126 = "onnx.Constant"() {value = #onnx.dense_disposable<127:"0x0100000000000000"> : tensor<i64>} : () -> tensor<i64>
    %127 = "onnx.Constant"() {value = #onnx.dense_disposable<128:"0x0000000000000000"> : tensor<1xi64>} : () -> tensor<1xi64>
    %128 = "onnx.Constant"() {value = #onnx.dense_disposable<129:"0x0000000000000000"> : tensor<1xi64>} : () -> tensor<1xi64>
    %129 = "onnx.Constant"() {value = #onnx.dense_disposable<130:"0x2000000000000000"> : tensor<1xi64>} : () -> tensor<1xi64>
    %130 = "onnx.Constant"() {value = #onnx.dense_disposable<131:"0x4000000000000000"> : tensor<1xi64>} : () -> tensor<1xi64>
    %131 = "onnx.Constant"() {value = #onnx.dense_disposable<132:"0x0800000000000000"> : tensor<1xi64>} : () -> tensor<1xi64>
    %132 = "onnx.Constant"() {value = #onnx.dense_disposable<133:"0x4000000000000000"> : tensor<1xi64>} : () -> tensor<1xi64>
    %133 = "onnx.Constant"() {value = #onnx.dense_disposable<134:"0xFFFFFFFFFFFFFFFF"> : tensor<1xi64>} : () -> tensor<1xi64>
    %134 = "onnx.Constant"() {value = #onnx.dense_disposable<135:"0x0000000000000000"> : tensor<1xi64>} : () -> tensor<1xi64>
    %135 = "onnx.Constant"() {value = #onnx.dense_disposable<136:"0x2000000000000000"> : tensor<1xi64>} : () -> tensor<1xi64>
    %136 = "onnx.Constant"() {value = #onnx.dense_disposable<137:"0x0300000000000000"> : tensor<1xi64>} : () -> tensor<1xi64>
    %137 = "onnx.Constant"() {value = #onnx.dense_disposable<138:"0x0100000000000000"> : tensor<1xi64>} : () -> tensor<1xi64>
    %138 = "onnx.Constant"() {value = #onnx.dense_disposable<139:"0x2000000000000000"> : tensor<1xi64>} : () -> tensor<1xi64>
    %139 = "onnx.Constant"() {value = #onnx.dense_disposable<140:"0xFFFFFFFFFFFFFF7F"> : tensor<1xi64>} : () -> tensor<1xi64>
    %140 = "onnx.Constant"() {value = #onnx.dense_disposable<141:"0x0300000000000000"> : tensor<1xi64>} : () -> tensor<1xi64>
    %141 = "onnx.Constant"() {value = #onnx.dense_disposable<142:"0x0100000000000000"> : tensor<1xi64>} : () -> tensor<1xi64>
    %142 = "onnx.Constant"() {value = #onnx.dense_disposable<143:"0x0000000000000000"> : tensor<1xi64>} : () -> tensor<1xi64>
    %143 = "onnx.Constant"() {value = #onnx.dense_disposable<144:"0x2000000000000000"> : tensor<1xi64>} : () -> tensor<1xi64>
    %144 = "onnx.Constant"() {value = #onnx.dense_disposable<145:"0x0300000000000000"> : tensor<1xi64>} : () -> tensor<1xi64>
    %145 = "onnx.Constant"() {value = #onnx.dense_disposable<146:"0x0100000000000000"> : tensor<1xi64>} : () -> tensor<1xi64>
    %146 = "onnx.Constant"() {value = #onnx.dense_disposable<147:"0x2000000000000000"> : tensor<1xi64>} : () -> tensor<1xi64>
    %147 = "onnx.Constant"() {value = #onnx.dense_disposable<148:"0xFFFFFFFFFFFFFF7F"> : tensor<1xi64>} : () -> tensor<1xi64>
    %148 = "onnx.Constant"() {value = #onnx.dense_disposable<149:"0x0300000000000000"> : tensor<1xi64>} : () -> tensor<1xi64>
    %149 = "onnx.Constant"() {value = #onnx.dense_disposable<150:"0x0100000000000000"> : tensor<1xi64>} : () -> tensor<1xi64>
    %150 = "onnx.Constant"() {value = #onnx.dense_disposable<151:"0x0200000000000000"> : tensor<1xi64>} : () -> tensor<1xi64>
    %151 = "onnx.Constant"() {value = #onnx.dense_disposable<152:"0x0000000000000000"> : tensor<i64>} : () -> tensor<i64>
    %152 = "onnx.Constant"() {value = #onnx.dense_disposable<153:"0x0200000000000000"> : tensor<i64>} : () -> tensor<i64>
    %153 = "onnx.Constant"() {value = #onnx.dense_disposable<154:"0x0000000000000000"> : tensor<1xi64>} : () -> tensor<1xi64>
    %154 = "onnx.Constant"() {value = #onnx.dense_disposable<155:"0x0000000000000000"> : tensor<1xi64>} : () -> tensor<1xi64>
    %155 = "onnx.Constant"() {value = #onnx.dense_disposable<156:"0x0800000000000000"> : tensor<1xi64>} : () -> tensor<1xi64>
    %156 = "onnx.Constant"() {value = #onnx.dense_disposable<157:"0x0400000000000000"> : tensor<1xi64>} : () -> tensor<1xi64>
    %157 = "onnx.Constant"() {value = #onnx.dense_disposable<158:"0x4000000000000000"> : tensor<1xi64>} : () -> tensor<1xi64>
    %158 = "onnx.Constant"() {value = #onnx.dense_disposable<159:"0x2000000000000000"> : tensor<1xi64>} : () -> tensor<1xi64>
    %159 = "onnx.Constant"() {value = #onnx.dense_disposable<160:"0x4000000000000000"> : tensor<1xi64>} : () -> tensor<1xi64>
    %160 = "onnx.Constant"() {value = #onnx.dense_disposable<161:"0xF304B53E"> : tensor<1xf32>} : () -> tensor<1xf32>
    %161 = "onnx.Constant"() {value = #onnx.dense_disposable<162:"…"> : tensor<5xi64>} : () -> tensor<5xi64>
    %162 = "onnx.Constant"() {value = #onnx.dense_disposable<163:"0x0200000000000000"> : tensor<1xi64>} : () -> tensor<1xi64>
    %163 = "onnx.Constant"() {value = #onnx.dense_disposable<164:"…"> : tensor<5xi64>} : () -> tensor<5xi64>
    %164 = "onnx.Constant"() {value = #onnx.dense_disposable<165:"0x0000000000000000"> : tensor<i64>} : () -> tensor<i64>
    %165 = "onnx.Constant"() {value = #onnx.dense_disposable<166:"0x0200000000000000"> : tensor<i64>} : () -> tensor<i64>
    %166 = "onnx.Constant"() {value = #onnx.dense_disposable<167:"0x0000000000000000"> : tensor<1xi64>} : () -> tensor<1xi64>
    %167 = "onnx.Constant"() {value = #onnx.dense_disposable<168:"0x0000000000000000"> : tensor<1xi64>} : () -> tensor<1xi64>
    %168 = "onnx.Constant"() {value = #onnx.dense_disposable<169:"0x0800000000000000"> : tensor<1xi64>} : () -> tensor<1xi64>
    %169 = "onnx.Constant"() {value = #onnx.dense_disposable<170:"0x0400000000000000"> : tensor<1xi64>} : () -> tensor<1xi64>
    %170 = "onnx.Constant"() {value = #onnx.dense_disposable<171:"0x4000000000000000"> : tensor<1xi64>} : () -> tensor<1xi64>
    %171 = "onnx.Constant"() {value = #onnx.dense_disposable<172:"0x2000000000000000"> : tensor<1xi64>} : () -> tensor<1xi64>
    %172 = "onnx.Constant"() {value = #onnx.dense_disposable<173:"0x4000000000000000"> : tensor<1xi64>} : () -> tensor<1xi64>
    %173 = "onnx.Constant"() {value = #onnx.dense_disposable<174:"…"> : tensor<5xi64>} : () -> tensor<5xi64>
    %174 = "onnx.Constant"() {value = #onnx.dense_disposable<175:"…"> : tensor<5xi64>} : () -> tensor<5xi64>
    %175 = "onnx.Constant"() {value = #onnx.dense_disposable<176:"0x0200000000000000"> : tensor<i64>} : () -> tensor<i64>
    %176 = "onnx.Constant"() {value = #onnx.dense_disposable<177:"0xF304B53E"> : tensor<1xf32>} : () -> tensor<1xf32>
    %177 = "onnx.Constant"() {value = #onnx.dense_disposable<178:"0x0000000000000000"> : tensor<1xi64>} : () -> tensor<1xi64>
    %178 = "onnx.Constant"() {value = #onnx.dense_disposable<179:"0x0000000000000000"> : tensor<1xi64>} : () -> tensor<1xi64>
    %179 = "onnx.Constant"() {value = #onnx.dense_disposable<180:"0x0300000000000000"> : tensor<1xi64>} : () -> tensor<1xi64>
    %180 = "onnx.Constant"() {value = #onnx.dense_disposable<181:"0x0100000000000000"> : tensor<1xi64>} : () -> tensor<1xi64>
    %181 = "onnx.Constant"() {value = #onnx.dense_disposable<182:"0x00000040"> : tensor<f32>} : () -> tensor<f32>
    %182 = "onnx.Constant"() {value = #onnx.dense_disposable<183:"0xACC52737"> : tensor<f32>} : () -> tensor<f32>
    %183 = "onnx.Constant"() {value = #onnx.dense_disposable<184:"0x0000803F"> : tensor<f32>} : () -> tensor<f32>
    %184 = "onnx.Constant"() {value = #onnx.dense_disposable<185:"…...
    %185 = "onnx.Constant"() {value = #onnx.dense_disposable<186:"0x00000040"> : tensor<f32>} : () -> tensor<f32>
    %186 = "onnx.Constant"() {value = #onnx.dense_disposable<187:"0xACC52737"> : tensor<f32>} : () -> tensor<f32>
    %187 = "onnx.Constant"() {value = #onnx.dense_disposable<188:"0x0000803F"> : tensor<f32>} : () -> tensor<f32>
    %188 = "onnx.Constant"() {value = #onnx.dense_disposable<189:"…...
    %189 = "onnx.Constant"() {value = #onnx.dense_disposable<190:"0x0000000000000000"> : tensor<i64>} : () -> tensor<i64>
    %190 = "onnx.Constant"() {value = #onnx.dense_disposable<191:"0x0100000000000000"> : tensor<i64>} : () -> tensor<i64>
    %191 = "onnx.Constant"() {value = #onnx.dense_disposable<192:"0x0000000000000000"> : tensor<1xi64>} : () -> tensor<1xi64>
    %192 = "onnx.Constant"() {value = #onnx.dense_disposable<193:"0x0000000000000000"> : tensor<1xi64>} : () -> tensor<1xi64>
    %193 = "onnx.Constant"() {value = #onnx.dense_disposable<194:"0x2000000000000000"> : tensor<1xi64>} : () -> tensor<1xi64>
    %194 = "onnx.Constant"() {value = #onnx.dense_disposable<195:"0x4000000000000000"> : tensor<1xi64>} : () -> tensor<1xi64>
    %195 = "onnx.Constant"() {value = #onnx.dense_disposable<196:"0x0800000000000000"> : tensor<1xi64>} : () -> tensor<1xi64>
    %196 = "onnx.Constant"() {value = #onnx.dense_disposable<197:"0x4000000000000000"> : tensor<1xi64>} : () -> tensor<1xi64>
    %197 = "onnx.Constant"() {value = #onnx.dense_disposable<198:"0xFFFFFFFFFFFFFFFF"> : tensor<1xi64>} : () -> tensor<1xi64>
    %198 = "onnx.Constant"() {value = #onnx.dense_disposable<199:"0x0000000000000000"> : tensor<1xi64>} : () -> tensor<1xi64>
    %199 = "onnx.Constant"() {value = #onnx.dense_disposable<200:"0x2000000000000000"> : tensor<1xi64>} : () -> tensor<1xi64>
    %200 = "onnx.Constant"() {value = #onnx.dense_disposable<201:"0x0300000000000000"> : tensor<1xi64>} : () -> tensor<1xi64>
    %201 = "onnx.Constant"() {value = #onnx.dense_disposable<202:"0x0100000000000000"> : tensor<1xi64>} : () -> tensor<1xi64>
    %202 = "onnx.Constant"() {value = #onnx.dense_disposable<203:"0x2000000000000000"> : tensor<1xi64>} : () -> tensor<1xi64>
    %203 = "onnx.Constant"() {value = #onnx.dense_disposable<204:"0xFFFFFFFFFFFFFF7F"> : tensor<1xi64>} : () -> tensor<1xi64>
    %204 = "onnx.Constant"() {value = #onnx.dense_disposable<205:"0x0300000000000000"> : tensor<1xi64>} : () -> tensor<1xi64>
    %205 = "onnx.Constant"() {value = #onnx.dense_disposable<206:"0x0100000000000000"> : tensor<1xi64>} : () -> tensor<1xi64>
    %206 = "onnx.Constant"() {value = #onnx.dense_disposable<207:"0x0000000000000000"> : tensor<1xi64>} : () -> tensor<1xi64>
    %207 = "onnx.Constant"() {value = #onnx.dense_disposable<208:"0x2000000000000000"> : tensor<1xi64>} : () -> tensor<1xi64>
    %208 = "onnx.Constant"() {value = #onnx.dense_disposable<209:"0x0300000000000000"> : tensor<1xi64>} : () -> tensor<1xi64>
    %209 = "onnx.Constant"() {value = #onnx.dense_disposable<210:"0x0100000000000000"> : tensor<1xi64>} : () -> tensor<1xi64>
    %210 = "onnx.Constant"() {value = #onnx.dense_disposable<211:"0x2000000000000000"> : tensor<1xi64>} : () -> tensor<1xi64>
    %211 = "onnx.Constant"() {value = #onnx.dense_disposable<212:"0xFFFFFFFFFFFFFF7F"> : tensor<1xi64>} : () -> tensor<1xi64>
    %212 = "onnx.Constant"() {value = #onnx.dense_disposable<213:"0x0300000000000000"> : tensor<1xi64>} : () -> tensor<1xi64>
    %213 = "onnx.Constant"() {value = #onnx.dense_disposable<214:"0x0100000000000000"> : tensor<1xi64>} : () -> tensor<1xi64>
    %214 = "onnx.Constant"() {value = #onnx.dense_disposable<215:"0x0200000000000000"> : tensor<1xi64>} : () -> tensor<1xi64>
    %215 = "onnx.Constant"() {value = #onnx.dense_disposable<216:"0x0000000000000000"> : tensor<i64>} : () -> tensor<i64>
    %216 = "onnx.Constant"() {value = #onnx.dense_disposable<217:"0x0200000000000000"> : tensor<i64>} : () -> tensor<i64>
    %217 = "onnx.Constant"() {value = #onnx.dense_disposable<218:"0x0000000000000000"> : tensor<1xi64>} : () -> tensor<1xi64>
    %218 = "onnx.Constant"() {value = #onnx.dense_disposable<219:"0x0000000000000000"> : tensor<1xi64>} : () -> tensor<1xi64>
    %219 = "onnx.Constant"() {value = #onnx.dense_disposable<220:"0x0800000000000000"> : tensor<1xi64>} : () -> tensor<1xi64>
    %220 = "onnx.Constant"() {value = #onnx.dense_disposable<221:"0x0400000000000000"> : tensor<1xi64>} : () -> tensor<1xi64>
    %221 = "onnx.Constant"() {value = #onnx.dense_disposable<222:"0x4000000000000000"> : tensor<1xi64>} : () -> tensor<1xi64>
    %222 = "onnx.Constant"() {value = #onnx.dense_disposable<223:"0x2000000000000000"> : tensor<1xi64>} : () -> tensor<1xi64>
    %223 = "onnx.Constant"() {value = #onnx.dense_disposable<224:"0x4000000000000000"> : tensor<1xi64>} : () -> tensor<1xi64>
    %224 = "onnx.Constant"() {value = #onnx.dense_disposable<225:"0xF304B53E"> : tensor<1xf32>} : () -> tensor<1xf32>
    %225 = "onnx.Constant"() {value = #onnx.dense_disposable<226:"…"> : tensor<5xi64>} : () -> tensor<5xi64>
    %226 = "onnx.Constant"() {value = #onnx.dense_disposable<227:"0x0200000000000000"> : tensor<1xi64>} : () -> tensor<1xi64>
    %227 = "onnx.Constant"() {value = #onnx.dense_disposable<228:"…"> : tensor<5xi64>} : () -> tensor<5xi64>
    %228 = "onnx.Constant"() {value = #onnx.dense_disposable<229:"0x0000000000000000"> : tensor<i64>} : () -> tensor<i64>
    %229 = "onnx.Constant"() {value = #onnx.dense_disposable<230:"0x0200000000000000"> : tensor<i64>} : () -> tensor<i64>
    %230 = "onnx.Constant"() {value = #onnx.dense_disposable<231:"0x0000000000000000"> : tensor<1xi64>} : () -> tensor<1xi64>
    %231 = "onnx.Constant"() {value = #onnx.dense_disposable<232:"0x0000000000000000"> : tensor<1xi64>} : () -> tensor<1xi64>
    %232 = "onnx.Constant"() {value = #onnx.dense_disposable<233:"0x0800000000000000"> : tensor<1xi64>} : () -> tensor<1xi64>
    %233 = "onnx.Constant"() {value = #onnx.dense_disposable<234:"0x0400000000000000"> : tensor<1xi64>} : () -> tensor<1xi64>
    %234 = "onnx.Constant"() {value = #onnx.dense_disposable<235:"0x4000000000000000"> : tensor<1xi64>} : () -> tensor<1xi64>
    %235 = "onnx.Constant"() {value = #onnx.dense_disposable<236:"0x2000000000000000"> : tensor<1xi64>} : () -> tensor<1xi64>
    %236 = "onnx.Constant"() {value = #onnx.dense_disposable<237:"0x4000000000000000"> : tensor<1xi64>} : () -> tensor<1xi64>
    %237 = "onnx.Constant"() {value = #onnx.dense_disposable<238:"…"> : tensor<5xi64>} : () -> tensor<5xi64>
    %238 = "onnx.Constant"() {value = #onnx.dense_disposable<239:"…"> : tensor<5xi64>} : () -> tensor<5xi64>
    %239 = "onnx.Constant"() {value = #onnx.dense_disposable<240:"0x0200000000000000"> : tensor<i64>} : () -> tensor<i64>
    %240 = "onnx.Constant"() {value = #onnx.dense_disposable<241:"0xF304B53E"> : tensor<1xf32>} : () -> tensor<1xf32>
    %241 = "onnx.Constant"() {value = #onnx.dense_disposable<242:"0x0000000000000000"> : tensor<1xi64>} : () -> tensor<1xi64>
    %242 = "onnx.Constant"() {value = #onnx.dense_disposable<243:"0x0000000000000000"> : tensor<1xi64>} : () -> tensor<1xi64>
    %243 = "onnx.Constant"() {value = #onnx.dense_disposable<244:"0x0300000000000000"> : tensor<1xi64>} : () -> tensor<1xi64>
    %244 = "onnx.Constant"() {value = #onnx.dense_disposable<245:"0x0100000000000000"> : tensor<1xi64>} : () -> tensor<1xi64>
    %245 = "onnx.Constant"() {value = #onnx.dense_disposable<246:"0x00000040"> : tensor<f32>} : () -> tensor<f32>
    %246 = "onnx.Constant"() {value = #onnx.dense_disposable<247:"0xACC52737"> : tensor<f32>} : () -> tensor<f32>
    %247 = "onnx.Constant"() {value = #onnx.dense_disposable<248:"0x0000803F"> : tensor<f32>} : () -> tensor<f32>
    %248 = "onnx.Constant"() {value = #onnx.dense_disposable<249:"…...
    %249 = "onnx.Constant"() {value = #onnx.dense_disposable<250:"0x00000040"> : tensor<f32>} : () -> tensor<f32>
    %250 = "onnx.Constant"() {value = #onnx.dense_disposable<251:"0xACC52737"> : tensor<f32>} : () -> tensor<f32>
    %251 = "onnx.Constant"() {value = #onnx.dense_disposable<252:"0x0000803F"> : tensor<f32>} : () -> tensor<f32>
    %252 = "onnx.Constant"() {value = #onnx.dense_disposable<253:"…...
    %253 = "onnx.Constant"() {value = #onnx.dense_disposable<254:"0x0000000000000000"> : tensor<i64>} : () -> tensor<i64>
    %254 = "onnx.Constant"() {value = #onnx.dense_disposable<255:"0x0100000000000000"> : tensor<i64>} : () -> tensor<i64>
    %255 = "onnx.Constant"() {value = #onnx.dense_disposable<256:"0x0000000000000000"> : tensor<1xi64>} : () -> tensor<1xi64>
    %256 = "onnx.Constant"() {value = #onnx.dense_disposable<257:"0x0000000000000000"> : tensor<1xi64>} : () -> tensor<1xi64>
    %257 = "onnx.Constant"() {value = #onnx.dense_disposable<258:"0x2000000000000000"> : tensor<1xi64>} : () -> tensor<1xi64>
    %258 = "onnx.Constant"() {value = #onnx.dense_disposable<259:"0x4000000000000000"> : tensor<1xi64>} : () -> tensor<1xi64>
    %259 = "onnx.Constant"() {value = #onnx.dense_disposable<260:"0x0800000000000000"> : tensor<1xi64>} : () -> tensor<1xi64>
    %260 = "onnx.Constant"() {value = #onnx.dense_disposable<261:"0x4000000000000000"> : tensor<1xi64>} : () -> tensor<1xi64>
    %261 = "onnx.Constant"() {value = #onnx.dense_disposable<262:"0xFFFFFFFFFFFFFFFF"> : tensor<1xi64>} : () -> tensor<1xi64>
    %262 = "onnx.Constant"() {value = #onnx.dense_disposable<263:"0x0000000000000000"> : tensor<1xi64>} : () -> tensor<1xi64>
    %263 = "onnx.Constant"() {value = #onnx.dense_disposable<264:"0x2000000000000000"> : tensor<1xi64>} : () -> tensor<1xi64>
    %264 = "onnx.Constant"() {value = #onnx.dense_disposable<265:"0x0300000000000000"> : tensor<1xi64>} : () -> tensor<1xi64>
    %265 = "onnx.Constant"() {value = #onnx.dense_disposable<266:"0x0100000000000000"> : tensor<1xi64>} : () -> tensor<1xi64>
    %266 = "onnx.Constant"() {value = #onnx.dense_disposable<267:"0x2000000000000000"> : tensor<1xi64>} : () -> tensor<1xi64>
    %267 = "onnx.Constant"() {value = #onnx.dense_disposable<268:"0xFFFFFFFFFFFFFF7F"> : tensor<1xi64>} : () -> tensor<1xi64>
    %268 = "onnx.Constant"() {value = #onnx.dense_disposable<269:"0x0300000000000000"> : tensor<1xi64>} : () -> tensor<1xi64>
    %269 = "onnx.Constant"() {value = #onnx.dense_disposable<270:"0x0100000000000000"> : tensor<1xi64>} : () -> tensor<1xi64>
    %270 = "onnx.Constant"() {value = #onnx.dense_disposable<271:"0x0000000000000000"> : tensor<1xi64>} : () -> tensor<1xi64>
    %271 = "onnx.Constant"() {value = #onnx.dense_disposable<272:"0x2000000000000000"> : tensor<1xi64>} : () -> tensor<1xi64>
    %272 = "onnx.Constant"() {value = #onnx.dense_disposable<273:"0x0300000000000000"> : tensor<1xi64>} : () -> tensor<1xi64>
    %273 = "onnx.Constant"() {value = #onnx.dense_disposable<274:"0x0100000000000000"> : tensor<1xi64>} : () -> tensor<1xi64>
    %274 = "onnx.Constant"() {value = #onnx.dense_disposable<275:"0x2000000000000000"> : tensor<1xi64>} : () -> tensor<1xi64>
    %275 = "onnx.Constant"() {value = #onnx.dense_disposable<276:"0xFFFFFFFFFFFFFF7F"> : tensor<1xi64>} : () -> tensor<1xi64>
    %276 = "onnx.Constant"() {value = #onnx.dense_disposable<277:"0x0300000000000000"> : tensor<1xi64>} : () -> tensor<1xi64>
    %277 = "onnx.Constant"() {value = #onnx.dense_disposable<278:"0x0100000000000000"> : tensor<1xi64>} : () -> tensor<1xi64>
    %278 = "onnx.Constant"() {value = #onnx.dense_disposable<279:"0x0200000000000000"> : tensor<1xi64>} : () -> tensor<1xi64>
    %279 = "onnx.Constant"() {value = #onnx.dense_disposable<280:"0x0000000000000000"> : tensor<i64>} : () -> tensor<i64>
    %280 = "onnx.Constant"() {value = #onnx.dense_disposable<281:"0x0200000000000000"> : tensor<i64>} : () -> tensor<i64>
    %281 = "onnx.Constant"() {value = #onnx.dense_disposable<282:"0x0000000000000000"> : tensor<1xi64>} : () -> tensor<1xi64>
    %282 = "onnx.Constant"() {value = #onnx.dense_disposable<283:"0x0000000000000000"> : tensor<1xi64>} : () -> tensor<1xi64>
    %283 = "onnx.Constant"() {value = #onnx.dense_disposable<284:"0x0800000000000000"> : tensor<1xi64>} : () -> tensor<1xi64>
    %284 = "onnx.Constant"() {value = #onnx.dense_disposable<285:"0x0400000000000000"> : tensor<1xi64>} : () -> tensor<1xi64>
    %285 = "onnx.Constant"() {value = #onnx.dense_disposable<286:"0x4000000000000000"> : tensor<1xi64>} : () -> tensor<1xi64>
    %286 = "onnx.Constant"() {value = #onnx.dense_disposable<287:"0x2000000000000000"> : tensor<1xi64>} : () -> tensor<1xi64>
    %287 = "onnx.Constant"() {value = #onnx.dense_disposable<288:"0x4000000000000000"> : tensor<1xi64>} : () -> tensor<1xi64>
    %288 = "onnx.Constant"() {value = #onnx.dense_disposable<289:"0xF304B53E"> : tensor<1xf32>} : () -> tensor<1xf32>
    %289 = "onnx.Constant"() {value = #onnx.dense_disposable<290:"…"> : tensor<5xi64>} : () -> tensor<5xi64>
    %290 = "onnx.Constant"() {value = #onnx.dense_disposable<291:"0x0200000000000000"> : tensor<1xi64>} : () -> tensor<1xi64>
    %291 = "onnx.Constant"() {value = #onnx.dense_disposable<292:"…"> : tensor<5xi64>} : () -> tensor<5xi64>
    %292 = "onnx.Constant"() {value = #onnx.dense_disposable<293:"0x0000000000000000"> : tensor<i64>} : () -> tensor<i64>
    %293 = "onnx.Constant"() {value = #onnx.dense_disposable<294:"0x0200000000000000"> : tensor<i64>} : () -> tensor<i64>
    %294 = "onnx.Constant"() {value = #onnx.dense_disposable<295:"0x0000000000000000"> : tensor<1xi64>} : () -> tensor<1xi64>
    %295 = "onnx.Constant"() {value = #onnx.dense_disposable<296:"0x0000000000000000"> : tensor<1xi64>} : () -> tensor<1xi64>
    %296 = "onnx.Constant"() {value = #onnx.dense_disposable<297:"0x0800000000000000"> : tensor<1xi64>} : () -> tensor<1xi64>
    %297 = "onnx.Constant"() {value = #onnx.dense_disposable<298:"0x0400000000000000"> : tensor<1xi64>} : () -> tensor<1xi64>
    %298 = "onnx.Constant"() {value = #onnx.dense_disposable<299:"0x4000000000000000"> : tensor<1xi64>} : () -> tensor<1xi64>
    %299 = "onnx.Constant"() {value = #onnx.dense_disposable<300:"0x2000000000000000"> : tensor<1xi64>} : () -> tensor<1xi64>
    %300 = "onnx.Constant"() {value = #onnx.dense_disposable<301:"0x4000000000000000"> : tensor<1xi64>} : () -> tensor<1xi64>
    %301 = "onnx.Constant"() {value = #onnx.dense_disposable<302:"…"> : tensor<5xi64>} : () -> tensor<5xi64>
    %302 = "onnx.Constant"() {value = #onnx.dense_disposable<303:"…"> : tensor<5xi64>} : () -> tensor<5xi64>
    %303 = "onnx.Constant"() {value = #onnx.dense_disposable<304:"0x0200000000000000"> : tensor<i64>} : () -> tensor<i64>
    %304 = "onnx.Constant"() {value = #onnx.dense_disposable<305:"0xF304B53E"> : tensor<1xf32>} : () -> tensor<1xf32>
    %305 = "onnx.Constant"() {value = #onnx.dense_disposable<306:"0x0000000000000000"> : tensor<1xi64>} : () -> tensor<1xi64>
    %306 = "onnx.Constant"() {value = #onnx.dense_disposable<307:"0x0000000000000000"> : tensor<1xi64>} : () -> tensor<1xi64>
    %307 = "onnx.Constant"() {value = #onnx.dense_disposable<308:"0x0300000000000000"> : tensor<1xi64>} : () -> tensor<1xi64>
    %308 = "onnx.Constant"() {value = #onnx.dense_disposable<309:"0x0100000000000000"> : tensor<1xi64>} : () -> tensor<1xi64>
    %309 = "onnx.Constant"() {value = #onnx.dense_disposable<310:"0x00000040"> : tensor<f32>} : () -> tensor<f32>
    %310 = "onnx.Constant"() {value = #onnx.dense_disposable<311:"0xACC52737"> : tensor<f32>} : () -> tensor<f32>
    %311 = "onnx.Constant"() {value = #onnx.dense_disposable<312:"0x0000803F"> : tensor<f32>} : () -> tensor<f32>
    %312 = "onnx.Constant"() {value = #onnx.dense_disposable<313:"…...
    %313 = "onnx.Constant"() {value = #onnx.dense_disposable<314:"0x00000040"> : tensor<f32>} : () -> tensor<f32>
    %314 = "onnx.Constant"() {value = #onnx.dense_disposable<315:"0xACC52737"> : tensor<f32>} : () -> tensor<f32>
    %315 = "onnx.Constant"() {value = #onnx.dense_disposable<316:"0x0000803F"> : tensor<f32>} : () -> tensor<f32>
    %316 = "onnx.Constant"() {value = #onnx.dense_disposable<317:"…...
    %317 = "onnx.Constant"() {value = #onnx.dense_disposable<318:"0x0000000000000000"> : tensor<i64>} : () -> tensor<i64>
    %318 = "onnx.Constant"() {value = #onnx.dense_disposable<319:"0x0100000000000000"> : tensor<i64>} : () -> tensor<i64>
    %319 = "onnx.Constant"() {value = #onnx.dense_disposable<320:"0x0000000000000000"> : tensor<1xi64>} : () -> tensor<1xi64>
    %320 = "onnx.Constant"() {value = #onnx.dense_disposable<321:"0x0000000000000000"> : tensor<1xi64>} : () -> tensor<1xi64>
    %321 = "onnx.Constant"() {value = #onnx.dense_disposable<322:"0x2000000000000000"> : tensor<1xi64>} : () -> tensor<1xi64>
    %322 = "onnx.Constant"() {value = #onnx.dense_disposable<323:"0x4000000000000000"> : tensor<1xi64>} : () -> tensor<1xi64>
    %323 = "onnx.Constant"() {value = #onnx.dense_disposable<324:"0x0800000000000000"> : tensor<1xi64>} : () -> tensor<1xi64>
    %324 = "onnx.Constant"() {value = #onnx.dense_disposable<325:"0x4000000000000000"> : tensor<1xi64>} : () -> tensor<1xi64>
    %325 = "onnx.Constant"() {value = #onnx.dense_disposable<326:"0xFFFFFFFFFFFFFFFF"> : tensor<1xi64>} : () -> tensor<1xi64>
    %326 = "onnx.Constant"() {value = #onnx.dense_disposable<327:"0x0000000000000000"> : tensor<1xi64>} : () -> tensor<1xi64>
    %327 = "onnx.Constant"() {value = #onnx.dense_disposable<328:"0x2000000000000000"> : tensor<1xi64>} : () -> tensor<1xi64>
    %328 = "onnx.Constant"() {value = #onnx.dense_disposable<329:"0x0300000000000000"> : tensor<1xi64>} : () -> tensor<1xi64>
    %329 = "onnx.Constant"() {value = #onnx.dense_disposable<330:"0x0100000000000000"> : tensor<1xi64>} : () -> tensor<1xi64>
    %330 = "onnx.Constant"() {value = #onnx.dense_disposable<331:"0x2000000000000000"> : tensor<1xi64>} : () -> tensor<1xi64>
    %331 = "onnx.Constant"() {value = #onnx.dense_disposable<332:"0xFFFFFFFFFFFFFF7F"> : tensor<1xi64>} : () -> tensor<1xi64>
    %332 = "onnx.Constant"() {value = #onnx.dense_disposable<333:"0x0300000000000000"> : tensor<1xi64>} : () -> tensor<1xi64>
    %333 = "onnx.Constant"() {value = #onnx.dense_disposable<334:"0x0100000000000000"> : tensor<1xi64>} : () -> tensor<1xi64>
    %334 = "onnx.Constant"() {value = #onnx.dense_disposable<335:"0x0000000000000000"> : tensor<1xi64>} : () -> tensor<1xi64>
    %335 = "onnx.Constant"() {value = #onnx.dense_disposable<336:"0x2000000000000000"> : tensor<1xi64>} : () -> tensor<1xi64>
    %336 = "onnx.Constant"() {value = #onnx.dense_disposable<337:"0x0300000000000000"> : tensor<1xi64>} : () -> tensor<1xi64>
    %337 = "onnx.Constant"() {value = #onnx.dense_disposable<338:"0x0100000000000000"> : tensor<1xi64>} : () -> tensor<1xi64>
    %338 = "onnx.Constant"() {value = #onnx.dense_disposable<339:"0x2000000000000000"> : tensor<1xi64>} : () -> tensor<1xi64>
    %339 = "onnx.Constant"() {value = #onnx.dense_disposable<340:"0xFFFFFFFFFFFFFF7F"> : tensor<1xi64>} : () -> tensor<1xi64>
    %340 = "onnx.Constant"() {value = #onnx.dense_disposable<341:"0x0300000000000000"> : tensor<1xi64>} : () -> tensor<1xi64>
    %341 = "onnx.Constant"() {value = #onnx.dense_disposable<342:"0x0100000000000000"> : tensor<1xi64>} : () -> tensor<1xi64>
    %342 = "onnx.Constant"() {value = #onnx.dense_disposable<343:"0x0200000000000000"> : tensor<1xi64>} : () -> tensor<1xi64>
    %343 = "onnx.Constant"() {value = #onnx.dense_disposable<344:"0x0000000000000000"> : tensor<i64>} : () -> tensor<i64>
    %344 = "onnx.Constant"() {value = #onnx.dense_disposable<345:"0x0200000000000000"> : tensor<i64>} : () -> tensor<i64>
    %345 = "onnx.Constant"() {value = #onnx.dense_disposable<346:"0x0000000000000000"> : tensor<1xi64>} : () -> tensor<1xi64>
    %346 = "onnx.Constant"() {value = #onnx.dense_disposable<347:"0x0000000000000000"> : tensor<1xi64>} : () -> tensor<1xi64>
    %347 = "onnx.Constant"() {value = #onnx.dense_disposable<348:"0x0800000000000000"> : tensor<1xi64>} : () -> tensor<1xi64>
    %348 = "onnx.Constant"() {value = #onnx.dense_disposable<349:"0x0400000000000000"> : tensor<1xi64>} : () -> tensor<1xi64>
    %349 = "onnx.Constant"() {value = #onnx.dense_disposable<350:"0x4000000000000000"> : tensor<1xi64>} : () -> tensor<1xi64>
    %350 = "onnx.Constant"() {value = #onnx.dense_disposable<351:"0x2000000000000000"> : tensor<1xi64>} : () -> tensor<1xi64>
    %351 = "onnx.Constant"() {value = #onnx.dense_disposable<352:"0x4000000000000000"> : tensor<1xi64>} : () -> tensor<1xi64>
    %352 = "onnx.Constant"() {value = #onnx.dense_disposable<353:"0xF304B53E"> : tensor<1xf32>} : () -> tensor<1xf32>
    %353 = "onnx.Constant"() {value = #onnx.dense_disposable<354:"…"> : tensor<5xi64>} : () -> tensor<5xi64>
    %354 = "onnx.Constant"() {value = #onnx.dense_disposable<355:"0x0200000000000000"> : tensor<1xi64>} : () -> tensor<1xi64>
    %355 = "onnx.Constant"() {value = #onnx.dense_disposable<356:"…"> : tensor<5xi64>} : () -> tensor<5xi64>
    %356 = "onnx.Constant"() {value = #onnx.dense_disposable<357:"0x0000000000000000"> : tensor<i64>} : () -> tensor<i64>
    %357 = "onnx.Constant"() {value = #onnx.dense_disposable<358:"0x0200000000000000"> : tensor<i64>} : () -> tensor<i64>
    %358 = "onnx.Constant"() {value = #onnx.dense_disposable<359:"0x0000000000000000"> : tensor<1xi64>} : () -> tensor<1xi64>
    %359 = "onnx.Constant"() {value = #onnx.dense_disposable<360:"0x0000000000000000"> : tensor<1xi64>} : () -> tensor<1xi64>
    %360 = "onnx.Constant"() {value = #onnx.dense_disposable<361:"0x0800000000000000"> : tensor<1xi64>} : () -> tensor<1xi64>
    %361 = "onnx.Constant"() {value = #onnx.dense_disposable<362:"0x0400000000000000"> : tensor<1xi64>} : () -> tensor<1xi64>
    %362 = "onnx.Constant"() {value = #onnx.dense_disposable<363:"0x4000000000000000"> : tensor<1xi64>} : () -> tensor<1xi64>
    %363 = "onnx.Constant"() {value = #onnx.dense_disposable<364:"0x2000000000000000"> : tensor<1xi64>} : () -> tensor<1xi64>
    %364 = "onnx.Constant"() {value = #onnx.dense_disposable<365:"0x4000000000000000"> : tensor<1xi64>} : () -> tensor<1xi64>
    %365 = "onnx.Constant"() {value = #onnx.dense_disposable<366:"…"> : tensor<5xi64>} : () -> tensor<5xi64>
    %366 = "onnx.Constant"() {value = #onnx.dense_disposable<367:"…"> : tensor<5xi64>} : () -> tensor<5xi64>
    %367 = "onnx.Constant"() {value = #onnx.dense_disposable<368:"0x0200000000000000"> : tensor<i64>} : () -> tensor<i64>
    %368 = "onnx.Constant"() {value = #onnx.dense_disposable<369:"0xF304B53E"> : tensor<1xf32>} : () -> tensor<1xf32>
    %369 = "onnx.Constant"() {value = #onnx.dense_disposable<370:"0x0000000000000000"> : tensor<1xi64>} : () -> tensor<1xi64>
    %370 = "onnx.Constant"() {value = #onnx.dense_disposable<371:"0x0000000000000000"> : tensor<1xi64>} : () -> tensor<1xi64>
    %371 = "onnx.Constant"() {value = #onnx.dense_disposable<372:"0x0300000000000000"> : tensor<1xi64>} : () -> tensor<1xi64>
    %372 = "onnx.Constant"() {value = #onnx.dense_disposable<373:"0x0100000000000000"> : tensor<1xi64>} : () -> tensor<1xi64>
    %373 = "onnx.Constant"() {value = #onnx.dense_disposable<374:"0x00000040"> : tensor<f32>} : () -> tensor<f32>
    %374 = "onnx.Constant"() {value = #onnx.dense_disposable<375:"0xACC52737"> : tensor<f32>} : () -> tensor<f32>
    %375 = "onnx.Constant"() {value = #onnx.dense_disposable<376:"0x0000803F"> : tensor<f32>} : () -> tensor<f32>
    %376 = "onnx.Constant"() {value = #onnx.dense_disposable<377:"…...
    %377 = "onnx.Constant"() {value = #onnx.dense_disposable<378:"0x00000040"> : tensor<f32>} : () -> tensor<f32>
    %378 = "onnx.Constant"() {value = #onnx.dense_disposable<379:"0xACC52737"> : tensor<f32>} : () -> tensor<f32>
    %379 = "onnx.Constant"() {value = #onnx.dense_disposable<380:"0x0000803F"> : tensor<f32>} : () -> tensor<f32>
    %380 = "onnx.Constant"() {value = #onnx.dense_disposable<381:"…...
    %381 = "onnx.Constant"() {value = #onnx.dense_disposable<382:"0x0000000000000000"> : tensor<i64>} : () -> tensor<i64>
    %382 = "onnx.Constant"() {value = #onnx.dense_disposable<383:"0x0100000000000000"> : tensor<i64>} : () -> tensor<i64>
    %383 = "onnx.Constant"() {value = #onnx.dense_disposable<384:"0x0000000000000000"> : tensor<1xi64>} : () -> tensor<1xi64>
    %384 = "onnx.Constant"() {value = #onnx.dense_disposable<385:"0x0000000000000000"> : tensor<1xi64>} : () -> tensor<1xi64>
    %385 = "onnx.Constant"() {value = #onnx.dense_disposable<386:"0x2000000000000000"> : tensor<1xi64>} : () -> tensor<1xi64>
    %386 = "onnx.Constant"() {value = #onnx.dense_disposable<387:"0x4000000000000000"> : tensor<1xi64>} : () -> tensor<1xi64>
    %387 = "onnx.Constant"() {value = #onnx.dense_disposable<388:"0x0800000000000000"> : tensor<1xi64>} : () -> tensor<1xi64>
    %388 = "onnx.Constant"() {value = #onnx.dense_disposable<389:"0x4000000000000000"> : tensor<1xi64>} : () -> tensor<1xi64>
    %389 = "onnx.Constant"() {value = #onnx.dense_disposable<390:"0xFFFFFFFFFFFFFFFF"> : tensor<1xi64>} : () -> tensor<1xi64>
    %390 = "onnx.Constant"() {value = #onnx.dense_disposable<391:"0x0000000000000000"> : tensor<1xi64>} : () -> tensor<1xi64>
    %391 = "onnx.Constant"() {value = #onnx.dense_disposable<392:"0x2000000000000000"> : tensor<1xi64>} : () -> tensor<1xi64>
    %392 = "onnx.Constant"() {value = #onnx.dense_disposable<393:"0x0300000000000000"> : tensor<1xi64>} : () -> tensor<1xi64>
    %393 = "onnx.Constant"() {value = #onnx.dense_disposable<394:"0x0100000000000000"> : tensor<1xi64>} : () -> tensor<1xi64>
    %394 = "onnx.Constant"() {value = #onnx.dense_disposable<395:"0x2000000000000000"> : tensor<1xi64>} : () -> tensor<1xi64>
    %395 = "onnx.Constant"() {value = #onnx.dense_disposable<396:"0xFFFFFFFFFFFFFF7F"> : tensor<1xi64>} : () -> tensor<1xi64>
    %396 = "onnx.Constant"() {value = #onnx.dense_disposable<397:"0x0300000000000000"> : tensor<1xi64>} : () -> tensor<1xi64>
    %397 = "onnx.Constant"() {value = #onnx.dense_disposable<398:"0x0100000000000000"> : tensor<1xi64>} : () -> tensor<1xi64>
    %398 = "onnx.Constant"() {value = #onnx.dense_disposable<399:"0x0000000000000000"> : tensor<1xi64>} : () -> tensor<1xi64>
    %399 = "onnx.Constant"() {value = #onnx.dense_disposable<400:"0x2000000000000000"> : tensor<1xi64>} : () -> tensor<1xi64>
    %400 = "onnx.Constant"() {value = #onnx.dense_disposable<401:"0x0300000000000000"> : tensor<1xi64>} : () -> tensor<1xi64>
    %401 = "onnx.Constant"() {value = #onnx.dense_disposable<402:"0x0100000000000000"> : tensor<1xi64>} : () -> tensor<1xi64>
    %402 = "onnx.Constant"() {value = #onnx.dense_disposable<403:"0x2000000000000000"> : tensor<1xi64>} : () -> tensor<1xi64>
    %403 = "onnx.Constant"() {value = #onnx.dense_disposable<404:"0xFFFFFFFFFFFFFF7F"> : tensor<1xi64>} : () -> tensor<1xi64>
    %404 = "onnx.Constant"() {value = #onnx.dense_disposable<405:"0x0300000000000000"> : tensor<1xi64>} : () -> tensor<1xi64>
    %405 = "onnx.Constant"() {value = #onnx.dense_disposable<406:"0x0100000000000000"> : tensor<1xi64>} : () -> tensor<1xi64>
    %406 = "onnx.Constant"() {value = #onnx.dense_disposable<407:"0x0200000000000000"> : tensor<1xi64>} : () -> tensor<1xi64>
    %407 = "onnx.Constant"() {value = #onnx.dense_disposable<408:"0x0000000000000000"> : tensor<i64>} : () -> tensor<i64>
    %408 = "onnx.Constant"() {value = #onnx.dense_disposable<409:"0x0200000000000000"> : tensor<i64>} : () -> tensor<i64>
    %409 = "onnx.Constant"() {value = #onnx.dense_disposable<410:"0x0000000000000000"> : tensor<1xi64>} : () -> tensor<1xi64>
    %410 = "onnx.Constant"() {value = #onnx.dense_disposable<411:"0x0000000000000000"> : tensor<1xi64>} : () -> tensor<1xi64>
    %411 = "onnx.Constant"() {value = #onnx.dense_disposable<412:"0x0800000000000000"> : tensor<1xi64>} : () -> tensor<1xi64>
    %412 = "onnx.Constant"() {value = #onnx.dense_disposable<413:"0x0400000000000000"> : tensor<1xi64>} : () -> tensor<1xi64>
    %413 = "onnx.Constant"() {value = #onnx.dense_disposable<414:"0x4000000000000000"> : tensor<1xi64>} : () -> tensor<1xi64>
    %414 = "onnx.Constant"() {value = #onnx.dense_disposable<415:"0x2000000000000000"> : tensor<1xi64>} : () -> tensor<1xi64>
    %415 = "onnx.Constant"() {value = #onnx.dense_disposable<416:"0x4000000000000000"> : tensor<1xi64>} : () -> tensor<1xi64>
    %416 = "onnx.Constant"() {value = #onnx.dense_disposable<417:"0xF304B53E"> : tensor<1xf32>} : () -> tensor<1xf32>
    %417 = "onnx.Constant"() {value = #onnx.dense_disposable<418:"…"> : tensor<5xi64>} : () -> tensor<5xi64>
    %418 = "onnx.Constant"() {value = #onnx.dense_disposable<419:"0x0200000000000000"> : tensor<1xi64>} : () -> tensor<1xi64>
    %419 = "onnx.Constant"() {value = #onnx.dense_disposable<420:"…"> : tensor<5xi64>} : () -> tensor<5xi64>
    %420 = "onnx.Constant"() {value = #onnx.dense_disposable<421:"0x0000000000000000"> : tensor<i64>} : () -> tensor<i64>
    %421 = "onnx.Constant"() {value = #onnx.dense_disposable<422:"0x0200000000000000"> : tensor<i64>} : () -> tensor<i64>
    %422 = "onnx.Constant"() {value = #onnx.dense_disposable<423:"0x0000000000000000"> : tensor<1xi64>} : () -> tensor<1xi64>
    %423 = "onnx.Constant"() {value = #onnx.dense_disposable<424:"0x0000000000000000"> : tensor<1xi64>} : () -> tensor<1xi64>
    %424 = "onnx.Constant"() {value = #onnx.dense_disposable<425:"0x0800000000000000"> : tensor<1xi64>} : () -> tensor<1xi64>
    %425 = "onnx.Constant"() {value = #onnx.dense_disposable<426:"0x0400000000000000"> : tensor<1xi64>} : () -> tensor<1xi64>
    %426 = "onnx.Constant"() {value = #onnx.dense_disposable<427:"0x4000000000000000"> : tensor<1xi64>} : () -> tensor<1xi64>
    %427 = "onnx.Constant"() {value = #onnx.dense_disposable<428:"0x2000000000000000"> : tensor<1xi64>} : () -> tensor<1xi64>
    %428 = "onnx.Constant"() {value = #onnx.dense_disposable<429:"0x4000000000000000"> : tensor<1xi64>} : () -> tensor<1xi64>
    %429 = "onnx.Constant"() {value = #onnx.dense_disposable<430:"…"> : tensor<5xi64>} : () -> tensor<5xi64>
    %430 = "onnx.Constant"() {value = #onnx.dense_disposable<431:"…"> : tensor<5xi64>} : () -> tensor<5xi64>
    %431 = "onnx.Constant"() {value = #onnx.dense_disposable<432:"0x0200000000000000"> : tensor<i64>} : () -> tensor<i64>
    %432 = "onnx.Constant"() {value = #onnx.dense_disposable<433:"0xF304B53E"> : tensor<1xf32>} : () -> tensor<1xf32>
    %433 = "onnx.Constant"() {value = #onnx.dense_disposable<434:"0x0000000000000000"> : tensor<1xi64>} : () -> tensor<1xi64>
    %434 = "onnx.Constant"() {value = #onnx.dense_disposable<435:"0x0000000000000000"> : tensor<1xi64>} : () -> tensor<1xi64>
    %435 = "onnx.Constant"() {value = #onnx.dense_disposable<436:"0x0300000000000000"> : tensor<1xi64>} : () -> tensor<1xi64>
    %436 = "onnx.Constant"() {value = #onnx.dense_disposable<437:"0x0100000000000000"> : tensor<1xi64>} : () -> tensor<1xi64>
    %437 = "onnx.Constant"() {value = #onnx.dense_disposable<438:"0x00000040"> : tensor<f32>} : () -> tensor<f32>
    %438 = "onnx.Constant"() {value = #onnx.dense_disposable<439:"0xACC52737"> : tensor<f32>} : () -> tensor<f32>
    %439 = "onnx.Constant"() {value = #onnx.dense_disposable<440:"0x0000803F"> : tensor<f32>} : () -> tensor<f32>
    %440 = "onnx.Constant"() {value = #onnx.dense_disposable<441:"…...
    %441 = "onnx.Constant"() {value = #onnx.dense_disposable<442:"0x00000040"> : tensor<f32>} : () -> tensor<f32>
    %442 = "onnx.Constant"() {value = #onnx.dense_disposable<443:"0xACC52737"> : tensor<f32>} : () -> tensor<f32>
    %443 = "onnx.Constant"() {value = #onnx.dense_disposable<444:"0x0000803F"> : tensor<f32>} : () -> tensor<f32>
    %444 = "onnx.Constant"() {value = #onnx.dense_disposable<445:"…...
    %445 = "onnx.Constant"() {value = #onnx.dense_disposable<446:"0x0000000000000000"> : tensor<i64>} : () -> tensor<i64>
    %446 = "onnx.Constant"() {value = #onnx.dense_disposable<447:"0x0100000000000000"> : tensor<i64>} : () -> tensor<i64>
    %447 = "onnx.Constant"() {value = #onnx.dense_disposable<448:"0x0000000000000000"> : tensor<1xi64>} : () -> tensor<1xi64>
    %448 = "onnx.Constant"() {value = #onnx.dense_disposable<449:"0x0000000000000000"> : tensor<1xi64>} : () -> tensor<1xi64>
    %449 = "onnx.Constant"() {value = #onnx.dense_disposable<450:"0x2000000000000000"> : tensor<1xi64>} : () -> tensor<1xi64>
    %450 = "onnx.Constant"() {value = #onnx.dense_disposable<451:"0x4000000000000000"> : tensor<1xi64>} : () -> tensor<1xi64>
    %451 = "onnx.Constant"() {value = #onnx.dense_disposable<452:"0x0800000000000000"> : tensor<1xi64>} : () -> tensor<1xi64>
    %452 = "onnx.Constant"() {value = #onnx.dense_disposable<453:"0x4000000000000000"> : tensor<1xi64>} : () -> tensor<1xi64>
    %453 = "onnx.Constant"() {value = #onnx.dense_disposable<454:"0xFFFFFFFFFFFFFFFF"> : tensor<1xi64>} : () -> tensor<1xi64>
    %454 = "onnx.Constant"() {value = #onnx.dense_disposable<455:"0x0000000000000000"> : tensor<1xi64>} : () -> tensor<1xi64>
    %455 = "onnx.Constant"() {value = #onnx.dense_disposable<456:"0x2000000000000000"> : tensor<1xi64>} : () -> tensor<1xi64>
    %456 = "onnx.Constant"() {value = #onnx.dense_disposable<457:"0x0300000000000000"> : tensor<1xi64>} : () -> tensor<1xi64>
    %457 = "onnx.Constant"() {value = #onnx.dense_disposable<458:"0x0100000000000000"> : tensor<1xi64>} : () -> tensor<1xi64>
    %458 = "onnx.Constant"() {value = #onnx.dense_disposable<459:"0x2000000000000000"> : tensor<1xi64>} : () -> tensor<1xi64>
    %459 = "onnx.Constant"() {value = #onnx.dense_disposable<460:"0xFFFFFFFFFFFFFF7F"> : tensor<1xi64>} : () -> tensor<1xi64>
    %460 = "onnx.Constant"() {value = #onnx.dense_disposable<461:"0x0300000000000000"> : tensor<1xi64>} : () -> tensor<1xi64>
    %461 = "onnx.Constant"() {value = #onnx.dense_disposable<462:"0x0100000000000000"> : tensor<1xi64>} : () -> tensor<1xi64>
    %462 = "onnx.Constant"() {value = #onnx.dense_disposable<463:"0x0000000000000000"> : tensor<1xi64>} : () -> tensor<1xi64>
    %463 = "onnx.Constant"() {value = #onnx.dense_disposable<464:"0x2000000000000000"> : tensor<1xi64>} : () -> tensor<1xi64>
    %464 = "onnx.Constant"() {value = #onnx.dense_disposable<465:"0x0300000000000000"> : tensor<1xi64>} : () -> tensor<1xi64>
    %465 = "onnx.Constant"() {value = #onnx.dense_disposable<466:"0x0100000000000000"> : tensor<1xi64>} : () -> tensor<1xi64>
    %466 = "onnx.Constant"() {value = #onnx.dense_disposable<467:"0x2000000000000000"> : tensor<1xi64>} : () -> tensor<1xi64>
    %467 = "onnx.Constant"() {value = #onnx.dense_disposable<468:"0xFFFFFFFFFFFFFF7F"> : tensor<1xi64>} : () -> tensor<1xi64>
    %468 = "onnx.Constant"() {value = #onnx.dense_disposable<469:"0x0300000000000000"> : tensor<1xi64>} : () -> tensor<1xi64>
    %469 = "onnx.Constant"() {value = #onnx.dense_disposable<470:"0x0100000000000000"> : tensor<1xi64>} : () -> tensor<1xi64>
    %470 = "onnx.Constant"() {value = #onnx.dense_disposable<471:"0x0200000000000000"> : tensor<1xi64>} : () -> tensor<1xi64>
    %471 = "onnx.Constant"() {value = #onnx.dense_disposable<472:"0x0000000000000000"> : tensor<i64>} : () -> tensor<i64>
    %472 = "onnx.Constant"() {value = #onnx.dense_disposable<473:"0x0200000000000000"> : tensor<i64>} : () -> tensor<i64>
    %473 = "onnx.Constant"() {value = #onnx.dense_disposable<474:"0x0000000000000000"> : tensor<1xi64>} : () -> tensor<1xi64>
    %474 = "onnx.Constant"() {value = #onnx.dense_disposable<475:"0x0000000000000000"> : tensor<1xi64>} : () -> tensor<1xi64>
    %475 = "onnx.Constant"() {value = #onnx.dense_disposable<476:"0x0800000000000000"> : tensor<1xi64>} : () -> tensor<1xi64>
    %476 = "onnx.Constant"() {value = #onnx.dense_disposable<477:"0x0400000000000000"> : tensor<1xi64>} : () -> tensor<1xi64>
    %477 = "onnx.Constant"() {value = #onnx.dense_disposable<478:"0x4000000000000000"> : tensor<1xi64>} : () -> tensor<1xi64>
    %478 = "onnx.Constant"() {value = #onnx.dense_disposable<479:"0x2000000000000000"> : tensor<1xi64>} : () -> tensor<1xi64>
    %479 = "onnx.Constant"() {value = #onnx.dense_disposable<480:"0x4000000000000000"> : tensor<1xi64>} : () -> tensor<1xi64>
    %480 = "onnx.Constant"() {value = #onnx.dense_disposable<481:"0xF304B53E"> : tensor<1xf32>} : () -> tensor<1xf32>
    %481 = "onnx.Constant"() {value = #onnx.dense_disposable<482:"…"> : tensor<5xi64>} : () -> tensor<5xi64>
    %482 = "onnx.Constant"() {value = #onnx.dense_disposable<483:"0x0200000000000000"> : tensor<1xi64>} : () -> tensor<1xi64>
    %483 = "onnx.Constant"() {value = #onnx.dense_disposable<484:"…"> : tensor<5xi64>} : () -> tensor<5xi64>
    %484 = "onnx.Constant"() {value = #onnx.dense_disposable<485:"0x0000000000000000"> : tensor<i64>} : () -> tensor<i64>
    %485 = "onnx.Constant"() {value = #onnx.dense_disposable<486:"0x0200000000000000"> : tensor<i64>} : () -> tensor<i64>
    %486 = "onnx.Constant"() {value = #onnx.dense_disposable<487:"0x0000000000000000"> : tensor<1xi64>} : () -> tensor<1xi64>
    %487 = "onnx.Constant"() {value = #onnx.dense_disposable<488:"0x0000000000000000"> : tensor<1xi64>} : () -> tensor<1xi64>
    %488 = "onnx.Constant"() {value = #onnx.dense_disposable<489:"0x0800000000000000"> : tensor<1xi64>} : () -> tensor<1xi64>
    %489 = "onnx.Constant"() {value = #onnx.dense_disposable<490:"0x0400000000000000"> : tensor<1xi64>} : () -> tensor<1xi64>
    %490 = "onnx.Constant"() {value = #onnx.dense_disposable<491:"0x4000000000000000"> : tensor<1xi64>} : () -> tensor<1xi64>
    %491 = "onnx.Constant"() {value = #onnx.dense_disposable<492:"0x2000000000000000"> : tensor<1xi64>} : () -> tensor<1xi64>
    %492 = "onnx.Constant"() {value = #onnx.dense_disposable<493:"0x4000000000000000"> : tensor<1xi64>} : () -> tensor<1xi64>
    %493 = "onnx.Constant"() {value = #onnx.dense_disposable<494:"…"> : tensor<5xi64>} : () -> tensor<5xi64>
    %494 = "onnx.Constant"() {value = #onnx.dense_disposable<495:"…"> : tensor<5xi64>} : () -> tensor<5xi64>
    %495 = "onnx.Constant"() {value = #onnx.dense_disposable<496:"0x0200000000000000"> : tensor<i64>} : () -> tensor<i64>
    %496 = "onnx.Constant"() {value = #onnx.dense_disposable<497:"0xF304B53E"> : tensor<1xf32>} : () -> tensor<1xf32>
    %497 = "onnx.Constant"() {value = #onnx.dense_disposable<498:"0x0000000000000000"> : tensor<1xi64>} : () -> tensor<1xi64>
    %498 = "onnx.Constant"() {value = #onnx.dense_disposable<499:"0x0000000000000000"> : tensor<1xi64>} : () -> tensor<1xi64>
    %499 = "onnx.Constant"() {value = #onnx.dense_disposable<500:"0x0300000000000000"> : tensor<1xi64>} : () -> tensor<1xi64>
    %500 = "onnx.Constant"() {value = #onnx.dense_disposable<501:"0x0100000000000000"> : tensor<1xi64>} : () -> tensor<1xi64>
    %501 = "onnx.Constant"() {value = #onnx.dense_disposable<502:"0x00000040"> : tensor<f32>} : () -> tensor<f32>
    %502 = "onnx.Constant"() {value = #onnx.dense_disposable<503:"0xACC52737"> : tensor<f32>} : () -> tensor<f32>
    %503 = "onnx.Constant"() {value = #onnx.dense_disposable<504:"0x0000803F"> : tensor<f32>} : () -> tensor<f32>
    %504 = "onnx.Constant"() {value = #onnx.dense_disposable<505:"…...
    %505 = "onnx.Constant"() {value = #onnx.dense_disposable<506:"0x00000040"> : tensor<f32>} : () -> tensor<f32>
    %506 = "onnx.Constant"() {value = #onnx.dense_disposable<507:"0xACC52737"> : tensor<f32>} : () -> tensor<f32>
    %507 = "onnx.Constant"() {value = #onnx.dense_disposable<508:"0x0000803F"> : tensor<f32>} : () -> tensor<f32>
    %508 = "onnx.Constant"() {value = #onnx.dense_disposable<509:"…...
    %509 = "onnx.Constant"() {value = #onnx.dense_disposable<510:"0x0000000000000000"> : tensor<i64>} : () -> tensor<i64>
    %510 = "onnx.Constant"() {value = #onnx.dense_disposable<511:"0x0100000000000000"> : tensor<i64>} : () -> tensor<i64>
    %511 = "onnx.Constant"() {value = #onnx.dense_disposable<512:"0x0000000000000000"> : tensor<1xi64>} : () -> tensor<1xi64>
    %512 = "onnx.Constant"() {value = #onnx.dense_disposable<513:"0x0000000000000000"> : tensor<1xi64>} : () -> tensor<1xi64>
    %513 = "onnx.Constant"() {value = #onnx.dense_disposable<514:"0x2000000000000000"> : tensor<1xi64>} : () -> tensor<1xi64>
    %514 = "onnx.Constant"() {value = #onnx.dense_disposable<515:"0x4000000000000000"> : tensor<1xi64>} : () -> tensor<1xi64>
    %515 = "onnx.Constant"() {value = #onnx.dense_disposable<516:"0x0800000000000000"> : tensor<1xi64>} : () -> tensor<1xi64>
    %516 = "onnx.Constant"() {value = #onnx.dense_disposable<517:"0x4000000000000000"> : tensor<1xi64>} : () -> tensor<1xi64>
    %517 = "onnx.Constant"() {value = #onnx.dense_disposable<518:"0xFFFFFFFFFFFFFFFF"> : tensor<1xi64>} : () -> tensor<1xi64>
    %518 = "onnx.Constant"() {value = #onnx.dense_disposable<519:"0x0000000000000000"> : tensor<1xi64>} : () -> tensor<1xi64>
    %519 = "onnx.Constant"() {value = #onnx.dense_disposable<520:"0x2000000000000000"> : tensor<1xi64>} : () -> tensor<1xi64>
    %520 = "onnx.Constant"() {value = #onnx.dense_disposable<521:"0x0300000000000000"> : tensor<1xi64>} : () -> tensor<1xi64>
    %521 = "onnx.Constant"() {value = #onnx.dense_disposable<522:"0x0100000000000000"> : tensor<1xi64>} : () -> tensor<1xi64>
    %522 = "onnx.Constant"() {value = #onnx.dense_disposable<523:"0x2000000000000000"> : tensor<1xi64>} : () -> tensor<1xi64>
    %523 = "onnx.Constant"() {value = #onnx.dense_disposable<524:"0xFFFFFFFFFFFFFF7F"> : tensor<1xi64>} : () -> tensor<1xi64>
    %524 = "onnx.Constant"() {value = #onnx.dense_disposable<525:"0x0300000000000000"> : tensor<1xi64>} : () -> tensor<1xi64>
    %525 = "onnx.Constant"() {value = #onnx.dense_disposable<526:"0x0100000000000000"> : tensor<1xi64>} : () -> tensor<1xi64>
    %526 = "onnx.Constant"() {value = #onnx.dense_disposable<527:"0x0000000000000000"> : tensor<1xi64>} : () -> tensor<1xi64>
    %527 = "onnx.Constant"() {value = #onnx.dense_disposable<528:"0x2000000000000000"> : tensor<1xi64>} : () -> tensor<1xi64>
    %528 = "onnx.Constant"() {value = #onnx.dense_disposable<529:"0x0300000000000000"> : tensor<1xi64>} : () -> tensor<1xi64>
    %529 = "onnx.Constant"() {value = #onnx.dense_disposable<530:"0x0100000000000000"> : tensor<1xi64>} : () -> tensor<1xi64>
    %530 = "onnx.Constant"() {value = #onnx.dense_disposable<531:"0x2000000000000000"> : tensor<1xi64>} : () -> tensor<1xi64>
    %531 = "onnx.Constant"() {value = #onnx.dense_disposable<532:"0xFFFFFFFFFFFFFF7F"> : tensor<1xi64>} : () -> tensor<1xi64>
    %532 = "onnx.Constant"() {value = #onnx.dense_disposable<533:"0x0300000000000000"> : tensor<1xi64>} : () -> tensor<1xi64>
    %533 = "onnx.Constant"() {value = #onnx.dense_disposable<534:"0x0100000000000000"> : tensor<1xi64>} : () -> tensor<1xi64>
    %534 = "onnx.Constant"() {value = #onnx.dense_disposable<535:"0x0200000000000000"> : tensor<1xi64>} : () -> tensor<1xi64>
    %535 = "onnx.Constant"() {value = #onnx.dense_disposable<536:"0x0000000000000000"> : tensor<i64>} : () -> tensor<i64>
    %536 = "onnx.Constant"() {value = #onnx.dense_disposable<537:"0x0200000000000000"> : tensor<i64>} : () -> tensor<i64>
    %537 = "onnx.Constant"() {value = #onnx.dense_disposable<538:"0x0000000000000000"> : tensor<1xi64>} : () -> tensor<1xi64>
    %538 = "onnx.Constant"() {value = #onnx.dense_disposable<539:"0x0000000000000000"> : tensor<1xi64>} : () -> tensor<1xi64>
    %539 = "onnx.Constant"() {value = #onnx.dense_disposable<540:"0x0800000000000000"> : tensor<1xi64>} : () -> tensor<1xi64>
    %540 = "onnx.Constant"() {value = #onnx.dense_disposable<541:"0x0400000000000000"> : tensor<1xi64>} : () -> tensor<1xi64>
    %541 = "onnx.Constant"() {value = #onnx.dense_disposable<542:"0x4000000000000000"> : tensor<1xi64>} : () -> tensor<1xi64>
    %542 = "onnx.Constant"() {value = #onnx.dense_disposable<543:"0x2000000000000000"> : tensor<1xi64>} : () -> tensor<1xi64>
    %543 = "onnx.Constant"() {value = #onnx.dense_disposable<544:"0x4000000000000000"> : tensor<1xi64>} : () -> tensor<1xi64>
    %544 = "onnx.Constant"() {value = #onnx.dense_disposable<545:"0xF304B53E"> : tensor<1xf32>} : () -> tensor<1xf32>
    %545 = "onnx.Constant"() {value = #onnx.dense_disposable<546:"…"> : tensor<5xi64>} : () -> tensor<5xi64>
    %546 = "onnx.Constant"() {value = #onnx.dense_disposable<547:"0x0200000000000000"> : tensor<1xi64>} : () -> tensor<1xi64>
    %547 = "onnx.Constant"() {value = #onnx.dense_disposable<548:"…"> : tensor<5xi64>} : () -> tensor<5xi64>
    %548 = "onnx.Constant"() {value = #onnx.dense_disposable<549:"0x0000000000000000"> : tensor<i64>} : () -> tensor<i64>
    %549 = "onnx.Constant"() {value = #onnx.dense_disposable<550:"0x0200000000000000"> : tensor<i64>} : () -> tensor<i64>
    %550 = "onnx.Constant"() {value = #onnx.dense_disposable<551:"0x0000000000000000"> : tensor<1xi64>} : () -> tensor<1xi64>
    %551 = "onnx.Constant"() {value = #onnx.dense_disposable<552:"0x0000000000000000"> : tensor<1xi64>} : () -> tensor<1xi64>
    %552 = "onnx.Constant"() {value = #onnx.dense_disposable<553:"0x0800000000000000"> : tensor<1xi64>} : () -> tensor<1xi64>
    %553 = "onnx.Constant"() {value = #onnx.dense_disposable<554:"0x0400000000000000"> : tensor<1xi64>} : () -> tensor<1xi64>
    %554 = "onnx.Constant"() {value = #onnx.dense_disposable<555:"0x4000000000000000"> : tensor<1xi64>} : () -> tensor<1xi64>
    %555 = "onnx.Constant"() {value = #onnx.dense_disposable<556:"0x2000000000000000"> : tensor<1xi64>} : () -> tensor<1xi64>
    %556 = "onnx.Constant"() {value = #onnx.dense_disposable<557:"0x4000000000000000"> : tensor<1xi64>} : () -> tensor<1xi64>
    %557 = "onnx.Constant"() {value = #onnx.dense_disposable<558:"…"> : tensor<5xi64>} : () -> tensor<5xi64>
    %558 = "onnx.Constant"() {value = #onnx.dense_disposable<559:"…"> : tensor<5xi64>} : () -> tensor<5xi64>
    %559 = "onnx.Constant"() {value = #onnx.dense_disposable<560:"0x0200000000000000"> : tensor<i64>} : () -> tensor<i64>
    %560 = "onnx.Constant"() {value = #onnx.dense_disposable<561:"0xF304B53E"> : tensor<1xf32>} : () -> tensor<1xf32>
    %561 = "onnx.Constant"() {value = #onnx.dense_disposable<562:"0x0000000000000000"> : tensor<1xi64>} : () -> tensor<1xi64>
    %562 = "onnx.Constant"() {value = #onnx.dense_disposable<563:"0x0000000000000000"> : tensor<1xi64>} : () -> tensor<1xi64>
    %563 = "onnx.Constant"() {value = #onnx.dense_disposable<564:"0x0300000000000000"> : tensor<1xi64>} : () -> tensor<1xi64>
    %564 = "onnx.Constant"() {value = #onnx.dense_disposable<565:"0x0100000000000000"> : tensor<1xi64>} : () -> tensor<1xi64>
    %565 = "onnx.Constant"() {value = #onnx.dense_disposable<566:"0x00000040"> : tensor<f32>} : () -> tensor<f32>
    %566 = "onnx.Constant"() {value = #onnx.dense_disposable<567:"0xACC52737"> : tensor<f32>} : () -> tensor<f32>
    %567 = "onnx.Constant"() {value = #onnx.dense_disposable<568:"0x0000803F"> : tensor<f32>} : () -> tensor<f32>
    %568 = "onnx.Constant"() {value = #onnx.dense_disposable<569:"…...
    %569 = "onnx.Constant"() {value = #onnx.dense_disposable<570:"0x00000040"> : tensor<f32>} : () -> tensor<f32>
    %570 = "onnx.Constant"() {value = #onnx.dense_disposable<571:"0xACC52737"> : tensor<f32>} : () -> tensor<f32>
    %571 = "onnx.Constant"() {value = #onnx.dense_disposable<572:"0x0000803F"> : tensor<f32>} : () -> tensor<f32>
    %572 = "onnx.Constant"() {value = #onnx.dense_disposable<573:"…...
    %573 = "onnx.Constant"() {value = #onnx.dense_disposable<574:"0x0000000000000000"> : tensor<i64>} : () -> tensor<i64>
    %574 = "onnx.Constant"() {value = #onnx.dense_disposable<575:"0x0100000000000000"> : tensor<i64>} : () -> tensor<i64>
    %575 = "onnx.Constant"() {value = #onnx.dense_disposable<576:"0x0000000000000000"> : tensor<1xi64>} : () -> tensor<1xi64>
    %576 = "onnx.Constant"() {value = #onnx.dense_disposable<577:"0x0000000000000000"> : tensor<1xi64>} : () -> tensor<1xi64>
    %577 = "onnx.Constant"() {value = #onnx.dense_disposable<578:"0x2000000000000000"> : tensor<1xi64>} : () -> tensor<1xi64>
    %578 = "onnx.Constant"() {value = #onnx.dense_disposable<579:"0x4000000000000000"> : tensor<1xi64>} : () -> tensor<1xi64>
    %579 = "onnx.Constant"() {value = #onnx.dense_disposable<580:"0x0800000000000000"> : tensor<1xi64>} : () -> tensor<1xi64>
    %580 = "onnx.Constant"() {value = #onnx.dense_disposable<581:"0x4000000000000000"> : tensor<1xi64>} : () -> tensor<1xi64>
    %581 = "onnx.Constant"() {value = #onnx.dense_disposable<582:"0xFFFFFFFFFFFFFFFF"> : tensor<1xi64>} : () -> tensor<1xi64>
    %582 = "onnx.Constant"() {value = #onnx.dense_disposable<583:"0x0000000000000000"> : tensor<1xi64>} : () -> tensor<1xi64>
    %583 = "onnx.Constant"() {value = #onnx.dense_disposable<584:"0x2000000000000000"> : tensor<1xi64>} : () -> tensor<1xi64>
    %584 = "onnx.Constant"() {value = #onnx.dense_disposable<585:"0x0300000000000000"> : tensor<1xi64>} : () -> tensor<1xi64>
    %585 = "onnx.Constant"() {value = #onnx.dense_disposable<586:"0x0100000000000000"> : tensor<1xi64>} : () -> tensor<1xi64>
    %586 = "onnx.Constant"() {value = #onnx.dense_disposable<587:"0x2000000000000000"> : tensor<1xi64>} : () -> tensor<1xi64>
    %587 = "onnx.Constant"() {value = #onnx.dense_disposable<588:"0xFFFFFFFFFFFFFF7F"> : tensor<1xi64>} : () -> tensor<1xi64>
    %588 = "onnx.Constant"() {value = #onnx.dense_disposable<589:"0x0300000000000000"> : tensor<1xi64>} : () -> tensor<1xi64>
    %589 = "onnx.Constant"() {value = #onnx.dense_disposable<590:"0x0100000000000000"> : tensor<1xi64>} : () -> tensor<1xi64>
    %590 = "onnx.Constant"() {value = #onnx.dense_disposable<591:"0x0000000000000000"> : tensor<1xi64>} : () -> tensor<1xi64>
    %591 = "onnx.Constant"() {value = #onnx.dense_disposable<592:"0x2000000000000000"> : tensor<1xi64>} : () -> tensor<1xi64>
    %592 = "onnx.Constant"() {value = #onnx.dense_disposable<593:"0x0300000000000000"> : tensor<1xi64>} : () -> tensor<1xi64>
    %593 = "onnx.Constant"() {value = #onnx.dense_disposable<594:"0x0100000000000000"> : tensor<1xi64>} : () -> tensor<1xi64>
    %594 = "onnx.Constant"() {value = #onnx.dense_disposable<595:"0x2000000000000000"> : tensor<1xi64>} : () -> tensor<1xi64>
    %595 = "onnx.Constant"() {value = #onnx.dense_disposable<596:"0xFFFFFFFFFFFFFF7F"> : tensor<1xi64>} : () -> tensor<1xi64>
    %596 = "onnx.Constant"() {value = #onnx.dense_disposable<597:"0x0300000000000000"> : tensor<1xi64>} : () -> tensor<1xi64>
    %597 = "onnx.Constant"() {value = #onnx.dense_disposable<598:"0x0100000000000000"> : tensor<1xi64>} : () -> tensor<1xi64>
    %598 = "onnx.Constant"() {value = #onnx.dense_disposable<599:"0x0200000000000000"> : tensor<1xi64>} : () -> tensor<1xi64>
    %599 = "onnx.Constant"() {value = #onnx.dense_disposable<600:"0x0000000000000000"> : tensor<i64>} : () -> tensor<i64>
    %600 = "onnx.Constant"() {value = #onnx.dense_disposable<601:"0x0200000000000000"> : tensor<i64>} : () -> tensor<i64>
    %601 = "onnx.Constant"() {value = #onnx.dense_disposable<602:"0x0000000000000000"> : tensor<1xi64>} : () -> tensor<1xi64>
    %602 = "onnx.Constant"() {value = #onnx.dense_disposable<603:"0x0000000000000000"> : tensor<1xi64>} : () -> tensor<1xi64>
    %603 = "onnx.Constant"() {value = #onnx.dense_disposable<604:"0x0800000000000000"> : tensor<1xi64>} : () -> tensor<1xi64>
    %604 = "onnx.Constant"() {value = #onnx.dense_disposable<605:"0x0400000000000000"> : tensor<1xi64>} : () -> tensor<1xi64>
    %605 = "onnx.Constant"() {value = #onnx.dense_disposable<606:"0x4000000000000000"> : tensor<1xi64>} : () -> tensor<1xi64>
    %606 = "onnx.Constant"() {value = #onnx.dense_disposable<607:"0x2000000000000000"> : tensor<1xi64>} : () -> tensor<1xi64>
    %607 = "onnx.Constant"() {value = #onnx.dense_disposable<608:"0x4000000000000000"> : tensor<1xi64>} : () -> tensor<1xi64>
    %608 = "onnx.Constant"() {value = #onnx.dense_disposable<609:"0xF304B53E"> : tensor<1xf32>} : () -> tensor<1xf32>
    %609 = "onnx.Constant"() {value = #onnx.dense_disposable<610:"…"> : tensor<5xi64>} : () -> tensor<5xi64>
    %610 = "onnx.Constant"() {value = #onnx.dense_disposable<611:"0x0200000000000000"> : tensor<1xi64>} : () -> tensor<1xi64>
    %611 = "onnx.Constant"() {value = #onnx.dense_disposable<612:"…"> : tensor<5xi64>} : () -> tensor<5xi64>
    %612 = "onnx.Constant"() {value = #onnx.dense_disposable<613:"0x0000000000000000"> : tensor<i64>} : () -> tensor<i64>
    %613 = "onnx.Constant"() {value = #onnx.dense_disposable<614:"0x0200000000000000"> : tensor<i64>} : () -> tensor<i64>
    %614 = "onnx.Constant"() {value = #onnx.dense_disposable<615:"0x0000000000000000"> : tensor<1xi64>} : () -> tensor<1xi64>
    %615 = "onnx.Constant"() {value = #onnx.dense_disposable<616:"0x0000000000000000"> : tensor<1xi64>} : () -> tensor<1xi64>
    %616 = "onnx.Constant"() {value = #onnx.dense_disposable<617:"0x0800000000000000"> : tensor<1xi64>} : () -> tensor<1xi64>
    %617 = "onnx.Constant"() {value = #onnx.dense_disposable<618:"0x0400000000000000"> : tensor<1xi64>} : () -> tensor<1xi64>
    %618 = "onnx.Constant"() {value = #onnx.dense_disposable<619:"0x4000000000000000"> : tensor<1xi64>} : () -> tensor<1xi64>
    %619 = "onnx.Constant"() {value = #onnx.dense_disposable<620:"0x2000000000000000"> : tensor<1xi64>} : () -> tensor<1xi64>
    %620 = "onnx.Constant"() {value = #onnx.dense_disposable<621:"0x4000000000000000"> : tensor<1xi64>} : () -> tensor<1xi64>
    %621 = "onnx.Constant"() {value = #onnx.dense_disposable<622:"…"> : tensor<5xi64>} : () -> tensor<5xi64>
    %622 = "onnx.Constant"() {value = #onnx.dense_disposable<623:"…"> : tensor<5xi64>} : () -> tensor<5xi64>
    %623 = "onnx.Constant"() {value = #onnx.dense_disposable<624:"0x0200000000000000"> : tensor<i64>} : () -> tensor<i64>
    %624 = "onnx.Constant"() {value = #onnx.dense_disposable<625:"0xF304B53E"> : tensor<1xf32>} : () -> tensor<1xf32>
    %625 = "onnx.Constant"() {value = #onnx.dense_disposable<626:"0x0000000000000000"> : tensor<1xi64>} : () -> tensor<1xi64>
    %626 = "onnx.Constant"() {value = #onnx.dense_disposable<627:"0x0000000000000000"> : tensor<1xi64>} : () -> tensor<1xi64>
    %627 = "onnx.Constant"() {value = #onnx.dense_disposable<628:"0x0300000000000000"> : tensor<1xi64>} : () -> tensor<1xi64>
    %628 = "onnx.Constant"() {value = #onnx.dense_disposable<629:"0x0100000000000000"> : tensor<1xi64>} : () -> tensor<1xi64>
    %629 = "onnx.Constant"() {value = #onnx.dense_disposable<630:"0x00000040"> : tensor<f32>} : () -> tensor<f32>
    %630 = "onnx.Constant"() {value = #onnx.dense_disposable<631:"0xACC52737"> : tensor<f32>} : () -> tensor<f32>
    %631 = "onnx.Constant"() {value = #onnx.dense_disposable<632:"0x0000803F"> : tensor<f32>} : () -> tensor<f32>
    %632 = "onnx.Constant"() {value = #onnx.dense_disposable<633:"…...
    %633 = "onnx.Constant"() {value = #onnx.dense_disposable<634:"0x00000040"> : tensor<f32>} : () -> tensor<f32>
    %634 = "onnx.Constant"() {value = #onnx.dense_disposable<635:"0xACC52737"> : tensor<f32>} : () -> tensor<f32>
    %635 = "onnx.Constant"() {value = #onnx.dense_disposable<636:"0x0000803F"> : tensor<f32>} : () -> tensor<f32>
    %636 = "onnx.Constant"() {value = #onnx.dense_disposable<637:"…...
    %637 = "onnx.Constant"() {value = #onnx.dense_disposable<638:"0x0000000000000000"> : tensor<i64>} : () -> tensor<i64>
    %638 = "onnx.Constant"() {value = #onnx.dense_disposable<639:"0x0100000000000000"> : tensor<i64>} : () -> tensor<i64>
    %639 = "onnx.Constant"() {value = #onnx.dense_disposable<640:"0x0000000000000000"> : tensor<1xi64>} : () -> tensor<1xi64>
    %640 = "onnx.Constant"() {value = #onnx.dense_disposable<641:"0x0000000000000000"> : tensor<1xi64>} : () -> tensor<1xi64>
    %641 = "onnx.Constant"() {value = #onnx.dense_disposable<642:"0x2000000000000000"> : tensor<1xi64>} : () -> tensor<1xi64>
    %642 = "onnx.Constant"() {value = #onnx.dense_disposable<643:"0x4000000000000000"> : tensor<1xi64>} : () -> tensor<1xi64>
    %643 = "onnx.Constant"() {value = #onnx.dense_disposable<644:"0x0800000000000000"> : tensor<1xi64>} : () -> tensor<1xi64>
    %644 = "onnx.Constant"() {value = #onnx.dense_disposable<645:"0x4000000000000000"> : tensor<1xi64>} : () -> tensor<1xi64>
    %645 = "onnx.Constant"() {value = #onnx.dense_disposable<646:"0xFFFFFFFFFFFFFFFF"> : tensor<1xi64>} : () -> tensor<1xi64>
    %646 = "onnx.Constant"() {value = #onnx.dense_disposable<647:"0x0000000000000000"> : tensor<1xi64>} : () -> tensor<1xi64>
    %647 = "onnx.Constant"() {value = #onnx.dense_disposable<648:"0x2000000000000000"> : tensor<1xi64>} : () -> tensor<1xi64>
    %648 = "onnx.Constant"() {value = #onnx.dense_disposable<649:"0x0300000000000000"> : tensor<1xi64>} : () -> tensor<1xi64>
    %649 = "onnx.Constant"() {value = #onnx.dense_disposable<650:"0x0100000000000000"> : tensor<1xi64>} : () -> tensor<1xi64>
    %650 = "onnx.Constant"() {value = #onnx.dense_disposable<651:"0x2000000000000000"> : tensor<1xi64>} : () -> tensor<1xi64>
    %651 = "onnx.Constant"() {value = #onnx.dense_disposable<652:"0xFFFFFFFFFFFFFF7F"> : tensor<1xi64>} : () -> tensor<1xi64>
    %652 = "onnx.Constant"() {value = #onnx.dense_disposable<653:"0x0300000000000000"> : tensor<1xi64>} : () -> tensor<1xi64>
    %653 = "onnx.Constant"() {value = #onnx.dense_disposable<654:"0x0100000000000000"> : tensor<1xi64>} : () -> tensor<1xi64>
    %654 = "onnx.Constant"() {value = #onnx.dense_disposable<655:"0x0000000000000000"> : tensor<1xi64>} : () -> tensor<1xi64>
    %655 = "onnx.Constant"() {value = #onnx.dense_disposable<656:"0x2000000000000000"> : tensor<1xi64>} : () -> tensor<1xi64>
    %656 = "onnx.Constant"() {value = #onnx.dense_disposable<657:"0x0300000000000000"> : tensor<1xi64>} : () -> tensor<1xi64>
    %657 = "onnx.Constant"() {value = #onnx.dense_disposable<658:"0x0100000000000000"> : tensor<1xi64>} : () -> tensor<1xi64>
    %658 = "onnx.Constant"() {value = #onnx.dense_disposable<659:"0x2000000000000000"> : tensor<1xi64>} : () -> tensor<1xi64>
    %659 = "onnx.Constant"() {value = #onnx.dense_disposable<660:"0xFFFFFFFFFFFFFF7F"> : tensor<1xi64>} : () -> tensor<1xi64>
    %660 = "onnx.Constant"() {value = #onnx.dense_disposable<661:"0x0300000000000000"> : tensor<1xi64>} : () -> tensor<1xi64>
    %661 = "onnx.Constant"() {value = #onnx.dense_disposable<662:"0x0100000000000000"> : tensor<1xi64>} : () -> tensor<1xi64>
    %662 = "onnx.Constant"() {value = #onnx.dense_disposable<663:"0x0200000000000000"> : tensor<1xi64>} : () -> tensor<1xi64>
    %663 = "onnx.Constant"() {value = #onnx.dense_disposable<664:"0x0000000000000000"> : tensor<i64>} : () -> tensor<i64>
    %664 = "onnx.Constant"() {value = #onnx.dense_disposable<665:"0x0200000000000000"> : tensor<i64>} : () -> tensor<i64>
    %665 = "onnx.Constant"() {value = #onnx.dense_disposable<666:"0x0000000000000000"> : tensor<1xi64>} : () -> tensor<1xi64>
    %666 = "onnx.Constant"() {value = #onnx.dense_disposable<667:"0x0000000000000000"> : tensor<1xi64>} : () -> tensor<1xi64>
    %667 = "onnx.Constant"() {value = #onnx.dense_disposable<668:"0x0800000000000000"> : tensor<1xi64>} : () -> tensor<1xi64>
    %668 = "onnx.Constant"() {value = #onnx.dense_disposable<669:"0x0400000000000000"> : tensor<1xi64>} : () -> tensor<1xi64>
    %669 = "onnx.Constant"() {value = #onnx.dense_disposable<670:"0x4000000000000000"> : tensor<1xi64>} : () -> tensor<1xi64>
    %670 = "onnx.Constant"() {value = #onnx.dense_disposable<671:"0x2000000000000000"> : tensor<1xi64>} : () -> tensor<1xi64>
    %671 = "onnx.Constant"() {value = #onnx.dense_disposable<672:"0x4000000000000000"> : tensor<1xi64>} : () -> tensor<1xi64>
    %672 = "onnx.Constant"() {value = #onnx.dense_disposable<673:"0xF304B53E"> : tensor<1xf32>} : () -> tensor<1xf32>
    %673 = "onnx.Constant"() {value = #onnx.dense_disposable<674:"…"> : tensor<5xi64>} : () -> tensor<5xi64>
    %674 = "onnx.Constant"() {value = #onnx.dense_disposable<675:"0x0200000000000000"> : tensor<1xi64>} : () -> tensor<1xi64>
    %675 = "onnx.Constant"() {value = #onnx.dense_disposable<676:"…"> : tensor<5xi64>} : () -> tensor<5xi64>
    %676 = "onnx.Constant"() {value = #onnx.dense_disposable<677:"0x0000000000000000"> : tensor<i64>} : () -> tensor<i64>
    %677 = "onnx.Constant"() {value = #onnx.dense_disposable<678:"0x0200000000000000"> : tensor<i64>} : () -> tensor<i64>
    %678 = "onnx.Constant"() {value = #onnx.dense_disposable<679:"0x0000000000000000"> : tensor<1xi64>} : () -> tensor<1xi64>
    %679 = "onnx.Constant"() {value = #onnx.dense_disposable<680:"0x0000000000000000"> : tensor<1xi64>} : () -> tensor<1xi64>
    %680 = "onnx.Constant"() {value = #onnx.dense_disposable<681:"0x0800000000000000"> : tensor<1xi64>} : () -> tensor<1xi64>
    %681 = "onnx.Constant"() {value = #onnx.dense_disposable<682:"0x0400000000000000"> : tensor<1xi64>} : () -> tensor<1xi64>
    %682 = "onnx.Constant"() {value = #onnx.dense_disposable<683:"0x4000000000000000"> : tensor<1xi64>} : () -> tensor<1xi64>
    %683 = "onnx.Constant"() {value = #onnx.dense_disposable<684:"0x2000000000000000"> : tensor<1xi64>} : () -> tensor<1xi64>
    %684 = "onnx.Constant"() {value = #onnx.dense_disposable<685:"0x4000000000000000"> : tensor<1xi64>} : () -> tensor<1xi64>
    %685 = "onnx.Constant"() {value = #onnx.dense_disposable<686:"…"> : tensor<5xi64>} : () -> tensor<5xi64>
    %686 = "onnx.Constant"() {value = #onnx.dense_disposable<687:"…"> : tensor<5xi64>} : () -> tensor<5xi64>
    %687 = "onnx.Constant"() {value = #onnx.dense_disposable<688:"0x0200000000000000"> : tensor<i64>} : () -> tensor<i64>
    %688 = "onnx.Constant"() {value = #onnx.dense_disposable<689:"0xF304B53E"> : tensor<1xf32>} : () -> tensor<1xf32>
    %689 = "onnx.Constant"() {value = #onnx.dense_disposable<690:"0x0000000000000000"> : tensor<1xi64>} : () -> tensor<1xi64>
    %690 = "onnx.Constant"() {value = #onnx.dense_disposable<691:"0x0000000000000000"> : tensor<1xi64>} : () -> tensor<1xi64>
    %691 = "onnx.Constant"() {value = #onnx.dense_disposable<692:"0x0300000000000000"> : tensor<1xi64>} : () -> tensor<1xi64>
    %692 = "onnx.Constant"() {value = #onnx.dense_disposable<693:"0x0100000000000000"> : tensor<1xi64>} : () -> tensor<1xi64>
    %693 = "onnx.Constant"() {value = #onnx.dense_disposable<694:"0x00000040"> : tensor<f32>} : () -> tensor<f32>
    %694 = "onnx.Constant"() {value = #onnx.dense_disposable<695:"0xACC52737"> : tensor<f32>} : () -> tensor<f32>
    %695 = "onnx.Constant"() {value = #onnx.dense_disposable<696:"0x0000803F"> : tensor<f32>} : () -> tensor<f32>
    %696 = "onnx.Constant"() {value = #onnx.dense_disposable<697:"…...
    %697 = "onnx.Constant"() {value = #onnx.dense_disposable<698:"0x00000040"> : tensor<f32>} : () -> tensor<f32>
    %698 = "onnx.Constant"() {value = #onnx.dense_disposable<699:"0xACC52737"> : tensor<f32>} : () -> tensor<f32>
    %699 = "onnx.Constant"() {value = #onnx.dense_disposable<700:"0x0000803F"> : tensor<f32>} : () -> tensor<f32>
    %700 = "onnx.Constant"() {value = #onnx.dense_disposable<701:"…...
    %701 = "onnx.Constant"() {value = #onnx.dense_disposable<702:"0x0000000000000000"> : tensor<i64>} : () -> tensor<i64>
    %702 = "onnx.Constant"() {value = #onnx.dense_disposable<703:"0x0100000000000000"> : tensor<i64>} : () -> tensor<i64>
    %703 = "onnx.Constant"() {value = #onnx.dense_disposable<704:"0x0000000000000000"> : tensor<1xi64>} : () -> tensor<1xi64>
    %704 = "onnx.Constant"() {value = #onnx.dense_disposable<705:"0x0000000000000000"> : tensor<1xi64>} : () -> tensor<1xi64>
    %705 = "onnx.Constant"() {value = #onnx.dense_disposable<706:"0x2000000000000000"> : tensor<1xi64>} : () -> tensor<1xi64>
    %706 = "onnx.Constant"() {value = #onnx.dense_disposable<707:"0x4000000000000000"> : tensor<1xi64>} : () -> tensor<1xi64>
    %707 = "onnx.Constant"() {value = #onnx.dense_disposable<708:"0x0800000000000000"> : tensor<1xi64>} : () -> tensor<1xi64>
    %708 = "onnx.Constant"() {value = #onnx.dense_disposable<709:"0x4000000000000000"> : tensor<1xi64>} : () -> tensor<1xi64>
    %709 = "onnx.Constant"() {value = #onnx.dense_disposable<710:"0xFFFFFFFFFFFFFFFF"> : tensor<1xi64>} : () -> tensor<1xi64>
    %710 = "onnx.Constant"() {value = #onnx.dense_disposable<711:"0x0000000000000000"> : tensor<1xi64>} : () -> tensor<1xi64>
    %711 = "onnx.Constant"() {value = #onnx.dense_disposable<712:"0x2000000000000000"> : tensor<1xi64>} : () -> tensor<1xi64>
    %712 = "onnx.Constant"() {value = #onnx.dense_disposable<713:"0x0300000000000000"> : tensor<1xi64>} : () -> tensor<1xi64>
    %713 = "onnx.Constant"() {value = #onnx.dense_disposable<714:"0x0100000000000000"> : tensor<1xi64>} : () -> tensor<1xi64>
    %714 = "onnx.Constant"() {value = #onnx.dense_disposable<715:"0x2000000000000000"> : tensor<1xi64>} : () -> tensor<1xi64>
    %715 = "onnx.Constant"() {value = #onnx.dense_disposable<716:"0xFFFFFFFFFFFFFF7F"> : tensor<1xi64>} : () -> tensor<1xi64>
    %716 = "onnx.Constant"() {value = #onnx.dense_disposable<717:"0x0300000000000000"> : tensor<1xi64>} : () -> tensor<1xi64>
    %717 = "onnx.Constant"() {value = #onnx.dense_disposable<718:"0x0100000000000000"> : tensor<1xi64>} : () -> tensor<1xi64>
    %718 = "onnx.Constant"() {value = #onnx.dense_disposable<719:"0x0000000000000000"> : tensor<1xi64>} : () -> tensor<1xi64>
    %719 = "onnx.Constant"() {value = #onnx.dense_disposable<720:"0x2000000000000000"> : tensor<1xi64>} : () -> tensor<1xi64>
    %720 = "onnx.Constant"() {value = #onnx.dense_disposable<721:"0x0300000000000000"> : tensor<1xi64>} : () -> tensor<1xi64>
    %721 = "onnx.Constant"() {value = #onnx.dense_disposable<722:"0x0100000000000000"> : tensor<1xi64>} : () -> tensor<1xi64>
    %722 = "onnx.Constant"() {value = #onnx.dense_disposable<723:"0x2000000000000000"> : tensor<1xi64>} : () -> tensor<1xi64>
    %723 = "onnx.Constant"() {value = #onnx.dense_disposable<724:"0xFFFFFFFFFFFFFF7F"> : tensor<1xi64>} : () -> tensor<1xi64>
    %724 = "onnx.Constant"() {value = #onnx.dense_disposable<725:"0x0300000000000000"> : tensor<1xi64>} : () -> tensor<1xi64>
    %725 = "onnx.Constant"() {value = #onnx.dense_disposable<726:"0x0100000000000000"> : tensor<1xi64>} : () -> tensor<1xi64>
    %726 = "onnx.Constant"() {value = #onnx.dense_disposable<727:"0x0200000000000000"> : tensor<1xi64>} : () -> tensor<1xi64>
    %727 = "onnx.Constant"() {value = #onnx.dense_disposable<728:"0x0000000000000000"> : tensor<i64>} : () -> tensor<i64>
    %728 = "onnx.Constant"() {value = #onnx.dense_disposable<729:"0x0200000000000000"> : tensor<i64>} : () -> tensor<i64>
    %729 = "onnx.Constant"() {value = #onnx.dense_disposable<730:"0x0000000000000000"> : tensor<1xi64>} : () -> tensor<1xi64>
    %730 = "onnx.Constant"() {value = #onnx.dense_disposable<731:"0x0000000000000000"> : tensor<1xi64>} : () -> tensor<1xi64>
    %731 = "onnx.Constant"() {value = #onnx.dense_disposable<732:"0x0800000000000000"> : tensor<1xi64>} : () -> tensor<1xi64>
    %732 = "onnx.Constant"() {value = #onnx.dense_disposable<733:"0x0400000000000000"> : tensor<1xi64>} : () -> tensor<1xi64>
    %733 = "onnx.Constant"() {value = #onnx.dense_disposable<734:"0x4000000000000000"> : tensor<1xi64>} : () -> tensor<1xi64>
    %734 = "onnx.Constant"() {value = #onnx.dense_disposable<735:"0x2000000000000000"> : tensor<1xi64>} : () -> tensor<1xi64>
    %735 = "onnx.Constant"() {value = #onnx.dense_disposable<736:"0x4000000000000000"> : tensor<1xi64>} : () -> tensor<1xi64>
    %736 = "onnx.Constant"() {value = #onnx.dense_disposable<737:"0xF304B53E"> : tensor<1xf32>} : () -> tensor<1xf32>
    %737 = "onnx.Constant"() {value = #onnx.dense_disposable<738:"…"> : tensor<5xi64>} : () -> tensor<5xi64>
    %738 = "onnx.Constant"() {value = #onnx.dense_disposable<739:"0x0200000000000000"> : tensor<1xi64>} : () -> tensor<1xi64>
    %739 = "onnx.Constant"() {value = #onnx.dense_disposable<740:"…"> : tensor<5xi64>} : () -> tensor<5xi64>
    %740 = "onnx.Constant"() {value = #onnx.dense_disposable<741:"0x0000000000000000"> : tensor<i64>} : () -> tensor<i64>
    %741 = "onnx.Constant"() {value = #onnx.dense_disposable<742:"0x0200000000000000"> : tensor<i64>} : () -> tensor<i64>
    %742 = "onnx.Constant"() {value = #onnx.dense_disposable<743:"0x0000000000000000"> : tensor<1xi64>} : () -> tensor<1xi64>
    %743 = "onnx.Constant"() {value = #onnx.dense_disposable<744:"0x0000000000000000"> : tensor<1xi64>} : () -> tensor<1xi64>
    %744 = "onnx.Constant"() {value = #onnx.dense_disposable<745:"0x0800000000000000"> : tensor<1xi64>} : () -> tensor<1xi64>
    %745 = "onnx.Constant"() {value = #onnx.dense_disposable<746:"0x0400000000000000"> : tensor<1xi64>} : () -> tensor<1xi64>
    %746 = "onnx.Constant"() {value = #onnx.dense_disposable<747:"0x4000000000000000"> : tensor<1xi64>} : () -> tensor<1xi64>
    %747 = "onnx.Constant"() {value = #onnx.dense_disposable<748:"0x2000000000000000"> : tensor<1xi64>} : () -> tensor<1xi64>
    %748 = "onnx.Constant"() {value = #onnx.dense_disposable<749:"0x4000000000000000"> : tensor<1xi64>} : () -> tensor<1xi64>
    %749 = "onnx.Constant"() {value = #onnx.dense_disposable<750:"…"> : tensor<5xi64>} : () -> tensor<5xi64>
    %750 = "onnx.Constant"() {value = #onnx.dense_disposable<751:"…"> : tensor<5xi64>} : () -> tensor<5xi64>
    %751 = "onnx.Constant"() {value = #onnx.dense_disposable<752:"0x0200000000000000"> : tensor<i64>} : () -> tensor<i64>
    %752 = "onnx.Constant"() {value = #onnx.dense_disposable<753:"0xF304B53E"> : tensor<1xf32>} : () -> tensor<1xf32>
    %753 = "onnx.Constant"() {value = #onnx.dense_disposable<754:"0x0000000000000000"> : tensor<1xi64>} : () -> tensor<1xi64>
    %754 = "onnx.Constant"() {value = #onnx.dense_disposable<755:"0x0000000000000000"> : tensor<1xi64>} : () -> tensor<1xi64>
    %755 = "onnx.Constant"() {value = #onnx.dense_disposable<756:"0x0300000000000000"> : tensor<1xi64>} : () -> tensor<1xi64>
    %756 = "onnx.Constant"() {value = #onnx.dense_disposable<757:"0x0100000000000000"> : tensor<1xi64>} : () -> tensor<1xi64>
    %757 = "onnx.Constant"() {value = #onnx.dense_disposable<758:"0x00000040"> : tensor<f32>} : () -> tensor<f32>
    %758 = "onnx.Constant"() {value = #onnx.dense_disposable<759:"0xACC52737"> : tensor<f32>} : () -> tensor<f32>
    %759 = "onnx.Constant"() {value = #onnx.dense_disposable<760:"0x0000803F"> : tensor<f32>} : () -> tensor<f32>
    %760 = "onnx.Constant"() {value = #onnx.dense_disposable<761:"…...
    %761 = "onnx.Constant"() {value = #onnx.dense_disposable<762:"0x00000040"> : tensor<f32>} : () -> tensor<f32>
    %762 = "onnx.Constant"() {value = #onnx.dense_disposable<763:"0xACC52737"> : tensor<f32>} : () -> tensor<f32>
    %763 = "onnx.Constant"() {value = #onnx.dense_disposable<764:"0x0000803F"> : tensor<f32>} : () -> tensor<f32>
    %764 = "onnx.Constant"() {value = #onnx.dense_disposable<765:"…...
    %765 = "onnx.Constant"() {value = #onnx.dense_disposable<766:"0x0000000000000000"> : tensor<i64>} : () -> tensor<i64>
    %766 = "onnx.Constant"() {value = #onnx.dense_disposable<767:"0x0100000000000000"> : tensor<i64>} : () -> tensor<i64>
    %767 = "onnx.Constant"() {value = #onnx.dense_disposable<768:"0x0000000000000000"> : tensor<1xi64>} : () -> tensor<1xi64>
    %768 = "onnx.Constant"() {value = #onnx.dense_disposable<769:"0x0000000000000000"> : tensor<1xi64>} : () -> tensor<1xi64>
    %769 = "onnx.Constant"() {value = #onnx.dense_disposable<770:"0x2000000000000000"> : tensor<1xi64>} : () -> tensor<1xi64>
    %770 = "onnx.Constant"() {value = #onnx.dense_disposable<771:"0x4000000000000000"> : tensor<1xi64>} : () -> tensor<1xi64>
    %771 = "onnx.Constant"() {value = #onnx.dense_disposable<772:"0x0800000000000000"> : tensor<1xi64>} : () -> tensor<1xi64>
    %772 = "onnx.Constant"() {value = #onnx.dense_disposable<773:"0x4000000000000000"> : tensor<1xi64>} : () -> tensor<1xi64>
    %773 = "onnx.Constant"() {value = #onnx.dense_disposable<774:"0xFFFFFFFFFFFFFFFF"> : tensor<1xi64>} : () -> tensor<1xi64>
    %774 = "onnx.Constant"() {value = #onnx.dense_disposable<775:"0x0000000000000000"> : tensor<1xi64>} : () -> tensor<1xi64>
    %775 = "onnx.Constant"() {value = #onnx.dense_disposable<776:"0x2000000000000000"> : tensor<1xi64>} : () -> tensor<1xi64>
    %776 = "onnx.Constant"() {value = #onnx.dense_disposable<777:"0x0300000000000000"> : tensor<1xi64>} : () -> tensor<1xi64>
    %777 = "onnx.Constant"() {value = #onnx.dense_disposable<778:"0x0100000000000000"> : tensor<1xi64>} : () -> tensor<1xi64>
    %778 = "onnx.Constant"() {value = #onnx.dense_disposable<779:"0x2000000000000000"> : tensor<1xi64>} : () -> tensor<1xi64>
    %779 = "onnx.Constant"() {value = #onnx.dense_disposable<780:"0xFFFFFFFFFFFFFF7F"> : tensor<1xi64>} : () -> tensor<1xi64>
    %780 = "onnx.Constant"() {value = #onnx.dense_disposable<781:"0x0300000000000000"> : tensor<1xi64>} : () -> tensor<1xi64>
    %781 = "onnx.Constant"() {value = #onnx.dense_disposable<782:"0x0100000000000000"> : tensor<1xi64>} : () -> tensor<1xi64>
    %782 = "onnx.Constant"() {value = #onnx.dense_disposable<783:"0x0000000000000000"> : tensor<1xi64>} : () -> tensor<1xi64>
    %783 = "onnx.Constant"() {value = #onnx.dense_disposable<784:"0x2000000000000000"> : tensor<1xi64>} : () -> tensor<1xi64>
    %784 = "onnx.Constant"() {value = #onnx.dense_disposable<785:"0x0300000000000000"> : tensor<1xi64>} : () -> tensor<1xi64>
    %785 = "onnx.Constant"() {value = #onnx.dense_disposable<786:"0x0100000000000000"> : tensor<1xi64>} : () -> tensor<1xi64>
    %786 = "onnx.Constant"() {value = #onnx.dense_disposable<787:"0x2000000000000000"> : tensor<1xi64>} : () -> tensor<1xi64>
    %787 = "onnx.Constant"() {value = #onnx.dense_disposable<788:"0xFFFFFFFFFFFFFF7F"> : tensor<1xi64>} : () -> tensor<1xi64>
    %788 = "onnx.Constant"() {value = #onnx.dense_disposable<789:"0x0300000000000000"> : tensor<1xi64>} : () -> tensor<1xi64>
    %789 = "onnx.Constant"() {value = #onnx.dense_disposable<790:"0x0100000000000000"> : tensor<1xi64>} : () -> tensor<1xi64>
    %790 = "onnx.Constant"() {value = #onnx.dense_disposable<791:"0x0200000000000000"> : tensor<1xi64>} : () -> tensor<1xi64>
    %791 = "onnx.Constant"() {value = #onnx.dense_disposable<792:"0x0000000000000000"> : tensor<i64>} : () -> tensor<i64>
    %792 = "onnx.Constant"() {value = #onnx.dense_disposable<793:"0x0200000000000000"> : tensor<i64>} : () -> tensor<i64>
    %793 = "onnx.Constant"() {value = #onnx.dense_disposable<794:"0x0000000000000000"> : tensor<1xi64>} : () -> tensor<1xi64>
    %794 = "onnx.Constant"() {value = #onnx.dense_disposable<795:"0x0000000000000000"> : tensor<1xi64>} : () -> tensor<1xi64>
    %795 = "onnx.Constant"() {value = #onnx.dense_disposable<796:"0x0800000000000000"> : tensor<1xi64>} : () -> tensor<1xi64>
    %796 = "onnx.Constant"() {value = #onnx.dense_disposable<797:"0x0400000000000000"> : tensor<1xi64>} : () -> tensor<1xi64>
    %797 = "onnx.Constant"() {value = #onnx.dense_disposable<798:"0x4000000000000000"> : tensor<1xi64>} : () -> tensor<1xi64>
    %798 = "onnx.Constant"() {value = #onnx.dense_disposable<799:"0x2000000000000000"> : tensor<1xi64>} : () -> tensor<1xi64>
    %799 = "onnx.Constant"() {value = #onnx.dense_disposable<800:"0x4000000000000000"> : tensor<1xi64>} : () -> tensor<1xi64>
    %800 = "onnx.Constant"() {value = #onnx.dense_disposable<801:"0xF304B53E"> : tensor<1xf32>} : () -> tensor<1xf32>
    %801 = "onnx.Constant"() {value = #onnx.dense_disposable<802:"…"> : tensor<5xi64>} : () -> tensor<5xi64>
    %802 = "onnx.Constant"() {value = #onnx.dense_disposable<803:"0x0200000000000000"> : tensor<1xi64>} : () -> tensor<1xi64>
    %803 = "onnx.Constant"() {value = #onnx.dense_disposable<804:"…"> : tensor<5xi64>} : () -> tensor<5xi64>
    %804 = "onnx.Constant"() {value = #onnx.dense_disposable<805:"0x0000000000000000"> : tensor<i64>} : () -> tensor<i64>
    %805 = "onnx.Constant"() {value = #onnx.dense_disposable<806:"0x0200000000000000"> : tensor<i64>} : () -> tensor<i64>
    %806 = "onnx.Constant"() {value = #onnx.dense_disposable<807:"0x0000000000000000"> : tensor<1xi64>} : () -> tensor<1xi64>
    %807 = "onnx.Constant"() {value = #onnx.dense_disposable<808:"0x0000000000000000"> : tensor<1xi64>} : () -> tensor<1xi64>
    %808 = "onnx.Constant"() {value = #onnx.dense_disposable<809:"0x0800000000000000"> : tensor<1xi64>} : () -> tensor<1xi64>
    %809 = "onnx.Constant"() {value = #onnx.dense_disposable<810:"0x0400000000000000"> : tensor<1xi64>} : () -> tensor<1xi64>
    %810 = "onnx.Constant"() {value = #onnx.dense_disposable<811:"0x4000000000000000"> : tensor<1xi64>} : () -> tensor<1xi64>
    %811 = "onnx.Constant"() {value = #onnx.dense_disposable<812:"0x2000000000000000"> : tensor<1xi64>} : () -> tensor<1xi64>
    %812 = "onnx.Constant"() {value = #onnx.dense_disposable<813:"0x4000000000000000"> : tensor<1xi64>} : () -> tensor<1xi64>
    %813 = "onnx.Constant"() {value = #onnx.dense_disposable<814:"…"> : tensor<5xi64>} : () -> tensor<5xi64>
    %814 = "onnx.Constant"() {value = #onnx.dense_disposable<815:"…"> : tensor<5xi64>} : () -> tensor<5xi64>
    %815 = "onnx.Constant"() {value = #onnx.dense_disposable<816:"0x0200000000000000"> : tensor<i64>} : () -> tensor<i64>
    %816 = "onnx.Constant"() {value = #onnx.dense_disposable<817:"0xF304B53E"> : tensor<1xf32>} : () -> tensor<1xf32>
    %817 = "onnx.Constant"() {value = #onnx.dense_disposable<818:"0x0000000000000000"> : tensor<1xi64>} : () -> tensor<1xi64>
    %818 = "onnx.Constant"() {value = #onnx.dense_disposable<819:"0x0000000000000000"> : tensor<1xi64>} : () -> tensor<1xi64>
    %819 = "onnx.Constant"() {value = #onnx.dense_disposable<820:"0x0300000000000000"> : tensor<1xi64>} : () -> tensor<1xi64>
    %820 = "onnx.Constant"() {value = #onnx.dense_disposable<821:"0x0100000000000000"> : tensor<1xi64>} : () -> tensor<1xi64>
    %821 = "onnx.Constant"() {value = #onnx.dense_disposable<822:"0x00000040"> : tensor<f32>} : () -> tensor<f32>
    %822 = "onnx.Constant"() {value = #onnx.dense_disposable<823:"0xACC52737"> : tensor<f32>} : () -> tensor<f32>
    %823 = "onnx.Constant"() {value = #onnx.dense_disposable<824:"0x0000803F"> : tensor<f32>} : () -> tensor<f32>
    %824 = "onnx.Constant"() {value = #onnx.dense_disposable<825:"…...
    %825 = "onnx.Constant"() {value = #onnx.dense_disposable<826:"0x00000040"> : tensor<f32>} : () -> tensor<f32>
    %826 = "onnx.Constant"() {value = #onnx.dense_disposable<827:"0xACC52737"> : tensor<f32>} : () -> tensor<f32>
    %827 = "onnx.Constant"() {value = #onnx.dense_disposable<828:"0x0000803F"> : tensor<f32>} : () -> tensor<f32>
    %828 = "onnx.Constant"() {value = #onnx.dense_disposable<829:"…...
    %829 = "onnx.Constant"() {value = #onnx.dense_disposable<830:"0x0000000000000000"> : tensor<i64>} : () -> tensor<i64>
    %830 = "onnx.Constant"() {value = #onnx.dense_disposable<831:"0x0100000000000000"> : tensor<i64>} : () -> tensor<i64>
    %831 = "onnx.Constant"() {value = #onnx.dense_disposable<832:"0x0000000000000000"> : tensor<1xi64>} : () -> tensor<1xi64>
    %832 = "onnx.Constant"() {value = #onnx.dense_disposable<833:"0x0000000000000000"> : tensor<1xi64>} : () -> tensor<1xi64>
    %833 = "onnx.Constant"() {value = #onnx.dense_disposable<834:"0x2000000000000000"> : tensor<1xi64>} : () -> tensor<1xi64>
    %834 = "onnx.Constant"() {value = #onnx.dense_disposable<835:"0x4000000000000000"> : tensor<1xi64>} : () -> tensor<1xi64>
    %835 = "onnx.Constant"() {value = #onnx.dense_disposable<836:"0x0800000000000000"> : tensor<1xi64>} : () -> tensor<1xi64>
    %836 = "onnx.Constant"() {value = #onnx.dense_disposable<837:"0x4000000000000000"> : tensor<1xi64>} : () -> tensor<1xi64>
    %837 = "onnx.Constant"() {value = #onnx.dense_disposable<838:"0xFFFFFFFFFFFFFFFF"> : tensor<1xi64>} : () -> tensor<1xi64>
    %838 = "onnx.Constant"() {value = #onnx.dense_disposable<839:"0x0000000000000000"> : tensor<1xi64>} : () -> tensor<1xi64>
    %839 = "onnx.Constant"() {value = #onnx.dense_disposable<840:"0x2000000000000000"> : tensor<1xi64>} : () -> tensor<1xi64>
    %840 = "onnx.Constant"() {value = #onnx.dense_disposable<841:"0x0300000000000000"> : tensor<1xi64>} : () -> tensor<1xi64>
    %841 = "onnx.Constant"() {value = #onnx.dense_disposable<842:"0x0100000000000000"> : tensor<1xi64>} : () -> tensor<1xi64>
    %842 = "onnx.Constant"() {value = #onnx.dense_disposable<843:"0x2000000000000000"> : tensor<1xi64>} : () -> tensor<1xi64>
    %843 = "onnx.Constant"() {value = #onnx.dense_disposable<844:"0xFFFFFFFFFFFFFF7F"> : tensor<1xi64>} : () -> tensor<1xi64>
    %844 = "onnx.Constant"() {value = #onnx.dense_disposable<845:"0x0300000000000000"> : tensor<1xi64>} : () -> tensor<1xi64>
    %845 = "onnx.Constant"() {value = #onnx.dense_disposable<846:"0x0100000000000000"> : tensor<1xi64>} : () -> tensor<1xi64>
    %846 = "onnx.Constant"() {value = #onnx.dense_disposable<847:"0x0000000000000000"> : tensor<1xi64>} : () -> tensor<1xi64>
    %847 = "onnx.Constant"() {value = #onnx.dense_disposable<848:"0x2000000000000000"> : tensor<1xi64>} : () -> tensor<1xi64>
    %848 = "onnx.Constant"() {value = #onnx.dense_disposable<849:"0x0300000000000000"> : tensor<1xi64>} : () -> tensor<1xi64>
    %849 = "onnx.Constant"() {value = #onnx.dense_disposable<850:"0x0100000000000000"> : tensor<1xi64>} : () -> tensor<1xi64>
    %850 = "onnx.Constant"() {value = #onnx.dense_disposable<851:"0x2000000000000000"> : tensor<1xi64>} : () -> tensor<1xi64>
    %851 = "onnx.Constant"() {value = #onnx.dense_disposable<852:"0xFFFFFFFFFFFFFF7F"> : tensor<1xi64>} : () -> tensor<1xi64>
    %852 = "onnx.Constant"() {value = #onnx.dense_disposable<853:"0x0300000000000000"> : tensor<1xi64>} : () -> tensor<1xi64>
    %853 = "onnx.Constant"() {value = #onnx.dense_disposable<854:"0x0100000000000000"> : tensor<1xi64>} : () -> tensor<1xi64>
    %854 = "onnx.Constant"() {value = #onnx.dense_disposable<855:"0x0200000000000000"> : tensor<1xi64>} : () -> tensor<1xi64>
    %855 = "onnx.Constant"() {value = #onnx.dense_disposable<856:"0x0000000000000000"> : tensor<i64>} : () -> tensor<i64>
    %856 = "onnx.Constant"() {value = #onnx.dense_disposable<857:"0x0200000000000000"> : tensor<i64>} : () -> tensor<i64>
    %857 = "onnx.Constant"() {value = #onnx.dense_disposable<858:"0x0000000000000000"> : tensor<1xi64>} : () -> tensor<1xi64>
    %858 = "onnx.Constant"() {value = #onnx.dense_disposable<859:"0x0000000000000000"> : tensor<1xi64>} : () -> tensor<1xi64>
    %859 = "onnx.Constant"() {value = #onnx.dense_disposable<860:"0x0800000000000000"> : tensor<1xi64>} : () -> tensor<1xi64>
    %860 = "onnx.Constant"() {value = #onnx.dense_disposable<861:"0x0400000000000000"> : tensor<1xi64>} : () -> tensor<1xi64>
    %861 = "onnx.Constant"() {value = #onnx.dense_disposable<862:"0x4000000000000000"> : tensor<1xi64>} : () -> tensor<1xi64>
    %862 = "onnx.Constant"() {value = #onnx.dense_disposable<863:"0x2000000000000000"> : tensor<1xi64>} : () -> tensor<1xi64>
    %863 = "onnx.Constant"() {value = #onnx.dense_disposable<864:"0x4000000000000000"> : tensor<1xi64>} : () -> tensor<1xi64>
    %864 = "onnx.Constant"() {value = #onnx.dense_disposable<865:"0xF304B53E"> : tensor<1xf32>} : () -> tensor<1xf32>
    %865 = "onnx.Constant"() {value = #onnx.dense_disposable<866:"…"> : tensor<5xi64>} : () -> tensor<5xi64>
    %866 = "onnx.Constant"() {value = #onnx.dense_disposable<867:"0x0200000000000000"> : tensor<1xi64>} : () -> tensor<1xi64>
    %867 = "onnx.Constant"() {value = #onnx.dense_disposable<868:"…"> : tensor<5xi64>} : () -> tensor<5xi64>
    %868 = "onnx.Constant"() {value = #onnx.dense_disposable<869:"0x0000000000000000"> : tensor<i64>} : () -> tensor<i64>
    %869 = "onnx.Constant"() {value = #onnx.dense_disposable<870:"0x0200000000000000"> : tensor<i64>} : () -> tensor<i64>
    %870 = "onnx.Constant"() {value = #onnx.dense_disposable<871:"0x0000000000000000"> : tensor<1xi64>} : () -> tensor<1xi64>
    %871 = "onnx.Constant"() {value = #onnx.dense_disposable<872:"0x0000000000000000"> : tensor<1xi64>} : () -> tensor<1xi64>
    %872 = "onnx.Constant"() {value = #onnx.dense_disposable<873:"0x0800000000000000"> : tensor<1xi64>} : () -> tensor<1xi64>
    %873 = "onnx.Constant"() {value = #onnx.dense_disposable<874:"0x0400000000000000"> : tensor<1xi64>} : () -> tensor<1xi64>
    %874 = "onnx.Constant"() {value = #onnx.dense_disposable<875:"0x4000000000000000"> : tensor<1xi64>} : () -> tensor<1xi64>
    %875 = "onnx.Constant"() {value = #onnx.dense_disposable<876:"0x2000000000000000"> : tensor<1xi64>} : () -> tensor<1xi64>
    %876 = "onnx.Constant"() {value = #onnx.dense_disposable<877:"0x4000000000000000"> : tensor<1xi64>} : () -> tensor<1xi64>
    %877 = "onnx.Constant"() {value = #onnx.dense_disposable<878:"…"> : tensor<5xi64>} : () -> tensor<5xi64>
    %878 = "onnx.Constant"() {value = #onnx.dense_disposable<879:"…"> : tensor<5xi64>} : () -> tensor<5xi64>
    %879 = "onnx.Constant"() {value = #onnx.dense_disposable<880:"0x0200000000000000"> : tensor<i64>} : () -> tensor<i64>
    %880 = "onnx.Constant"() {value = #onnx.dense_disposable<881:"0xF304B53E"> : tensor<1xf32>} : () -> tensor<1xf32>
    %881 = "onnx.Constant"() {value = #onnx.dense_disposable<882:"0x0000000000000000"> : tensor<1xi64>} : () -> tensor<1xi64>
    %882 = "onnx.Constant"() {value = #onnx.dense_disposable<883:"0x0000000000000000"> : tensor<1xi64>} : () -> tensor<1xi64>
    %883 = "onnx.Constant"() {value = #onnx.dense_disposable<884:"0x0300000000000000"> : tensor<1xi64>} : () -> tensor<1xi64>
    %884 = "onnx.Constant"() {value = #onnx.dense_disposable<885:"0x0100000000000000"> : tensor<1xi64>} : () -> tensor<1xi64>
    %885 = "onnx.Constant"() {value = #onnx.dense_disposable<886:"0x00000040"> : tensor<f32>} : () -> tensor<f32>
    %886 = "onnx.Constant"() {value = #onnx.dense_disposable<887:"0xACC52737"> : tensor<f32>} : () -> tensor<f32>
    %887 = "onnx.Constant"() {value = #onnx.dense_disposable<888:"0x0000803F"> : tensor<f32>} : () -> tensor<f32>
    %888 = "onnx.Constant"() {value = #onnx.dense_disposable<889:"…...
    %889 = "onnx.Constant"() {value = #onnx.dense_disposable<890:"0x00000040"> : tensor<f32>} : () -> tensor<f32>
    %890 = "onnx.Constant"() {value = #onnx.dense_disposable<891:"0xACC52737"> : tensor<f32>} : () -> tensor<f32>
    %891 = "onnx.Constant"() {value = #onnx.dense_disposable<892:"0x0000803F"> : tensor<f32>} : () -> tensor<f32>
    %892 = "onnx.Constant"() {value = #onnx.dense_disposable<893:"…...
    %893 = "onnx.Constant"() {value = #onnx.dense_disposable<894:"0x0000000000000000"> : tensor<i64>} : () -> tensor<i64>
    %894 = "onnx.Constant"() {value = #onnx.dense_disposable<895:"0x0100000000000000"> : tensor<i64>} : () -> tensor<i64>
    %895 = "onnx.Constant"() {value = #onnx.dense_disposable<896:"0x0000000000000000"> : tensor<1xi64>} : () -> tensor<1xi64>
    %896 = "onnx.Constant"() {value = #onnx.dense_disposable<897:"0x0000000000000000"> : tensor<1xi64>} : () -> tensor<1xi64>
    %897 = "onnx.Constant"() {value = #onnx.dense_disposable<898:"0x2000000000000000"> : tensor<1xi64>} : () -> tensor<1xi64>
    %898 = "onnx.Constant"() {value = #onnx.dense_disposable<899:"0x4000000000000000"> : tensor<1xi64>} : () -> tensor<1xi64>
    %899 = "onnx.Constant"() {value = #onnx.dense_disposable<900:"0x0800000000000000"> : tensor<1xi64>} : () -> tensor<1xi64>
    %900 = "onnx.Constant"() {value = #onnx.dense_disposable<901:"0x4000000000000000"> : tensor<1xi64>} : () -> tensor<1xi64>
    %901 = "onnx.Constant"() {value = #onnx.dense_disposable<902:"0xFFFFFFFFFFFFFFFF"> : tensor<1xi64>} : () -> tensor<1xi64>
    %902 = "onnx.Constant"() {value = #onnx.dense_disposable<903:"0x0000000000000000"> : tensor<1xi64>} : () -> tensor<1xi64>
    %903 = "onnx.Constant"() {value = #onnx.dense_disposable<904:"0x2000000000000000"> : tensor<1xi64>} : () -> tensor<1xi64>
    %904 = "onnx.Constant"() {value = #onnx.dense_disposable<905:"0x0300000000000000"> : tensor<1xi64>} : () -> tensor<1xi64>
    %905 = "onnx.Constant"() {value = #onnx.dense_disposable<906:"0x0100000000000000"> : tensor<1xi64>} : () -> tensor<1xi64>
    %906 = "onnx.Constant"() {value = #onnx.dense_disposable<907:"0x2000000000000000"> : tensor<1xi64>} : () -> tensor<1xi64>
    %907 = "onnx.Constant"() {value = #onnx.dense_disposable<908:"0xFFFFFFFFFFFFFF7F"> : tensor<1xi64>} : () -> tensor<1xi64>
    %908 = "onnx.Constant"() {value = #onnx.dense_disposable<909:"0x0300000000000000"> : tensor<1xi64>} : () -> tensor<1xi64>
    %909 = "onnx.Constant"() {value = #onnx.dense_disposable<910:"0x0100000000000000"> : tensor<1xi64>} : () -> tensor<1xi64>
    %910 = "onnx.Constant"() {value = #onnx.dense_disposable<911:"0x0000000000000000"> : tensor<1xi64>} : () -> tensor<1xi64>
    %911 = "onnx.Constant"() {value = #onnx.dense_disposable<912:"0x2000000000000000"> : tensor<1xi64>} : () -> tensor<1xi64>
    %912 = "onnx.Constant"() {value = #onnx.dense_disposable<913:"0x0300000000000000"> : tensor<1xi64>} : () -> tensor<1xi64>
    %913 = "onnx.Constant"() {value = #onnx.dense_disposable<914:"0x0100000000000000"> : tensor<1xi64>} : () -> tensor<1xi64>
    %914 = "onnx.Constant"() {value = #onnx.dense_disposable<915:"0x2000000000000000"> : tensor<1xi64>} : () -> tensor<1xi64>
    %915 = "onnx.Constant"() {value = #onnx.dense_disposable<916:"0xFFFFFFFFFFFFFF7F"> : tensor<1xi64>} : () -> tensor<1xi64>
    %916 = "onnx.Constant"() {value = #onnx.dense_disposable<917:"0x0300000000000000"> : tensor<1xi64>} : () -> tensor<1xi64>
    %917 = "onnx.Constant"() {value = #onnx.dense_disposable<918:"0x0100000000000000"> : tensor<1xi64>} : () -> tensor<1xi64>
    %918 = "onnx.Constant"() {value = #onnx.dense_disposable<919:"0x0200000000000000"> : tensor<1xi64>} : () -> tensor<1xi64>
    %919 = "onnx.Constant"() {value = #onnx.dense_disposable<920:"0x0000000000000000"> : tensor<i64>} : () -> tensor<i64>
    %920 = "onnx.Constant"() {value = #onnx.dense_disposable<921:"0x0200000000000000"> : tensor<i64>} : () -> tensor<i64>
    %921 = "onnx.Constant"() {value = #onnx.dense_disposable<922:"0x0000000000000000"> : tensor<1xi64>} : () -> tensor<1xi64>
    %922 = "onnx.Constant"() {value = #onnx.dense_disposable<923:"0x0000000000000000"> : tensor<1xi64>} : () -> tensor<1xi64>
    %923 = "onnx.Constant"() {value = #onnx.dense_disposable<924:"0x0800000000000000"> : tensor<1xi64>} : () -> tensor<1xi64>
    %924 = "onnx.Constant"() {value = #onnx.dense_disposable<925:"0x0400000000000000"> : tensor<1xi64>} : () -> tensor<1xi64>
    %925 = "onnx.Constant"() {value = #onnx.dense_disposable<926:"0x4000000000000000"> : tensor<1xi64>} : () -> tensor<1xi64>
    %926 = "onnx.Constant"() {value = #onnx.dense_disposable<927:"0x2000000000000000"> : tensor<1xi64>} : () -> tensor<1xi64>
    %927 = "onnx.Constant"() {value = #onnx.dense_disposable<928:"0x4000000000000000"> : tensor<1xi64>} : () -> tensor<1xi64>
    %928 = "onnx.Constant"() {value = #onnx.dense_disposable<929:"0xF304B53E"> : tensor<1xf32>} : () -> tensor<1xf32>
    %929 = "onnx.Constant"() {value = #onnx.dense_disposable<930:"…"> : tensor<5xi64>} : () -> tensor<5xi64>
    %930 = "onnx.Constant"() {value = #onnx.dense_disposable<931:"0x0200000000000000"> : tensor<1xi64>} : () -> tensor<1xi64>
    %931 = "onnx.Constant"() {value = #onnx.dense_disposable<932:"…"> : tensor<5xi64>} : () -> tensor<5xi64>
    %932 = "onnx.Constant"() {value = #onnx.dense_disposable<933:"0x0000000000000000"> : tensor<i64>} : () -> tensor<i64>
    %933 = "onnx.Constant"() {value = #onnx.dense_disposable<934:"0x0200000000000000"> : tensor<i64>} : () -> tensor<i64>
    %934 = "onnx.Constant"() {value = #onnx.dense_disposable<935:"0x0000000000000000"> : tensor<1xi64>} : () -> tensor<1xi64>
    %935 = "onnx.Constant"() {value = #onnx.dense_disposable<936:"0x0000000000000000"> : tensor<1xi64>} : () -> tensor<1xi64>
    %936 = "onnx.Constant"() {value = #onnx.dense_disposable<937:"0x0800000000000000"> : tensor<1xi64>} : () -> tensor<1xi64>
    %937 = "onnx.Constant"() {value = #onnx.dense_disposable<938:"0x0400000000000000"> : tensor<1xi64>} : () -> tensor<1xi64>
    %938 = "onnx.Constant"() {value = #onnx.dense_disposable<939:"0x4000000000000000"> : tensor<1xi64>} : () -> tensor<1xi64>
    %939 = "onnx.Constant"() {value = #onnx.dense_disposable<940:"0x2000000000000000"> : tensor<1xi64>} : () -> tensor<1xi64>
    %940 = "onnx.Constant"() {value = #onnx.dense_disposable<941:"0x4000000000000000"> : tensor<1xi64>} : () -> tensor<1xi64>
    %941 = "onnx.Constant"() {value = #onnx.dense_disposable<942:"…"> : tensor<5xi64>} : () -> tensor<5xi64>
    %942 = "onnx.Constant"() {value = #onnx.dense_disposable<943:"…"> : tensor<5xi64>} : () -> tensor<5xi64>
    %943 = "onnx.Constant"() {value = #onnx.dense_disposable<944:"0x0200000000000000"> : tensor<i64>} : () -> tensor<i64>
    %944 = "onnx.Constant"() {value = #onnx.dense_disposable<945:"0xF304B53E"> : tensor<1xf32>} : () -> tensor<1xf32>
    %945 = "onnx.Constant"() {value = #onnx.dense_disposable<946:"0x0000000000000000"> : tensor<1xi64>} : () -> tensor<1xi64>
    %946 = "onnx.Constant"() {value = #onnx.dense_disposable<947:"0x0000000000000000"> : tensor<1xi64>} : () -> tensor<1xi64>
    %947 = "onnx.Constant"() {value = #onnx.dense_disposable<948:"0x0300000000000000"> : tensor<1xi64>} : () -> tensor<1xi64>
    %948 = "onnx.Constant"() {value = #onnx.dense_disposable<949:"0x0100000000000000"> : tensor<1xi64>} : () -> tensor<1xi64>
    %949 = "onnx.Constant"() {value = #onnx.dense_disposable<950:"0x00000040"> : tensor<f32>} : () -> tensor<f32>
    %950 = "onnx.Constant"() {value = #onnx.dense_disposable<951:"0xACC52737"> : tensor<f32>} : () -> tensor<f32>
    %951 = "onnx.Constant"() {value = #onnx.dense_disposable<952:"0x0000803F"> : tensor<f32>} : () -> tensor<f32>
    %952 = "onnx.Constant"() {value = #onnx.dense_disposable<953:"…...
    %953 = "onnx.Constant"() {value = #onnx.dense_disposable<954:"0x00000040"> : tensor<f32>} : () -> tensor<f32>
    %954 = "onnx.Constant"() {value = #onnx.dense_disposable<955:"0xACC52737"> : tensor<f32>} : () -> tensor<f32>
    %955 = "onnx.Constant"() {value = #onnx.dense_disposable<956:"0x0000803F"> : tensor<f32>} : () -> tensor<f32>
    %956 = "onnx.Constant"() {value = #onnx.dense_disposable<957:"…...
    %957 = "onnx.Constant"() {value = #onnx.dense_disposable<958:"0x0000000000000000"> : tensor<i64>} : () -> tensor<i64>
    %958 = "onnx.Constant"() {value = #onnx.dense_disposable<959:"0x0100000000000000"> : tensor<i64>} : () -> tensor<i64>
    %959 = "onnx.Constant"() {value = #onnx.dense_disposable<960:"0x0000000000000000"> : tensor<1xi64>} : () -> tensor<1xi64>
    %960 = "onnx.Constant"() {value = #onnx.dense_disposable<961:"0x0000000000000000"> : tensor<1xi64>} : () -> tensor<1xi64>
    %961 = "onnx.Constant"() {value = #onnx.dense_disposable<962:"0x2000000000000000"> : tensor<1xi64>} : () -> tensor<1xi64>
    %962 = "onnx.Constant"() {value = #onnx.dense_disposable<963:"0x4000000000000000"> : tensor<1xi64>} : () -> tensor<1xi64>
    %963 = "onnx.Constant"() {value = #onnx.dense_disposable<964:"0x0800000000000000"> : tensor<1xi64>} : () -> tensor<1xi64>
    %964 = "onnx.Constant"() {value = #onnx.dense_disposable<965:"0x4000000000000000"> : tensor<1xi64>} : () -> tensor<1xi64>
    %965 = "onnx.Constant"() {value = #onnx.dense_disposable<966:"0xFFFFFFFFFFFFFFFF"> : tensor<1xi64>} : () -> tensor<1xi64>
    %966 = "onnx.Constant"() {value = #onnx.dense_disposable<967:"0x0000000000000000"> : tensor<1xi64>} : () -> tensor<1xi64>
    %967 = "onnx.Constant"() {value = #onnx.dense_disposable<968:"0x2000000000000000"> : tensor<1xi64>} : () -> tensor<1xi64>
    %968 = "onnx.Constant"() {value = #onnx.dense_disposable<969:"0x0300000000000000"> : tensor<1xi64>} : () -> tensor<1xi64>
    %969 = "onnx.Constant"() {value = #onnx.dense_disposable<970:"0x0100000000000000"> : tensor<1xi64>} : () -> tensor<1xi64>
    %970 = "onnx.Constant"() {value = #onnx.dense_disposable<971:"0x2000000000000000"> : tensor<1xi64>} : () -> tensor<1xi64>
    %971 = "onnx.Constant"() {value = #onnx.dense_disposable<972:"0xFFFFFFFFFFFFFF7F"> : tensor<1xi64>} : () -> tensor<1xi64>
    %972 = "onnx.Constant"() {value = #onnx.dense_disposable<973:"0x0300000000000000"> : tensor<1xi64>} : () -> tensor<1xi64>
    %973 = "onnx.Constant"() {value = #onnx.dense_disposable<974:"0x0100000000000000"> : tensor<1xi64>} : () -> tensor<1xi64>
    %974 = "onnx.Constant"() {value = #onnx.dense_disposable<975:"0x0000000000000000"> : tensor<1xi64>} : () -> tensor<1xi64>
    %975 = "onnx.Constant"() {value = #onnx.dense_disposable<976:"0x2000000000000000"> : tensor<1xi64>} : () -> tensor<1xi64>
    %976 = "onnx.Constant"() {value = #onnx.dense_disposable<977:"0x0300000000000000"> : tensor<1xi64>} : () -> tensor<1xi64>
    %977 = "onnx.Constant"() {value = #onnx.dense_disposable<978:"0x0100000000000000"> : tensor<1xi64>} : () -> tensor<1xi64>
    %978 = "onnx.Constant"() {value = #onnx.dense_disposable<979:"0x2000000000000000"> : tensor<1xi64>} : () -> tensor<1xi64>
    %979 = "onnx.Constant"() {value = #onnx.dense_disposable<980:"0xFFFFFFFFFFFFFF7F"> : tensor<1xi64>} : () -> tensor<1xi64>
    %980 = "onnx.Constant"() {value = #onnx.dense_disposable<981:"0x0300000000000000"> : tensor<1xi64>} : () -> tensor<1xi64>
    %981 = "onnx.Constant"() {value = #onnx.dense_disposable<982:"0x0100000000000000"> : tensor<1xi64>} : () -> tensor<1xi64>
    %982 = "onnx.Constant"() {value = #onnx.dense_disposable<983:"0x0200000000000000"> : tensor<1xi64>} : () -> tensor<1xi64>
    %983 = "onnx.Constant"() {value = #onnx.dense_disposable<984:"0x0000000000000000"> : tensor<i64>} : () -> tensor<i64>
    %984 = "onnx.Constant"() {value = #onnx.dense_disposable<985:"0x0200000000000000"> : tensor<i64>} : () -> tensor<i64>
    %985 = "onnx.Constant"() {value = #onnx.dense_disposable<986:"0x0000000000000000"> : tensor<1xi64>} : () -> tensor<1xi64>
    %986 = "onnx.Constant"() {value = #onnx.dense_disposable<987:"0x0000000000000000"> : tensor<1xi64>} : () -> tensor<1xi64>
    %987 = "onnx.Constant"() {value = #onnx.dense_disposable<988:"0x0800000000000000"> : tensor<1xi64>} : () -> tensor<1xi64>
    %988 = "onnx.Constant"() {value = #onnx.dense_disposable<989:"0x0400000000000000"> : tensor<1xi64>} : () -> tensor<1xi64>
    %989 = "onnx.Constant"() {value = #onnx.dense_disposable<990:"0x4000000000000000"> : tensor<1xi64>} : () -> tensor<1xi64>
    %990 = "onnx.Constant"() {value = #onnx.dense_disposable<991:"0x2000000000000000"> : tensor<1xi64>} : () -> tensor<1xi64>
    %991 = "onnx.Constant"() {value = #onnx.dense_disposable<992:"0x4000000000000000"> : tensor<1xi64>} : () -> tensor<1xi64>
    %992 = "onnx.Constant"() {value = #onnx.dense_disposable<993:"0xF304B53E"> : tensor<1xf32>} : () -> tensor<1xf32>
    %993 = "onnx.Constant"() {value = #onnx.dense_disposable<994:"…"> : tensor<5xi64>} : () -> tensor<5xi64>
    %994 = "onnx.Constant"() {value = #onnx.dense_disposable<995:"0x0200000000000000"> : tensor<1xi64>} : () -> tensor<1xi64>
    %995 = "onnx.Constant"() {value = #onnx.dense_disposable<996:"…"> : tensor<5xi64>} : () -> tensor<5xi64>
    %996 = "onnx.Constant"() {value = #onnx.dense_disposable<997:"0x0000000000000000"> : tensor<i64>} : () -> tensor<i64>
    %997 = "onnx.Constant"() {value = #onnx.dense_disposable<998:"0x0200000000000000"> : tensor<i64>} : () -> tensor<i64>
    %998 = "onnx.Constant"() {value = #onnx.dense_disposable<999:"0x0000000000000000"> : tensor<1xi64>} : () -> tensor<1xi64>
    %999 = "onnx.Constant"() {value = #onnx.dense_disposable<1000:"0x0000000000000000"> : tensor<1xi64>} : () -> tensor<1xi64>
    %1000 = "onnx.Constant"() {value = #onnx.dense_disposable<1001:"0x0800000000000000"> : tensor<1xi64>} : () -> tensor<1xi64>
    %1001 = "onnx.Constant"() {value = #onnx.dense_disposable<1002:"0x0400000000000000"> : tensor<1xi64>} : () -> tensor<1xi64>
    %1002 = "onnx.Constant"() {value = #onnx.dense_disposable<1003:"0x4000000000000000"> : tensor<1xi64>} : () -> tensor<1xi64>
    %1003 = "onnx.Constant"() {value = #onnx.dense_disposable<1004:"0x2000000000000000"> : tensor<1xi64>} : () -> tensor<1xi64>
    %1004 = "onnx.Constant"() {value = #onnx.dense_disposable<1005:"0x4000000000000000"> : tensor<1xi64>} : () -> tensor<1xi64>
    %1005 = "onnx.Constant"() {value = #onnx.dense_disposable<1006:"…"> : tensor<5xi64>} : () -> tensor<5xi64>
    %1006 = "onnx.Constant"() {value = #onnx.dense_disposable<1007:"…"> : tensor<5xi64>} : () -> tensor<5xi64>
    %1007 = "onnx.Constant"() {value = #onnx.dense_disposable<1008:"0x0200000000000000"> : tensor<i64>} : () -> tensor<i64>
    %1008 = "onnx.Constant"() {value = #onnx.dense_disposable<1009:"0xF304B53E"> : tensor<1xf32>} : () -> tensor<1xf32>
    %1009 = "onnx.Constant"() {value = #onnx.dense_disposable<1010:"0x0000000000000000"> : tensor<1xi64>} : () -> tensor<1xi64>
    %1010 = "onnx.Constant"() {value = #onnx.dense_disposable<1011:"0x0000000000000000"> : tensor<1xi64>} : () -> tensor<1xi64>
    %1011 = "onnx.Constant"() {value = #onnx.dense_disposable<1012:"0x0300000000000000"> : tensor<1xi64>} : () -> tensor<1xi64>
    %1012 = "onnx.Constant"() {value = #onnx.dense_disposable<1013:"0x0100000000000000"> : tensor<1xi64>} : () -> tensor<1xi64>
    %1013 = "onnx.Constant"() {value = #onnx.dense_disposable<1014:"0x00000040"> : tensor<f32>} : () -> tensor<f32>
    %1014 = "onnx.Constant"() {value = #onnx.dense_disposable<1015:"0xACC52737"> : tensor<f32>} : () -> tensor<f32>
    %1015 = "onnx.Constant"() {value = #onnx.dense_disposable<1016:"0x0000803F"> : tensor<f32>} : () -> tensor<f32>
    %1016 = "onnx.Constant"() {value = #onnx.dense_disposable<1017:"…...
    %1017 = "onnx.Constant"() {value = #onnx.dense_disposable<1018:"0x00000040"> : tensor<f32>} : () -> tensor<f32>
    %1018 = "onnx.Constant"() {value = #onnx.dense_disposable<1019:"0xACC52737"> : tensor<f32>} : () -> tensor<f32>
    %1019 = "onnx.Constant"() {value = #onnx.dense_disposable<1020:"0x0000803F"> : tensor<f32>} : () -> tensor<f32>
    %1020 = "onnx.Constant"() {value = #onnx.dense_disposable<1021:"…...
    %1021 = "onnx.Constant"() {value = #onnx.dense_disposable<1022:"0x0000000000000000"> : tensor<i64>} : () -> tensor<i64>
    %1022 = "onnx.Constant"() {value = #onnx.dense_disposable<1023:"0x0100000000000000"> : tensor<i64>} : () -> tensor<i64>
    %1023 = "onnx.Constant"() {value = #onnx.dense_disposable<1024:"0x0000000000000000"> : tensor<1xi64>} : () -> tensor<1xi64>
    %1024 = "onnx.Constant"() {value = #onnx.dense_disposable<1025:"0x0000000000000000"> : tensor<1xi64>} : () -> tensor<1xi64>
    %1025 = "onnx.Constant"() {value = #onnx.dense_disposable<1026:"0x2000000000000000"> : tensor<1xi64>} : () -> tensor<1xi64>
    %1026 = "onnx.Constant"() {value = #onnx.dense_disposable<1027:"0x4000000000000000"> : tensor<1xi64>} : () -> tensor<1xi64>
    %1027 = "onnx.Constant"() {value = #onnx.dense_disposable<1028:"0x0800000000000000"> : tensor<1xi64>} : () -> tensor<1xi64>
    %1028 = "onnx.Constant"() {value = #onnx.dense_disposable<1029:"0x4000000000000000"> : tensor<1xi64>} : () -> tensor<1xi64>
    %1029 = "onnx.Constant"() {value = #onnx.dense_disposable<1030:"0xFFFFFFFFFFFFFFFF"> : tensor<1xi64>} : () -> tensor<1xi64>
    %1030 = "onnx.Constant"() {value = #onnx.dense_disposable<1031:"0x0000000000000000"> : tensor<1xi64>} : () -> tensor<1xi64>
    %1031 = "onnx.Constant"() {value = #onnx.dense_disposable<1032:"0x2000000000000000"> : tensor<1xi64>} : () -> tensor<1xi64>
    %1032 = "onnx.Constant"() {value = #onnx.dense_disposable<1033:"0x0300000000000000"> : tensor<1xi64>} : () -> tensor<1xi64>
    %1033 = "onnx.Constant"() {value = #onnx.dense_disposable<1034:"0x0100000000000000"> : tensor<1xi64>} : () -> tensor<1xi64>
    %1034 = "onnx.Constant"() {value = #onnx.dense_disposable<1035:"0x2000000000000000"> : tensor<1xi64>} : () -> tensor<1xi64>
    %1035 = "onnx.Constant"() {value = #onnx.dense_disposable<1036:"0xFFFFFFFFFFFFFF7F"> : tensor<1xi64>} : () -> tensor<1xi64>
    %1036 = "onnx.Constant"() {value = #onnx.dense_disposable<1037:"0x0300000000000000"> : tensor<1xi64>} : () -> tensor<1xi64>
    %1037 = "onnx.Constant"() {value = #onnx.dense_disposable<1038:"0x0100000000000000"> : tensor<1xi64>} : () -> tensor<1xi64>
    %1038 = "onnx.Constant"() {value = #onnx.dense_disposable<1039:"0x0000000000000000"> : tensor<1xi64>} : () -> tensor<1xi64>
    %1039 = "onnx.Constant"() {value = #onnx.dense_disposable<1040:"0x2000000000000000"> : tensor<1xi64>} : () -> tensor<1xi64>
    %1040 = "onnx.Constant"() {value = #onnx.dense_disposable<1041:"0x0300000000000000"> : tensor<1xi64>} : () -> tensor<1xi64>
    %1041 = "onnx.Constant"() {value = #onnx.dense_disposable<1042:"0x0100000000000000"> : tensor<1xi64>} : () -> tensor<1xi64>
    %1042 = "onnx.Constant"() {value = #onnx.dense_disposable<1043:"0x2000000000000000"> : tensor<1xi64>} : () -> tensor<1xi64>
    %1043 = "onnx.Constant"() {value = #onnx.dense_disposable<1044:"0xFFFFFFFFFFFFFF7F"> : tensor<1xi64>} : () -> tensor<1xi64>
    %1044 = "onnx.Constant"() {value = #onnx.dense_disposable<1045:"0x0300000000000000"> : tensor<1xi64>} : () -> tensor<1xi64>
    %1045 = "onnx.Constant"() {value = #onnx.dense_disposable<1046:"0x0100000000000000"> : tensor<1xi64>} : () -> tensor<1xi64>
    %1046 = "onnx.Constant"() {value = #onnx.dense_disposable<1047:"0x0200000000000000"> : tensor<1xi64>} : () -> tensor<1xi64>
    %1047 = "onnx.Constant"() {value = #onnx.dense_disposable<1048:"0x0000000000000000"> : tensor<i64>} : () -> tensor<i64>
    %1048 = "onnx.Constant"() {value = #onnx.dense_disposable<1049:"0x0200000000000000"> : tensor<i64>} : () -> tensor<i64>
    %1049 = "onnx.Constant"() {value = #onnx.dense_disposable<1050:"0x0000000000000000"> : tensor<1xi64>} : () -> tensor<1xi64>
    %1050 = "onnx.Constant"() {value = #onnx.dense_disposable<1051:"0x0000000000000000"> : tensor<1xi64>} : () -> tensor<1xi64>
    %1051 = "onnx.Constant"() {value = #onnx.dense_disposable<1052:"0x0800000000000000"> : tensor<1xi64>} : () -> tensor<1xi64>
    %1052 = "onnx.Constant"() {value = #onnx.dense_disposable<1053:"0x0400000000000000"> : tensor<1xi64>} : () -> tensor<1xi64>
    %1053 = "onnx.Constant"() {value = #onnx.dense_disposable<1054:"0x4000000000000000"> : tensor<1xi64>} : () -> tensor<1xi64>
    %1054 = "onnx.Constant"() {value = #onnx.dense_disposable<1055:"0x2000000000000000"> : tensor<1xi64>} : () -> tensor<1xi64>
    %1055 = "onnx.Constant"() {value = #onnx.dense_disposable<1056:"0x4000000000000000"> : tensor<1xi64>} : () -> tensor<1xi64>
    %1056 = "onnx.Constant"() {value = #onnx.dense_disposable<1057:"0xF304B53E"> : tensor<1xf32>} : () -> tensor<1xf32>
    %1057 = "onnx.Constant"() {value = #onnx.dense_disposable<1058:"…"> : tensor<5xi64>} : () -> tensor<5xi64>
    %1058 = "onnx.Constant"() {value = #onnx.dense_disposable<1059:"0x0200000000000000"> : tensor<1xi64>} : () -> tensor<1xi64>
    %1059 = "onnx.Constant"() {value = #onnx.dense_disposable<1060:"…"> : tensor<5xi64>} : () -> tensor<5xi64>
    %1060 = "onnx.Constant"() {value = #onnx.dense_disposable<1061:"0x0000000000000000"> : tensor<i64>} : () -> tensor<i64>
    %1061 = "onnx.Constant"() {value = #onnx.dense_disposable<1062:"0x0200000000000000"> : tensor<i64>} : () -> tensor<i64>
    %1062 = "onnx.Constant"() {value = #onnx.dense_disposable<1063:"0x0000000000000000"> : tensor<1xi64>} : () -> tensor<1xi64>
    %1063 = "onnx.Constant"() {value = #onnx.dense_disposable<1064:"0x0000000000000000"> : tensor<1xi64>} : () -> tensor<1xi64>
    %1064 = "onnx.Constant"() {value = #onnx.dense_disposable<1065:"0x0800000000000000"> : tensor<1xi64>} : () -> tensor<1xi64>
    %1065 = "onnx.Constant"() {value = #onnx.dense_disposable<1066:"0x0400000000000000"> : tensor<1xi64>} : () -> tensor<1xi64>
    %1066 = "onnx.Constant"() {value = #onnx.dense_disposable<1067:"0x4000000000000000"> : tensor<1xi64>} : () -> tensor<1xi64>
    %1067 = "onnx.Constant"() {value = #onnx.dense_disposable<1068:"0x2000000000000000"> : tensor<1xi64>} : () -> tensor<1xi64>
    %1068 = "onnx.Constant"() {value = #onnx.dense_disposable<1069:"0x4000000000000000"> : tensor<1xi64>} : () -> tensor<1xi64>
    %1069 = "onnx.Constant"() {value = #onnx.dense_disposable<1070:"…"> : tensor<5xi64>} : () -> tensor<5xi64>
    %1070 = "onnx.Constant"() {value = #onnx.dense_disposable<1071:"…"> : tensor<5xi64>} : () -> tensor<5xi64>
    %1071 = "onnx.Constant"() {value = #onnx.dense_disposable<1072:"0x0200000000000000"> : tensor<i64>} : () -> tensor<i64>
    %1072 = "onnx.Constant"() {value = #onnx.dense_disposable<1073:"0xF304B53E"> : tensor<1xf32>} : () -> tensor<1xf32>
    %1073 = "onnx.Constant"() {value = #onnx.dense_disposable<1074:"0x0000000000000000"> : tensor<1xi64>} : () -> tensor<1xi64>
    %1074 = "onnx.Constant"() {value = #onnx.dense_disposable<1075:"0x0000000000000000"> : tensor<1xi64>} : () -> tensor<1xi64>
    %1075 = "onnx.Constant"() {value = #onnx.dense_disposable<1076:"0x0300000000000000"> : tensor<1xi64>} : () -> tensor<1xi64>
    %1076 = "onnx.Constant"() {value = #onnx.dense_disposable<1077:"0x0100000000000000"> : tensor<1xi64>} : () -> tensor<1xi64>
    %1077 = "onnx.Constant"() {value = #onnx.dense_disposable<1078:"0x00000040"> : tensor<f32>} : () -> tensor<f32>
    %1078 = "onnx.Constant"() {value = #onnx.dense_disposable<1079:"0xACC52737"> : tensor<f32>} : () -> tensor<f32>
    %1079 = "onnx.Constant"() {value = #onnx.dense_disposable<1080:"0x0000803F"> : tensor<f32>} : () -> tensor<f32>
    %1080 = "onnx.Constant"() {value = #onnx.dense_disposable<1081:"…...
    %1081 = "onnx.Constant"() {value = #onnx.dense_disposable<1082:"0x00000040"> : tensor<f32>} : () -> tensor<f32>
    %1082 = "onnx.Constant"() {value = #onnx.dense_disposable<1083:"0xACC52737"> : tensor<f32>} : () -> tensor<f32>
    %1083 = "onnx.Constant"() {value = #onnx.dense_disposable<1084:"0x0000803F"> : tensor<f32>} : () -> tensor<f32>
    %1084 = "onnx.Constant"() {value = #onnx.dense_disposable<1085:"…...
    %1085 = "onnx.Constant"() {value = #onnx.dense_disposable<1086:"0xBAB9393B"> : tensor<f32>} : () -> tensor<f32>
    %1086 = "onnx.Constant"() {value = #onnx.dense_disposable<1087:"0x80"> : tensor<ui8>} : () -> tensor<ui8>
    %1087 = "onnx.Constant"() {value = #onnx.dense_disposable<1088:"…...
    %1088 = "onnx.Constant"() {value = #onnx.dense_disposable<1089:"0xB95CAE3B"> : tensor<f32>} : () -> tensor<f32>
    %1089 = "onnx.Constant"() {value = #onnx.dense_disposable<1090:"0x00"> : tensor<i8>} : () -> tensor<i8>
    %1090 = "onnx.Constant"() {value = #onnx.dense_disposable<1091:"…...
    %1091 = "onnx.Constant"() {value = #onnx.dense_disposable<1092:"0x994CA63B"> : tensor<f32>} : () -> tensor<f32>
    %1092 = "onnx.Constant"() {value = #onnx.dense_disposable<1093:"0x00"> : tensor<i8>} : () -> tensor<i8>
    %1093 = "onnx.Constant"() {value = #onnx.dense_disposable<1094:"…...
    %1094 = "onnx.Constant"() {value = #onnx.dense_disposable<1095:"0x1C0E073A"> : tensor<f32>} : () -> tensor<f32>
    %1095 = "onnx.Constant"() {value = #onnx.dense_disposable<1096:"0x00"> : tensor<i8>} : () -> tensor<i8>
    %1096 = "onnx.Constant"() {value = #onnx.dense_disposable<1097:"…...
    %1097 = "onnx.Constant"() {value = #onnx.dense_disposable<1098:"0x8944223B"> : tensor<f32>} : () -> tensor<f32>
    %1098 = "onnx.Constant"() {value = #onnx.dense_disposable<1099:"0x00"> : tensor<i8>} : () -> tensor<i8>
    %1099 = "onnx.Constant"() {value = #onnx.dense_disposable<1100:"…...
    %1100 = "onnx.Constant"() {value = #onnx.dense_disposable<1101:"0x6532993B"> : tensor<f32>} : () -> tensor<f32>
    %1101 = "onnx.Constant"() {value = #onnx.dense_disposable<1102:"0x00"> : tensor<i8>} : () -> tensor<i8>
    %1102 = "onnx.Constant"() {value = #onnx.dense_disposable<1103:"…...
    %1103 = "onnx.Constant"() {value = #onnx.dense_disposable<1104:"0x793C1E3B"> : tensor<f32>} : () -> tensor<f32>
    %1104 = "onnx.Constant"() {value = #onnx.dense_disposable<1105:"0x00"> : tensor<i8>} : () -> tensor<i8>
    %1105 = "onnx.Constant"() {value = #onnx.dense_disposable<1106:"…...
    %1106 = "onnx.Constant"() {value = #onnx.dense_disposable<1107:"0x8140A03B"> : tensor<f32>} : () -> tensor<f32>
    %1107 = "onnx.Constant"() {value = #onnx.dense_disposable<1108:"0x00"> : tensor<i8>} : () -> tensor<i8>
    %1108 = "onnx.Constant"() {value = #onnx.dense_disposable<1109:"…...
    %1109 = "onnx.Constant"() {value = #onnx.dense_disposable<1110:"0x3E9F4F3B"> : tensor<f32>} : () -> tensor<f32>
    %1110 = "onnx.Constant"() {value = #onnx.dense_disposable<1111:"0x00"> : tensor<i8>} : () -> tensor<i8>
    %1111 = "onnx.Constant"() {value = #onnx.dense_disposable<1112:"…...
    %1112 = "onnx.Constant"() {value = #onnx.dense_disposable<1113:"0x69341A3B"> : tensor<f32>} : () -> tensor<f32>
    %1113 = "onnx.Constant"() {value = #onnx.dense_disposable<1114:"0x00"> : tensor<i8>} : () -> tensor<i8>
    %1114 = "onnx.Constant"() {value = #onnx.dense_disposable<1115:"…...
    %1115 = "onnx.Constant"() {value = #onnx.dense_disposable<1116:"0xBD5E2F3A"> : tensor<f32>} : () -> tensor<f32>
    %1116 = "onnx.Constant"() {value = #onnx.dense_disposable<1117:"0x00"> : tensor<i8>} : () -> tensor<i8>
    %1117 = "onnx.Constant"() {value = #onnx.dense_disposable<1118:"…...
    %1118 = "onnx.Constant"() {value = #onnx.dense_disposable<1119:"0x180C863B"> : tensor<f32>} : () -> tensor<f32>
    %1119 = "onnx.Constant"() {value = #onnx.dense_disposable<1120:"0x00"> : tensor<i8>} : () -> tensor<i8>
    %1120 = "onnx.Constant"() {value = #onnx.dense_disposable<1121:"…...
    %1121 = "onnx.Constant"() {value = #onnx.dense_disposable<1122:"0x77BBDD3B"> : tensor<f32>} : () -> tensor<f32>
    %1122 = "onnx.Constant"() {value = #onnx.dense_disposable<1123:"0x00"> : tensor<i8>} : () -> tensor<i8>
    %1123 = "onnx.Constant"() {value = #onnx.dense_disposable<1124:"…...
    %1124 = "onnx.Constant"() {value = #onnx.dense_disposable<1125:"0x4924123C"> : tensor<f32>} : () -> tensor<f32>
    %1125 = "onnx.Constant"() {value = #onnx.dense_disposable<1126:"0x00"> : tensor<i8>} : () -> tensor<i8>
    %1126 = "onnx.Constant"() {value = #onnx.dense_disposable<1127:"…...
    %1127 = "onnx.Constant"() {value = #onnx.dense_disposable<1128:"0xBD5EAF3B"> : tensor<f32>} : () -> tensor<f32>
    %1128 = "onnx.Constant"() {value = #onnx.dense_disposable<1129:"0x00"> : tensor<i8>} : () -> tensor<i8>
    %1129 = "onnx.Constant"() {value = #onnx.dense_disposable<1130:"…...
    %1130 = "onnx.Constant"() {value = #onnx.dense_disposable<1131:"0x30188C3B"> : tensor<f32>} : () -> tensor<f32>
    %1131 = "onnx.Constant"() {value = #onnx.dense_disposable<1132:"0x00"> : tensor<i8>} : () -> tensor<i8>
    %1132 = "onnx.Constant"() {value = #onnx.dense_disposable<1133:"…...
    %1133 = "onnx.Constant"() {value = #onnx.dense_disposable<1134:"0x1008843B"> : tensor<f32>} : () -> tensor<f32>
    %1134 = "onnx.Constant"() {value = #onnx.dense_disposable<1135:"0x00"> : tensor<i8>} : () -> tensor<i8>
    %1135 = "onnx.Constant"() {value = #onnx.dense_disposable<1136:"…...
    %1136 = "onnx.Constant"() {value = #onnx.dense_disposable<1137:"0xAD562B3A"> : tensor<f32>} : () -> tensor<f32>
    %1137 = "onnx.Constant"() {value = #onnx.dense_disposable<1138:"0x00"> : tensor<i8>} : () -> tensor<i8>
    %1138 = "onnx.Constant"() {value = #onnx.dense_disposable<1139:"…...
    %1139 = "onnx.Constant"() {value = #onnx.dense_disposable<1140:"0xE672393B"> : tensor<f32>} : () -> tensor<f32>
    %1140 = "onnx.Constant"() {value = #onnx.dense_disposable<1141:"0x00"> : tensor<i8>} : () -> tensor<i8>
    %1141 = "onnx.Constant"() {value = #onnx.dense_disposable<1142:"…...
    %1142 = "onnx.Constant"() {value = #onnx.dense_disposable<1143:"0x8D46233B"> : tensor<f32>} : () -> tensor<f32>
    %1143 = "onnx.Constant"() {value = #onnx.dense_disposable<1144:"0x00"> : tensor<i8>} : () -> tensor<i8>
    %1144 = "onnx.Constant"() {value = #onnx.dense_disposable<1145:"…...
    %1145 = "onnx.Constant"() {value = #onnx.dense_disposable<1146:"0xB7DB6D3B"> : tensor<f32>} : () -> tensor<f32>
    %1146 = "onnx.Constant"() {value = #onnx.dense_disposable<1147:"0x00"> : tensor<i8>} : () -> tensor<i8>
    %1147 = "onnx.Constant"() {value = #onnx.dense_disposable<1148:"…...
    %1148 = "onnx.Constant"() {value = #onnx.dense_disposable<1149:"0x2412893B"> : tensor<f32>} : () -> tensor<f32>
    %1149 = "onnx.Constant"() {value = #onnx.dense_disposable<1150:"0x00"> : tensor<i8>} : () -> tensor<i8>
    %1150 = "onnx.Constant"() {value = #onnx.dense_disposable<1151:"…...
    %1151 = "onnx.Constant"() {value = #onnx.dense_disposable<1152:"0x753A1D3B"> : tensor<f32>} : () -> tensor<f32>
    %1152 = "onnx.Constant"() {value = #onnx.dense_disposable<1153:"0x00"> : tensor<i8>} : () -> tensor<i8>
    %1153 = "onnx.Constant"() {value = #onnx.dense_disposable<1154:"…...
    %1154 = "onnx.Constant"() {value = #onnx.dense_disposable<1155:"0x4924123B"> : tensor<f32>} : () -> tensor<f32>
    %1155 = "onnx.Constant"() {value = #onnx.dense_disposable<1156:"0x00"> : tensor<i8>} : () -> tensor<i8>
    %1156 = "onnx.Constant"() {value = #onnx.dense_disposable<1157:"…...
    %1157 = "onnx.Constant"() {value = #onnx.dense_disposable<1158:"0x1E8FC73A"> : tensor<f32>} : () -> tensor<f32>
    %1158 = "onnx.Constant"() {value = #onnx.dense_disposable<1159:"0x00"> : tensor<i8>} : () -> tensor<i8>
    %1159 = "onnx.Constant"() {value = #onnx.dense_disposable<1160:"…...
    %1160 = "onnx.Constant"() {value = #onnx.dense_disposable<1161:"0xECF5FA3A"> : tensor<f32>} : () -> tensor<f32>
    %1161 = "onnx.Constant"() {value = #onnx.dense_disposable<1162:"0x00"> : tensor<i8>} : () -> tensor<i8>
    %1162 = "onnx.Constant"() {value = #onnx.dense_disposable<1163:"…...
    %1163 = "onnx.Constant"() {value = #onnx.dense_disposable<1164:"0xB95C2E3B"> : tensor<f32>} : () -> tensor<f32>
    %1164 = "onnx.Constant"() {value = #onnx.dense_disposable<1165:"0x00"> : tensor<i8>} : () -> tensor<i8>
    %1165 = "onnx.Constant"() {value = #onnx.dense_disposable<1166:"…...
    %1166 = "onnx.Constant"() {value = #onnx.dense_disposable<1167:"0xB95C2E3B"> : tensor<f32>} : () -> tensor<f32>
    %1167 = "onnx.Constant"() {value = #onnx.dense_disposable<1168:"0x00"> : tensor<i8>} : () -> tensor<i8>
    %1168 = "onnx.Constant"() {value = #onnx.dense_disposable<1169:"…...
    %1169 = "onnx.Constant"() {value = #onnx.dense_disposable<1170:"0xF4F97C3B"> : tensor<f32>} : () -> tensor<f32>
    %1170 = "onnx.Constant"() {value = #onnx.dense_disposable<1171:"0x00"> : tensor<i8>} : () -> tensor<i8>
    %1171 = "onnx.Constant"() {value = #onnx.dense_disposable<1172:"…...
    %1172 = "onnx.Constant"() {value = #onnx.dense_disposable<1173:"0xEE763B3B"> : tensor<f32>} : () -> tensor<f32>
    %1173 = "onnx.Constant"() {value = #onnx.dense_disposable<1174:"0x00"> : tensor<i8>} : () -> tensor<i8>
    %1174 = "onnx.Constant"() {value = #onnx.dense_disposable<1175:"…...
    %1175 = "onnx.Constant"() {value = #onnx.dense_disposable<1176:"0x5BAD563B"> : tensor<f32>} : () -> tensor<f32>
    %1176 = "onnx.Constant"() {value = #onnx.dense_disposable<1177:"0x00"> : tensor<i8>} : () -> tensor<i8>
    %1177 = "onnx.Constant"() {value = #onnx.dense_disposable<1178:"…...
    %1178 = "onnx.Constant"() {value = #onnx.dense_disposable<1179:"0xD4E9743A"> : tensor<f32>} : () -> tensor<f32>
    %1179 = "onnx.Constant"() {value = #onnx.dense_disposable<1180:"0x00"> : tensor<i8>} : () -> tensor<i8>
    %1180 = "onnx.Constant"() {value = #onnx.dense_disposable<1181:"…...
    %1181 = "onnx.Constant"() {value = #onnx.dense_disposable<1182:"0x369B4D3B"> : tensor<f32>} : () -> tensor<f32>
    %1182 = "onnx.Constant"() {value = #onnx.dense_disposable<1183:"0x00"> : tensor<i8>} : () -> tensor<i8>
    %1183 = "onnx.Constant"() {value = #onnx.dense_disposable<1184:"…...
    %1184 = "onnx.Constant"() {value = #onnx.dense_disposable<1185:"0x140A853B"> : tensor<f32>} : () -> tensor<f32>
    %1185 = "onnx.Constant"() {value = #onnx.dense_disposable<1186:"0x00"> : tensor<i8>} : () -> tensor<i8>
    %1186 = "onnx.Constant"() {value = #onnx.dense_disposable<1187:"…...
    %1187 = "onnx.Constant"() {value = #onnx.dense_disposable<1188:"0x3C1E0F3B"> : tensor<f32>} : () -> tensor<f32>
    %1188 = "onnx.Constant"() {value = #onnx.dense_disposable<1189:"0x00"> : tensor<i8>} : () -> tensor<i8>
    %1189 = "onnx.Constant"() {value = #onnx.dense_disposable<1190:"…...
    %1190 = "onnx.Constant"() {value = #onnx.dense_disposable<1191:"0xCCE5723B"> : tensor<f32>} : () -> tensor<f32>
    %1191 = "onnx.Constant"() {value = #onnx.dense_disposable<1192:"0x00"> : tensor<i8>} : () -> tensor<i8>
    %1192 = "onnx.Constant"() {value = #onnx.dense_disposable<1193:"…...
    %1193 = "onnx.Constant"() {value = #onnx.dense_disposable<1194:"0x168BC53B"> : tensor<f32>} : () -> tensor<f32>
    %1194 = "onnx.Constant"() {value = #onnx.dense_disposable<1195:"0x00"> : tensor<i8>} : () -> tensor<i8>
    %1195 = "onnx.Constant"() {value = #onnx.dense_disposable<1196:"…...
    %1196 = "onnx.Constant"() {value = #onnx.dense_disposable<1197:"0x3C1E0F3C"> : tensor<f32>} : () -> tensor<f32>
    %1197 = "onnx.Constant"() {value = #onnx.dense_disposable<1198:"0x00"> : tensor<i8>} : () -> tensor<i8>
    %1198 = "onnx.Constant"() {value = #onnx.dense_disposable<1199:"…...
    %1199 = "onnx.Constant"() {value = #onnx.dense_disposable<1200:"0x28148A3A"> : tensor<f32>} : () -> tensor<f32>
    %1200 = "onnx.Constant"() {value = #onnx.dense_disposable<1201:"0x00"> : tensor<i8>} : () -> tensor<i8>
    %1201 = "onnx.Constant"() {value = #onnx.dense_disposable<1202:"…...
    %1202 = "onnx.Constant"() {value = #onnx.dense_disposable<1203:"0x9BCD663B"> : tensor<f32>} : () -> tensor<f32>
    %1203 = "onnx.Constant"() {value = #onnx.dense_disposable<1204:"0x00"> : tensor<i8>} : () -> tensor<i8>
    %1204 = "onnx.Constant"() {value = #onnx.dense_disposable<1205:"…...
    %1205 = "onnx.Constant"() {value = #onnx.dense_disposable<1206:"0x8D46233B"> : tensor<f32>} : () -> tensor<f32>
    %1206 = "onnx.Constant"() {value = #onnx.dense_disposable<1207:"0x00"> : tensor<i8>} : () -> tensor<i8>
    %1207 = "onnx.Constant"() {value = #onnx.dense_disposable<1208:"…...
    %1208 = "onnx.Constant"() {value = #onnx.dense_disposable<1209:"0xE270383B"> : tensor<f32>} : () -> tensor<f32>
    %1209 = "onnx.Constant"() {value = #onnx.dense_disposable<1210:"0x00"> : tensor<i8>} : () -> tensor<i8>
    %1210 = "onnx.Constant"() {value = #onnx.dense_disposable<1211:"…...
    %1211 = "onnx.Constant"() {value = #onnx.dense_disposable<1212:"0xAFD76B3B"> : tensor<f32>} : () -> tensor<f32>
    %1212 = "onnx.Constant"() {value = #onnx.dense_disposable<1213:"0x00"> : tensor<i8>} : () -> tensor<i8>
    %1213 = "onnx.Constant"() {value = #onnx.dense_disposable<1214:"…...
    %1214 = "onnx.Constant"() {value = #onnx.dense_disposable<1215:"0x5FAFD73A"> : tensor<f32>} : () -> tensor<f32>
    %1215 = "onnx.Constant"() {value = #onnx.dense_disposable<1216:"0x00"> : tensor<i8>} : () -> tensor<i8>
    %1216 = "onnx.Constant"() {value = #onnx.dense_disposable<1217:"…...
    %1217 = "onnx.Constant"() {value = #onnx.dense_disposable<1218:"0x168B453B"> : tensor<f32>} : () -> tensor<f32>
    %1218 = "onnx.Constant"() {value = #onnx.dense_disposable<1219:"0x00"> : tensor<i8>} : () -> tensor<i8>
    %1219 = "onnx.Constant"() {value = #onnx.dense_disposable<1220:"…...
    %1220 = "onnx.Constant"() {value = #onnx.dense_disposable<1221:"0x753A9D3A"> : tensor<f32>} : () -> tensor<f32>
    %1221 = "onnx.Constant"() {value = #onnx.dense_disposable<1222:"0x00"> : tensor<i8>} : () -> tensor<i8>
    %1222 = "onnx.Constant"() {value = #onnx.dense_disposable<1223:"…...
    %1223 = "onnx.Constant"() {value = #onnx.dense_disposable<1224:"0x180C063B"> : tensor<f32>} : () -> tensor<f32>
    %1224 = "onnx.Constant"() {value = #onnx.dense_disposable<1225:"0x00"> : tensor<i8>} : () -> tensor<i8>
    %1225 = "onnx.Constant"() {value = #onnx.dense_disposable<1226:"…...
    %1226 = "onnx.Constant"() {value = #onnx.dense_disposable<1227:"0xF67A3D3B"> : tensor<f32>} : () -> tensor<f32>
    %1227 = "onnx.Constant"() {value = #onnx.dense_disposable<1228:"0x00"> : tensor<i8>} : () -> tensor<i8>
    %1228 = "onnx.Constant"() {value = #onnx.dense_disposable<1229:"…...
    %1229 = "onnx.Constant"() {value = #onnx.dense_disposable<1230:"0xA3D1683B"> : tensor<f32>} : () -> tensor<f32>
    %1230 = "onnx.Constant"() {value = #onnx.dense_disposable<1231:"0x00"> : tensor<i8>} : () -> tensor<i8>
    %1231 = "onnx.Constant"() {value = #onnx.dense_disposable<1232:"…...
    %1232 = "onnx.Constant"() {value = #onnx.dense_disposable<1233:"0x8542A13B"> : tensor<f32>} : () -> tensor<f32>
    %1233 = "onnx.Constant"() {value = #onnx.dense_disposable<1234:"0x00"> : tensor<i8>} : () -> tensor<i8>
    %1234 = "onnx.Constant"() {value = #onnx.dense_disposable<1235:"…...
    %1235 = "onnx.Constant"() {value = #onnx.dense_disposable<1236:"0x592C163B"> : tensor<f32>} : () -> tensor<f32>
    %1236 = "onnx.Constant"() {value = #onnx.dense_disposable<1237:"0x00"> : tensor<i8>} : () -> tensor<i8>
    %1237 = "onnx.Constant"() {value = #onnx.dense_disposable<1238:"…...
    %1238 = "onnx.Constant"() {value = #onnx.dense_disposable<1239:"0xAD562B3B"> : tensor<f32>} : () -> tensor<f32>
    %1239 = "onnx.Constant"() {value = #onnx.dense_disposable<1240:"0x00"> : tensor<i8>} : () -> tensor<i8>
    %1240 = "onnx.Constant"() {value = #onnx.dense_disposable<1241:"…...
    %1241 = "onnx.Constant"() {value = #onnx.dense_disposable<1242:"0xD66A353A"> : tensor<f32>} : () -> tensor<f32>
    %1242 = "onnx.Constant"() {value = #onnx.dense_disposable<1243:"0x00"> : tensor<i8>} : () -> tensor<i8>
    %1243 = "onnx.Constant"() {value = #onnx.dense_disposable<1244:"…...
    %1244 = "onnx.Constant"() {value = #onnx.dense_disposable<1245:"0xF67A3D3B"> : tensor<f32>} : () -> tensor<f32>
…
    %3126:3 = "onnx.DynamicQuantizeLinear"(%3125) {onnx_node_name = "/model/layers.13/self_attn/Reshape_7_output_0_QuantizeLinear"} : (tensor<1x128x2048xf32>) -> (tensor<1x1x2048xui8>, tensor<f32>, tensor<ui8>)
    %3127 = "onnx.MatMulInteger"(%3126#0, %1372, %3126#2, %1371) {onnx_node_name = "/model/layers.13/self_attn/o_proj/MatMul_quant"} : (tensor<1x1x2048xui8>, tensor<2048x2048xi8>, tensor<ui8>, tensor<i8>) -> tensor<1x1x2048xi32>
    %3128 = "onnx.Cast"(%3127) {onnx_node_name = "/model/layers.13/self_attn/o_proj/MatMul_output_0_output_quantized_cast", saturate = 1 : si64, to = f32} : (tensor<1x1x2048xi32>) -> tensor<1x1x2048xf32>
    %3129 = "onnx.Mul"(%3126#1, %1370) {onnx_node_name = "/model/layers.13/self_attn/o_proj/MatMul_quant_scales_mul"} : (tensor<f32>, tensor<f32>) -> tensor<f32>
    %3130 = "onnx.Mul"(%3128, %3129) {onnx_node_name = "/model/layers.13/self_attn/o_proj/MatMul_quant_output_scale_mul"} : (tensor<1x1x2048xf32>, tensor<f32>) -> tensor<1x1x2048xf32>
    %3131 = "onnx.Add"(%3038, %3130) {onnx_node_name = "/model/layers.13/Add"} : (tensor<1x1x2048xf32>, tensor<1x1x2048xf32>) -> tensor<1x1x2048xf32>
    %3132 = "onnx.Pow"(%3131, %949) {onnx_node_name = "/model/layers.13/post_attention_layernorm/Pow"} : (tensor<1x1x2048xf32>, tensor<f32>) -> tensor<1x1x2048xf32>
    %3133 = "onnx.ReduceMeanV13"(%3132) {axes = [-1], keepdims = 1 : si64, onnx_node_name = "/model/layers.13/post_attention_layernorm/ReduceMean"} : (tensor<1x1x2048xf32>) -> tensor<1x1x1xf32>
    %3134 = "onnx.Add"(%3133, %950) {onnx_node_name = "/model/layers.13/post_attention_layernorm/Add"} : (tensor<1x1x1xf32>, tensor<f32>) -> tensor<1x1x1xf32>
    %3135 = "onnx.Sqrt"(%3134) {onnx_node_name = "/model/layers.13/post_attention_layernorm/Sqrt"} : (tensor<1x1x1xf32>) -> tensor<1x1x1xf32>
    %3136 = "onnx.Div"(%951, %3135) {onnx_node_name = "/model/layers.13/post_attention_layernorm/Div"} : (tensor<f32>, tensor<1x1x1xf32>) -> tensor<1x1x1xf32>
    %3137 = "onnx.Mul"(%3131, %3136) {onnx_node_name = "/model/layers.13/post_attention_layernorm/Mul"} : (tensor<1x1x2048xf32>, tensor<1x1x1xf32>) -> tensor<1x1x2048xf32>
    %3138 = "onnx.Mul"(%952, %3137) {onnx_node_name = "/model/layers.13/post_attention_layernorm/Mul_1"} : (tensor<2048xf32>, tensor<1x1x2048xf32>) -> tensor<1x1x2048xf32>
    %3139:3 = "onnx.DynamicQuantizeLinear"(%3138) {onnx_node_name = "/model/layers.13/post_attention_layernorm/Mul_1_output_0_QuantizeLinear"} : (tensor<1x1x2048xf32>) -> (tensor<1x1x2048xui8>, tensor<f32>, tensor<ui8>)
    %3140 = "onnx.MatMulInteger"(%3139#0, %1375, %3139#2, %1374) {onnx_node_name = "/model/layers.13/mlp/gate_proj/MatMul_quant"} : (tensor<1x1x2048xui8>, tensor<2048x8192xi8>, tensor<ui8>, tensor<i8>) -> tensor<1x1x8192xi32>
    %3141 = "onnx.Cast"(%3140) {onnx_node_name = "/model/layers.13/mlp/gate_proj/MatMul_output_0_output_quantized_cast", saturate = 1 : si64, to = f32} : (tensor<1x1x8192xi32>) -> tensor<1x1x8192xf32>
    %3142 = "onnx.Mul"(%3139#1, %1373) {onnx_node_name = "/model/layers.13/mlp/gate_proj/MatMul_quant_scales_mul"} : (tensor<f32>, tensor<f32>) -> tensor<f32>
    %3143 = "onnx.Mul"(%3141, %3142) {onnx_node_name = "/model/layers.13/mlp/gate_proj/MatMul_quant_output_scale_mul"} : (tensor<1x1x8192xf32>, tensor<f32>) -> tensor<1x1x8192xf32>
    %3144 = "onnx.MatMulInteger"(%3139#0, %1378, %3139#2, %1377) {onnx_node_name = "/model/layers.13/mlp/up_proj/MatMul_quant"} : (tensor<1x1x2048xui8>, tensor<2048x8192xi8>, tensor<ui8>, tensor<i8>) -> tensor<1x1x8192xi32>
    %3145 = "onnx.Cast"(%3144) {onnx_node_name = "/model/layers.13/mlp/up_proj/MatMul_output_0_output_quantized_cast", saturate = 1 : si64, to = f32} : (tensor<1x1x8192xi32>) -> tensor<1x1x8192xf32>
    %3146 = "onnx.Mul"(%3139#1, %1376) {onnx_node_name = "/model/layers.13/mlp/up_proj/MatMul_quant_scales_mul"} : (tensor<f32>, tensor<f32>) -> tensor<f32>
    %3147 = "onnx.Mul"(%3145, %3146) {onnx_node_name = "/model/layers.13/mlp/up_proj/MatMul_quant_output_scale_mul"} : (tensor<1x1x8192xf32>, tensor<f32>) -> tensor<1x1x8192xf32>
    %3148 = "onnx.Sigmoid"(%3143) {onnx_node_name = "/model/layers.13/mlp/act_fn/Sigmoid"} : (tensor<1x1x8192xf32>) -> tensor<1x1x8192xf32>
    %3149 = "onnx.Mul"(%3143, %3148) {onnx_node_name = "/model/layers.13/mlp/act_fn/Mul"} : (tensor<1x1x8192xf32>, tensor<1x1x8192xf32>) -> tensor<1x1x8192xf32>
    %3150 = "onnx.Mul"(%3149, %3147) {onnx_node_name = "/model/layers.13/mlp/Mul"} : (tensor<1x1x8192xf32>, tensor<1x1x8192xf32>) -> tensor<1x1x8192xf32>
    %3151:3 = "onnx.DynamicQuantizeLinear"(%3150) {onnx_node_name = "/model/layers.13/mlp/Mul_output_0_QuantizeLinear"} : (tensor<1x1x8192xf32>) -> (tensor<1x1x8192xui8>, tensor<f32>, tensor<ui8>)
    %3152 = "onnx.MatMulInteger"(%3151#0, %1381, %3151#2, %1380) {onnx_node_name = "/model/layers.13/mlp/down_proj/MatMul_quant"} : (tensor<1x1x8192xui8>, tensor<8192x2048xi8>, tensor<ui8>, tensor<i8>) -> tensor<1x1x2048xi32>
    %3153 = "onnx.Cast"(%3152) {onnx_node_name = "/model/layers.13/mlp/down_proj/MatMul_output_0_output_quantized_cast", saturate = 1 : si64, to = f32} : (tensor<1x1x2048xi32>) -> tensor<1x1x2048xf32>
    %3154 = "onnx.Mul"(%3151#1, %1379) {onnx_node_name = "/model/layers.13/mlp/down_proj/MatMul_quant_scales_mul"} : (tensor<f32>, tensor<f32>) -> tensor<f32>
    %3155 = "onnx.Mul"(%3153, %3154) {onnx_node_name = "/model/layers.13/mlp/down_proj/MatMul_quant_output_scale_mul"} : (tensor<1x1x2048xf32>, tensor<f32>) -> tensor<1x1x2048xf32>
    %3156 = "onnx.Add"(%3131, %3155) {onnx_node_name = "/model/layers.13/Add_1"} : (tensor<1x1x2048xf32>, tensor<1x1x2048xf32>) -> tensor<1x1x2048xf32>
    %3157 = "onnx.Pow"(%3156, %953) {onnx_node_name = "/model/layers.14/input_layernorm/Pow"} : (tensor<1x1x2048xf32>, tensor<f32>) -> tensor<1x1x2048xf32>
    %3158 = "onnx.ReduceMeanV13"(%3157) {axes = [-1], keepdims = 1 : si64, onnx_node_name = "/model/layers.14/input_layernorm/ReduceMean"} : (tensor<1x1x2048xf32>) -> tensor<1x1x1xf32>
    %3159 = "onnx.Add"(%3158, %954) {onnx_node_name = "/model/layers.14/input_layernorm/Add"} : (tensor<1x1x1xf32>, tensor<f32>) -> tensor<1x1x1xf32>
    %3160 = "onnx.Sqrt"(%3159) {onnx_node_name = "/model/layers.14/input_layernorm/Sqrt"} : (tensor<1x1x1xf32>) -> tensor<1x1x1xf32>
    %3161 = "onnx.Div"(%955, %3160) {onnx_node_name = "/model/layers.14/input_layernorm/Div"} : (tensor<f32>, tensor<1x1x1xf32>) -> tensor<1x1x1xf32>
    %3162 = "onnx.Mul"(%3156, %3161) {onnx_node_name = "/model/layers.14/input_layernorm/Mul"} : (tensor<1x1x2048xf32>, tensor<1x1x1xf32>) -> tensor<1x1x2048xf32>
    %3163 = "onnx.Mul"(%956, %3162) {onnx_node_name = "/model/layers.14/input_layernorm/Mul_1"} : (tensor<2048xf32>, tensor<1x1x2048xf32>) -> tensor<1x128x2048xf32>
    %3164 = "onnx.Shape"(%3163) {onnx_node_name = "/model/layers.14/self_attn/Shape", start = 0 : si64} : (tensor<1x128x2048xf32>) -> tensor<3xi64>
    %3165:3 = "onnx.DynamicQuantizeLinear"(%3163) {onnx_node_name = "/model/layers.14/input_layernorm/Mul_1_output_0_QuantizeLinear"} : (tensor<1x128x2048xf32>) -> (tensor<1x1x2048xui8>, tensor<f32>, tensor<ui8>)
    %3166 = "onnx.MatMulInteger"(%3165#0, %1384, %3165#2, %1383) {onnx_node_name = "/model/layers.14/self_attn/q_proj/MatMul_quant"} : (tensor<1x1x2048xui8>, tensor<2048x2048xi8>, tensor<ui8>, tensor<i8>) -> tensor<1x1x2048xi32>
    %3167 = "onnx.Cast"(%3166) {onnx_node_name = "/model/layers.14/self_attn/q_proj/MatMul_output_0_output_quantized_cast", saturate = 1 : si64, to = f32} : (tensor<1x1x2048xi32>) -> tensor<1x1x2048xf32>
    %3168 = "onnx.Mul"(%3165#1, %1382) {onnx_node_name = "/model/layers.14/self_attn/q_proj/MatMul_quant_scales_mul"} : (tensor<f32>, tensor<f32>) -> tensor<f32>
    %3169 = "onnx.Mul"(%3167, %3168) {onnx_node_name = "/model/layers.14/self_attn/q_proj/MatMul_quant_output_scale_mul"} : (tensor<1x1x2048xf32>, tensor<f32>) -> tensor<1x128x512xf32>
    %3170 = "onnx.MatMulInteger"(%3165#0, %1387, %3165#2, %1386) {onnx_node_name = "/model/layers.14/self_attn/k_proj/MatMul_quant"} : (tensor<1x1x2048xui8>, tensor<2048x512xi8>, tensor<ui8>, tensor<i8>) -> tensor<1x1x512xi32>
    %3171 = "onnx.Cast"(%3170) {onnx_node_name = "/model/layers.14/self_attn/k_proj/MatMul_output_0_output_quantized_cast", saturate = 1 : si64, to = f32} : (tensor<1x1x512xi32>) -> tensor<1x1x512xf32>
    %3172 = "onnx.Mul"(%3165#1, %1385) {onnx_node_name = "/model/layers.14/self_attn/k_proj/MatMul_quant_scales_mul"} : (tensor<f32>, tensor<f32>) -> tensor<f32>
    %3173 = "onnx.Mul"(%3171, %3172) {onnx_node_name = "/model/layers.14/self_attn/k_proj/MatMul_quant_output_scale_mul"} : (tensor<1x1x512xf32>, tensor<f32>) -> tensor<1x8x4x128x64xf32>
    %3174 = "onnx.MatMulInteger"(%3165#0, %1390, %3165#2, %1389) {onnx_node_name = "/model/layers.14/self_attn/v_proj/MatMul_quant"} : (tensor<1x1x2048xui8>, tensor<2048x512xi8>, tensor<ui8>, tensor<i8>) -> tensor<1x1x512xi32>
    %3175 = "onnx.Cast"(%3174) {onnx_node_name = "/model/layers.14/self_attn/v_proj/MatMul_output_0_output_quantized_cast", saturate = 1 : si64, to = f32} : (tensor<1x1x512xi32>) -> tensor<1x1x512xf32>
    %3176 = "onnx.Mul"(%3165#1, %1388) {onnx_node_name = "/model/layers.14/self_attn/v_proj/MatMul_quant_scales_mul"} : (tensor<f32>, tensor<f32>) -> tensor<f32>
    %3177 = "onnx.Mul"(%3175, %3176) {onnx_node_name = "/model/layers.14/self_attn/v_proj/MatMul_quant_output_scale_mul"} : (tensor<1x1x512xf32>, tensor<f32>) -> tensor<1x128x2048xf32>
    %3178 = "onnx.Gather"(%3164, %957) {axis = 0 : si64, onnx_node_name = "/model/layers.14/self_attn/Gather"} : (tensor<3xi64>, tensor<i64>) -> tensor<i64>
    %3179 = "onnx.Gather"(%3164, %958) {axis = 0 : si64, onnx_node_name = "/model/layers.14/self_attn/Gather_1"} : (tensor<3xi64>, tensor<i64>) -> tensor<i64>
    %3180 = "onnx.Unsqueeze"(%3178, %959) {onnx_node_name = "/model/layers.14/self_attn/Unsqueeze"} : (tensor<i64>, tensor<1xi64>) -> tensor<1x8x128x32xi64>
    %3181 = "onnx.Unsqueeze"(%3179, %960) {onnx_node_name = "/model/layers.14/self_attn/Unsqueeze_1"} : (tensor<i64>, tensor<1xi64>) -> tensor<1x8x128x64xi64>
    %3182 = "onnx.Concat"(%3180, %3181, %961, %962) {axis = 0 : si64, onnx_node_name = "/model/layers.14/self_attn/Concat"} : (tensor<1x8x128x32xi64>, tensor<1x8x128x64xi64>, tensor<1xi64>, tensor<1xi64>) -> tensor<4xi64>
    %3183 = "onnx.Concat"(%3180, %3181, %963, %964) {axis = 0 : si64, onnx_node_name = "/model/layers.14/self_attn/Concat_1"} : (tensor<1x8x128x32xi64>, tensor<1x8x128x64xi64>, tensor<1xi64>, tensor<1xi64>) -> tensor<4xi64>
    %3184 = "onnx.Concat"(%3180, %3181, %965) {axis = 0 : si64, onnx_node_name = "/model/layers.14/self_attn/Concat_11"} : (tensor<1x8x128x32xi64>, tensor<1x8x128x64xi64>, tensor<1xi64>) -> tensor<3xi64>
    %3185 = "onnx.Reshape"(%3169, %3182) {allowzero = 0 : si64, onnx_node_name = "/model/layers.14/self_attn/Reshape"} : (tensor<1x128x512xf32>, tensor<4xi64>) -> tensor<1x128x8x64xf32>
    %3186 = "onnx.Reshape"(%3173, %3183) {allowzero = 0 : si64, onnx_node_name = "/model/layers.14/self_attn/Reshape_1"} : (tensor<1x8x4x128x64xf32>, tensor<4xi64>) -> tensor<1x32x128x64xf32>
    %3187 = "onnx.Reshape"(%3177, %3183) {allowzero = 0 : si64, onnx_node_name = "/model/layers.14/self_attn/Reshape_2"} : (tensor<1x128x2048xf32>, tensor<4xi64>) -> tensor<1x128x32x64xf32>
    %3188 = "onnx.Transpose"(%3185) {onnx_node_name = "/model/layers.14/self_attn/Transpose", perm = [0, 2, 1, 3]} : (tensor<1x128x8x64xf32>) -> tensor<1x32x1x64xf32>
    %3189 = "onnx.Transpose"(%3186) {onnx_node_name = "/model/layers.14/self_attn/Transpose_1", perm = [0, 2, 1, 3]} : (tensor<1x32x128x64xf32>) -> tensor<1x8x1x64xf32>
    %3190 = "onnx.Transpose"(%3187) {onnx_node_name = "/model/layers.14/self_attn/Transpose_2", perm = [0, 2, 1, 3]} : (tensor<1x128x32x64xf32>) -> tensor<1xf32>
    %3191 = "onnx.Mul"(%3188, %1498) {onnx_node_name = "/model/layers.14/self_attn/Mul"} : (tensor<1x32x1x64xf32>, tensor<1x1x128x64xf32>) -> tensor<1x32x1x64xf32>
    %3192 = "onnx.Mul"(%3189, %1498) {onnx_node_name = "/model/layers.14/self_attn/Mul_2"} : (tensor<1x8x1x64xf32>, tensor<1x1x128x64xf32>) -> tensor<1x8x1x64xf32>
    %3193 = "onnx.Concat"(%arg32, %3190) {axis = -2 : si64, onnx_node_name = "/model/layers.14/self_attn/Concat_6"} : (tensor<1xi64>, tensor<1xf32>) -> tensor<5xi64>
    %3194 = "onnx.Slice"(%3188, %966, %967, %968, %969) {onnx_node_name = "/model/layers.14/self_attn/Slice"} : (tensor<1x32x1x64xf32>, tensor<1xi64>, tensor<1xi64>, tensor<1xi64>, tensor<1xi64>) -> tensor<1xf32>
    %3195 = "onnx.Slice"(%3188, %970, %971, %972, %973) {onnx_node_name = "/model/layers.14/self_attn/Slice_1"} : (tensor<1x32x1x64xf32>, tensor<1xi64>, tensor<1xi64>, tensor<1xi64>, tensor<1xi64>) -> tensor<1x8x128x32xf32>
    %3196 = "onnx.Slice"(%3189, %974, %975, %976, %977) {onnx_node_name = "/model/layers.14/self_attn/Slice_2"} : (tensor<1x8x1x64xf32>, tensor<1xi64>, tensor<1xi64>, tensor<1xi64>, tensor<1xi64>) -> tensor<1xf32>
    %3197 = "onnx.Slice"(%3189, %978, %979, %980, %981) {onnx_node_name = "/model/layers.14/self_attn/Slice_3"} : (tensor<1x8x1x64xf32>, tensor<1xi64>, tensor<1xi64>, tensor<1xi64>, tensor<1xi64>) -> tensor<1x32x128x32xf32>
    %3198 = "onnx.Shape"(%3193) {onnx_node_name = "/model/layers.14/self_attn/Shape_9", start = 0 : si64} : (tensor<5xi64>) -> tensor<4xi64>
    %3199 = "onnx.Unsqueeze"(%3193, %982) {onnx_node_name = "/model/layers.14/self_attn/Unsqueeze_19"} : (tensor<5xi64>, tensor<1xi64>) -> tensor<1x8x1x128x64xf32>
    %3200 = "onnx.Neg"(%3195) {onnx_node_name = "/model/layers.14/self_attn/Neg"} : (tensor<1x8x128x32xf32>) -> tensor<1xf32>
    %3201 = "onnx.Neg"(%3197) {onnx_node_name = "/model/layers.14/self_attn/Neg_1"} : (tensor<1x32x128x32xf32>) -> tensor<1x32x128x32xf32>
    %3202 = "onnx.Gather"(%3198, %983) {axis = 0 : si64, onnx_node_name = "/model/layers.14/self_attn/Gather_8"} : (tensor<4xi64>, tensor<i64>) -> tensor<i64>
    %3203 = "onnx.Gather"(%3198, %984) {axis = 0 : si64, onnx_node_name = "/model/layers.14/self_attn/Gather_10"} : (tensor<4xi64>, tensor<i64>) -> tensor<1x8x128x64xi64>
    %3204 = "onnx.Concat"(%3200, %3194) {axis = -1 : si64, onnx_node_name = "/model/layers.14/self_attn/Concat_3"} : (tensor<1xf32>, tensor<1xf32>) -> tensor<4xf32>
    %3205 = "onnx.Concat"(%3201, %3196) {axis = -1 : si64, onnx_node_name = "/model/layers.14/self_attn/Concat_4"} : (tensor<1x32x128x32xf32>, tensor<1xf32>) -> tensor<4xf32>
    %3206 = "onnx.Unsqueeze"(%3202, %985) {onnx_node_name = "/model/layers.14/self_attn/Unsqueeze_20"} : (tensor<i64>, tensor<1xi64>) -> tensor<1x32x128x32xi64>
    %3207 = "onnx.Unsqueeze"(%3203, %986) {onnx_node_name = "/model/layers.14/self_attn/Unsqueeze_22"} : (tensor<1x8x128x64xi64>, tensor<1xi64>) -> tensor<1x8x1x128x64xi64>
    %3208 = "onnx.Mul"(%3204, %1499) {onnx_node_name = "/model/layers.14/self_attn/Mul_1"} : (tensor<4xf32>, tensor<1x128x8192xf32>) -> tensor<1x32x1x64xf32>
    %3209 = "onnx.Mul"(%3205, %1499) {onnx_node_name = "/model/layers.14/self_attn/Mul_3"} : (tensor<4xf32>, tensor<1x128x8192xf32>) -> tensor<1x8x1x64xf32>
    %3210 = "onnx.Concat"(%3206, %987, %988, %3207, %989) {axis = 0 : si64, onnx_node_name = "/model/layers.14/self_attn/Concat_9"} : (tensor<1x32x128x32xi64>, tensor<1xi64>, tensor<1xi64>, tensor<1x8x1x128x64xi64>, tensor<1xi64>) -> tensor<1x32x128x64xi64>
    %3211 = "onnx.Concat"(%3206, %990, %3207, %991) {axis = 0 : si64, onnx_node_name = "/model/layers.14/self_attn/Concat_10"} : (tensor<1x32x128x32xi64>, tensor<1xi64>, tensor<1x8x1x128x64xi64>, tensor<1xi64>) -> tensor<1x8x128x64xi64>
    %3212 = "onnx.Add"(%3191, %3208) {onnx_node_name = "/model/layers.14/self_attn/Add"} : (tensor<1x32x1x64xf32>, tensor<1x32x1x64xf32>) -> tensor<1x32x1x64xf32>
    %3213 = "onnx.Add"(%3192, %3209) {onnx_node_name = "/model/layers.14/self_attn/Add_1"} : (tensor<1x8x1x64xf32>, tensor<1x8x1x64xf32>) -> tensor<1xf32>
    %3214 = "onnx.Concat"(%arg31, %3213) {axis = -2 : si64, onnx_node_name = "/model/layers.14/self_attn/Concat_5"} : (tensor<1xi64>, tensor<1xf32>) -> tensor<5xi64>
    %3215 = "onnx.Mul"(%3212, %992) {onnx_node_name = "/model/layers.14/self_attn/Mul_8"} : (tensor<1x32x1x64xf32>, tensor<1xf32>) -> tensor<1x32x1x64xf32>
    %3216 = "onnx.Equal"(%3210, %993) {onnx_node_name = "/model/layers.14/self_attn/Equal_1"} : (tensor<1x32x128x64xi64>, tensor<5xi64>) -> tensor<5xi1>
    %3217 = "onnx.Shape"(%3214) {onnx_node_name = "/model/layers.14/self_attn/Shape_4", start = 0 : si64} : (tensor<5xi64>) -> tensor<4xi64>
    %3218 = "onnx.Unsqueeze"(%3214, %994) {onnx_node_name = "/model/layers.14/self_attn/Unsqueeze_10"} : (tensor<5xi64>, tensor<1xi64>) -> tensor<1x8x1x128x64xf32>
    %3219 = "onnx.Where"(%3216, %995, %3210) {onnx_node_name = "/model/layers.14/self_attn/Where_1"} : (tensor<5xi1>, tensor<5xi64>, tensor<1x32x128x64xi64>) -> tensor<5xi64>
    %3220 = "onnx.Gather"(%3217, %996) {axis = 0 : si64, onnx_node_name = "/model/layers.14/self_attn/Gather_4"} : (tensor<4xi64>, tensor<i64>) -> tensor<i64>
    %3221 = "onnx.Gather"(%3217, %997) {axis = 0 : si64, onnx_node_name = "/model/layers.14/self_attn/Gather_6"} : (tensor<4xi64>, tensor<i64>) -> tensor<i64>
    %3222 = "onnx.Expand"(%3199, %3219) {onnx_node_name = "/model/layers.14/self_attn/Expand_1"} : (tensor<1x8x1x128x64xf32>, tensor<5xi64>) -> tensor<1x128x512xf32>
    %3223 = "onnx.Unsqueeze"(%3220, %998) {onnx_node_name = "/model/layers.14/self_attn/Unsqueeze_11"} : (tensor<i64>, tensor<1xi64>) -> tensor<1xi64>
    %3224 = "onnx.Unsqueeze"(%3221, %999) {onnx_node_name = "/model/layers.14/self_attn/Unsqueeze_13"} : (tensor<i64>, tensor<1xi64>) -> tensor<1xi64>
    %3225 = "onnx.Reshape"(%3222, %3211) {allowzero = 0 : si64, onnx_node_name = "/model/layers.14/self_attn/Reshape_6"} : (tensor<1x128x512xf32>, tensor<1x8x128x64xi64>) -> tensor<1x128x8x64xf32>
    %3226 = "onnx.Concat"(%3223, %1000, %1001, %3224, %1002) {axis = 0 : si64, onnx_node_name = "/model/layers.14/self_attn/Concat_7"} : (tensor<1xi64>, tensor<1xi64>, tensor<1xi64>, tensor<1xi64>, tensor<1xi64>) -> tensor<4xi64>
    %3227 = "onnx.Concat"(%3223, %1003, %3224, %1004) {axis = 0 : si64, onnx_node_name = "/model/layers.14/self_attn/Concat_8"} : (tensor<1xi64>, tensor<1xi64>, tensor<1xi64>, tensor<1xi64>) -> tensor<3xi64>
    %3228 = "onnx.Equal"(%3226, %1005) {onnx_node_name = "/model/layers.14/self_attn/Equal"} : (tensor<4xi64>, tensor<5xi64>) -> tensor<5xi1>
    %3229 = "onnx.Where"(%3228, %1006, %3226) {onnx_node_name = "/model/layers.14/self_attn/Where"} : (tensor<5xi1>, tensor<5xi64>, tensor<4xi64>) -> tensor<5xi64>
    %3230 = "onnx.Expand"(%3218, %3229) {onnx_node_name = "/model/layers.14/self_attn/Expand"} : (tensor<1x8x1x128x64xf32>, tensor<5xi64>) -> tensor<1x8x4x128x64xf32>
    %3231 = "onnx.Reshape"(%3230, %3227) {allowzero = 0 : si64, onnx_node_name = "/model/layers.14/self_attn/Reshape_4"} : (tensor<1x8x4x128x64xf32>, tensor<3xi64>) -> tensor<1x32x128x64xf32>
    %3232 = "onnx.Shape"(%3231) {onnx_node_name = "/model/layers.14/self_attn/Shape_14", start = 0 : si64} : (tensor<1x32x128x64xf32>) -> tensor<4xi64>
    %3233 = "onnx.Transpose"(%3231) {onnx_node_name = "/model/layers.14/self_attn/Transpose_3", perm = [0, 1, 3, 2]} : (tensor<1x32x128x64xf32>) -> tensor<1x32x64x1xf32>
    %3234 = "onnx.Gather"(%3232, %1007) {axis = 0 : si64, onnx_node_name = "/model/layers.14/self_attn/Gather_12"} : (tensor<4xi64>, tensor<i64>) -> tensor<1x8x128x64xi64>
    %3235 = "onnx.Mul"(%3233, %1008) {onnx_node_name = "/model/layers.14/self_attn/Mul_9"} : (tensor<1x32x64x1xf32>, tensor<1xf32>) -> tensor<1x32x64x1xf32>
    %3236 = "onnx.Unsqueeze"(%3234, %1009) {onnx_node_name = "/model/layers.14/self_attn/Unsqueeze_28"} : (tensor<1x8x128x64xi64>, tensor<1xi64>) -> tensor<1x8x1x128x64xi64>
    %3237 = "onnx.MatMul"(%3215, %3235) {onnx_node_name = "/model/layers.14/self_attn/MatMul"} : (tensor<1x32x1x64xf32>, tensor<1x32x64x1xf32>) -> tensor<1x32x1x1xf32>
    %3238 = "onnx.Slice"(%1576, %1010, %3236, %1011, %1012) {onnx_node_name = "/model/layers.14/self_attn/Slice_4"} : (tensor<1x1x128x128xf32>, tensor<1xi64>, tensor<1x8x1x128x64xi64>, tensor<1xi64>, tensor<1xi64>) -> tensor<1x1x1x1xf32>
    %3239 = "onnx.Add"(%3237, %3238) {onnx_node_name = "/model/layers.14/self_attn/Add_2"} : (tensor<1x32x1x1xf32>, tensor<1x1x1x1xf32>) -> tensor<1x32x128x128xf32>
    %3240 = "onnx.Softmax"(%3239) {axis = -1 : si64, onnx_node_name = "/model/layers.14/self_attn/Softmax"} : (tensor<1x32x128x128xf32>) -> tensor<1x32x128x128xf32>
    %3241 = "onnx.MatMul"(%3240, %3225) {onnx_node_name = "/model/layers.14/self_attn/MatMul_1"} : (tensor<1x32x128x128xf32>, tensor<1x128x8x64xf32>) -> tensor<1x32x1x64xf32>
    %3242 = "onnx.Transpose"(%3241) {onnx_node_name = "/model/layers.14/self_attn/Transpose_4", perm = [0, 2, 1, 3]} : (tensor<1x32x1x64xf32>) -> tensor<1x128x32x64xf32>
    %3243 = "onnx.Reshape"(%3242, %3184) {allowzero = 0 : si64, onnx_node_name = "/model/layers.14/self_attn/Reshape_7"} : (tensor<1x128x32x64xf32>, tensor<3xi64>) -> tensor<1x128x2048xf32>
    %3244:3 = "onnx.DynamicQuantizeLinear"(%3243) {onnx_node_name = "/model/layers.14/self_attn/Reshape_7_output_0_QuantizeLinear"} : (tensor<1x128x2048xf32>) -> (tensor<1x1x2048xui8>, tensor<f32>, tensor<ui8>)
    %3245 = "onnx.MatMulInteger"(%3244#0, %1393, %3244#2, %1392) {onnx_node_name = "/model/layers.14/self_attn/o_proj/MatMul_quant"} : (tensor<1x1x2048xui8>, tensor<2048x2048xi8>, tensor<ui8>, tensor<i8>) -> tensor<1x1x2048xi32>
    %3246 = "onnx.Cast"(%3245) {onnx_node_name = "/model/layers.14/self_attn/o_proj/MatMul_output_0_output_quantized_cast", saturate = 1 : si64, to = f32} : (tensor<1x1x2048xi32>) -> tensor<1x1x2048xf32>
    %3247 = "onnx.Mul"(%3244#1, %1391) {onnx_node_name = "/model/layers.14/self_attn/o_proj/MatMul_quant_scales_mul"} : (tensor<f32>, tensor<f32>) -> tensor<f32>
    %3248 = "onnx.Mul"(%3246, %3247) {onnx_node_name = "/model/layers.14/self_attn/o_proj/MatMul_quant_output_scale_mul"} : (tensor<1x1x2048xf32>, tensor<f32>) -> tensor<1x1x2048xf32>
    %3249 = "onnx.Add"(%3156, %3248) {onnx_node_name = "/model/layers.14/Add"} : (tensor<1x1x2048xf32>, tensor<1x1x2048xf32>) -> tensor<1x1x2048xf32>
    %3250 = "onnx.Pow"(%3249, %1013) {onnx_node_name = "/model/layers.14/post_attention_layernorm/Pow"} : (tensor<1x1x2048xf32>, tensor<f32>) -> tensor<1x1x2048xf32>
    %3251 = "onnx.ReduceMeanV13"(%3250) {axes = [-1], keepdims = 1 : si64, onnx_node_name = "/model/layers.14/post_attention_layernorm/ReduceMean"} : (tensor<1x1x2048xf32>) -> tensor<1x1x1xf32>
    %3252 = "onnx.Add"(%3251, %1014) {onnx_node_name = "/model/layers.14/post_attention_layernorm/Add"} : (tensor<1x1x1xf32>, tensor<f32>) -> tensor<1x1x1xf32>
    %3253 = "onnx.Sqrt"(%3252) {onnx_node_name = "/model/layers.14/post_attention_layernorm/Sqrt"} : (tensor<1x1x1xf32>) -> tensor<1x1x1xf32>
    %3254 = "onnx.Div"(%1015, %3253) {onnx_node_name = "/model/layers.14/post_attention_layernorm/Div"} : (tensor<f32>, tensor<1x1x1xf32>) -> tensor<1x1x1xf32>
    %3255 = "onnx.Mul"(%3249, %3254) {onnx_node_name = "/model/layers.14/post_attention_layernorm/Mul"} : (tensor<1x1x2048xf32>, tensor<1x1x1xf32>) -> tensor<1x1x2048xf32>
    %3256 = "onnx.Mul"(%1016, %3255) {onnx_node_name = "/model/layers.14/post_attention_layernorm/Mul_1"} : (tensor<2048xf32>, tensor<1x1x2048xf32>) -> tensor<1x1x2048xf32>
    %3257:3 = "onnx.DynamicQuantizeLinear"(%3256) {onnx_node_name = "/model/layers.14/post_attention_layernorm/Mul_1_output_0_QuantizeLinear"} : (tensor<1x1x2048xf32>) -> (tensor<1x1x2048xui8>, tensor<f32>, tensor<ui8>)
    %3258 = "onnx.MatMulInteger"(%3257#0, %1396, %3257#2, %1395) {onnx_node_name = "/model/layers.14/mlp/gate_proj/MatMul_quant"} : (tensor<1x1x2048xui8>, tensor<2048x8192xi8>, tensor<ui8>, tensor<i8>) -> tensor<1x1x8192xi32>
    %3259 = "onnx.Cast"(%3258) {onnx_node_name = "/model/layers.14/mlp/gate_proj/MatMul_output_0_output_quantized_cast", saturate = 1 : si64, to = f32} : (tensor<1x1x8192xi32>) -> tensor<1x1x8192xf32>
    %3260 = "onnx.Mul"(%3257#1, %1394) {onnx_node_name = "/model/layers.14/mlp/gate_proj/MatMul_quant_scales_mul"} : (tensor<f32>, tensor<f32>) -> tensor<f32>
    %3261 = "onnx.Mul"(%3259, %3260) {onnx_node_name = "/model/layers.14/mlp/gate_proj/MatMul_quant_output_scale_mul"} : (tensor<1x1x8192xf32>, tensor<f32>) -> tensor<1x1x8192xf32>
    %3262 = "onnx.MatMulInteger"(%3257#0, %1399, %3257#2, %1398) {onnx_node_name = "/model/layers.14/mlp/up_proj/MatMul_quant"} : (tensor<1x1x2048xui8>, tensor<2048x8192xi8>, tensor<ui8>, tensor<i8>) -> tensor<1x1x8192xi32>
    %3263 = "onnx.Cast"(%3262) {onnx_node_name = "/model/layers.14/mlp/up_proj/MatMul_output_0_output_quantized_cast", saturate = 1 : si64, to = f32} : (tensor<1x1x8192xi32>) -> tensor<1x1x8192xf32>
    %3264 = "onnx.Mul"(%3257#1, %1397) {onnx_node_name = "/model/layers.14/mlp/up_proj/MatMul_quant_scales_mul"} : (tensor<f32>, tensor<f32>) -> tensor<f32>
    %3265 = "onnx.Mul"(%3263, %3264) {onnx_node_name = "/model/layers.14/mlp/up_proj/MatMul_quant_output_scale_mul"} : (tensor<1x1x8192xf32>, tensor<f32>) -> tensor<1x1x8192xf32>
    %3266 = "onnx.Sigmoid"(%3261) {onnx_node_name = "/model/layers.14/mlp/act_fn/Sigmoid"} : (tensor<1x1x8192xf32>) -> tensor<1x1x8192xf32>
    %3267 = "onnx.Mul"(%3261, %3266) {onnx_node_name = "/model/layers.14/mlp/act_fn/Mul"} : (tensor<1x1x8192xf32>, tensor<1x1x8192xf32>) -> tensor<1x1x8192xf32>
    %3268 = "onnx.Mul"(%3267, %3265) {onnx_node_name = "/model/layers.14/mlp/Mul"} : (tensor<1x1x8192xf32>, tensor<1x1x8192xf32>) -> tensor<1x1x8192xf32>
    %3269:3 = "onnx.DynamicQuantizeLinear"(%3268) {onnx_node_name = "/model/layers.14/mlp/Mul_output_0_QuantizeLinear"} : (tensor<1x1x8192xf32>) -> (tensor<1x1x8192xui8>, tensor<f32>, tensor<ui8>)
    %3270 = "onnx.MatMulInteger"(%3269#0, %1402, %3269#2, %1401) {onnx_node_name = "/model/layers.14/mlp/down_proj/MatMul_quant"} : (tensor<1x1x8192xui8>, tensor<8192x2048xi8>, tensor<ui8>, tensor<i8>) -> tensor<1x1x2048xi32>
    %3271 = "onnx.Cast"(%3270) {onnx_node_name = "/model/layers.14/mlp/down_proj/MatMul_output_0_output_quantized_cast", saturate = 1 : si64, to = f32} : (tensor<1x1x2048xi32>) -> tensor<1x1x2048xf32>
    %3272 = "onnx.Mul"(%3269#1, %1400) {onnx_node_name = "/model/layers.14/mlp/down_proj/MatMul_quant_scales_mul"} : (tensor<f32>, tensor<f32>) -> tensor<f32>
    %3273 = "onnx.Mul"(%3271, %3272) {onnx_node_name = "/model/layers.14/mlp/down_proj/MatMul_quant_output_scale_mul"} : (tensor<1x1x2048xf32>, tensor<f32>) -> tensor<1x1x2048xf32>
    %3274 = "onnx.Add"(%3249, %3273) {onnx_node_name = "/model/layers.14/Add_1"} : (tensor<1x1x2048xf32>, tensor<1x1x2048xf32>) -> tensor<1x1x2048xf32>
    %3275 = "onnx.Pow"(%3274, %1017) {onnx_node_name = "/model/layers.15/input_layernorm/Pow"} : (tensor<1x1x2048xf32>, tensor<f32>) -> tensor<1x1x2048xf32>
    %3276 = "onnx.ReduceMeanV13"(%3275) {axes = [-1], keepdims = 1 : si64, onnx_node_name = "/model/layers.15/input_layernorm/ReduceMean"} : (tensor<1x1x2048xf32>) -> tensor<1x1x1xf32>
    %3277 = "onnx.Add"(%3276, %1018) {onnx_node_name = "/model/layers.15/input_layernorm/Add"} : (tensor<1x1x1xf32>, tensor<f32>) -> tensor<1x1x1xf32>
    %3278 = "onnx.Sqrt"(%3277) {onnx_node_name = "/model/layers.15/input_layernorm/Sqrt"} : (tensor<1x1x1xf32>) -> tensor<1x1x1xf32>
    %3279 = "onnx.Div"(%1019, %3278) {onnx_node_name = "/model/layers.15/input_layernorm/Div"} : (tensor<f32>, tensor<1x1x1xf32>) -> tensor<1x1x1xf32>
    %3280 = "onnx.Mul"(%3274, %3279) {onnx_node_name = "/model/layers.15/input_layernorm/Mul"} : (tensor<1x1x2048xf32>, tensor<1x1x1xf32>) -> tensor<1x1x2048xf32>
    %3281 = "onnx.Mul"(%1020, %3280) {onnx_node_name = "/model/layers.15/input_layernorm/Mul_1"} : (tensor<2048xf32>, tensor<1x1x2048xf32>) -> tensor<1x128x2048xf32>
    %3282 = "onnx.Shape"(%3281) {onnx_node_name = "/model/layers.15/self_attn/Shape", start = 0 : si64} : (tensor<1x128x2048xf32>) -> tensor<3xi64>
    %3283:3 = "onnx.DynamicQuantizeLinear"(%3281) {onnx_node_name = "/model/layers.15/input_layernorm/Mul_1_output_0_QuantizeLinear"} : (tensor<1x128x2048xf32>) -> (tensor<1x1x2048xui8>, tensor<f32>, tensor<ui8>)
    %3284 = "onnx.MatMulInteger"(%3283#0, %1405, %3283#2, %1404) {onnx_node_name = "/model/layers.15/self_attn/q_proj/MatMul_quant"} : (tensor<1x1x2048xui8>, tensor<2048x2048xi8>, tensor<ui8>, tensor<i8>) -> tensor<1x1x2048xi32>
    %3285 = "onnx.Cast"(%3284) {onnx_node_name = "/model/layers.15/self_attn/q_proj/MatMul_output_0_output_quantized_cast", saturate = 1 : si64, to = f32} : (tensor<1x1x2048xi32>) -> tensor<1x1x2048xf32>
    %3286 = "onnx.Mul"(%3283#1, %1403) {onnx_node_name = "/model/layers.15/self_attn/q_proj/MatMul_quant_scales_mul"} : (tensor<f32>, tensor<f32>) -> tensor<f32>
    %3287 = "onnx.Mul"(%3285, %3286) {onnx_node_name = "/model/layers.15/self_attn/q_proj/MatMul_quant_output_scale_mul"} : (tensor<1x1x2048xf32>, tensor<f32>) -> tensor<1x128x512xf32>
    %3288 = "onnx.MatMulInteger"(%3283#0, %1408, %3283#2, %1407) {onnx_node_name = "/model/layers.15/self_attn/k_proj/MatMul_quant"} : (tensor<1x1x2048xui8>, tensor<2048x512xi8>, tensor<ui8>, tensor<i8>) -> tensor<1x1x512xi32>
    %3289 = "onnx.Cast"(%3288) {onnx_node_name = "/model/layers.15/self_attn/k_proj/MatMul_output_0_output_quantized_cast", saturate = 1 : si64, to = f32} : (tensor<1x1x512xi32>) -> tensor<1x1x512xf32>
    %3290 = "onnx.Mul"(%3283#1, %1406) {onnx_node_name = "/model/layers.15/self_attn/k_proj/MatMul_quant_scales_mul"} : (tensor<f32>, tensor<f32>) -> tensor<f32>
    %3291 = "onnx.Mul"(%3289, %3290) {onnx_node_name = "/model/layers.15/self_attn/k_proj/MatMul_quant_output_scale_mul"} : (tensor<1x1x512xf32>, tensor<f32>) -> tensor<1x8x4x128x64xf32>
    %3292 = "onnx.MatMulInteger"(%3283#0, %1411, %3283#2, %1410) {onnx_node_name = "/model/layers.15/self_attn/v_proj/MatMul_quant"} : (tensor<1x1x2048xui8>, tensor<2048x512xi8>, tensor<ui8>, tensor<i8>) -> tensor<1x1x512xi32>
    %3293 = "onnx.Cast"(%3292) {onnx_node_name = "/model/layers.15/self_attn/v_proj/MatMul_output_0_output_quantized_cast", saturate = 1 : si64, to = f32} : (tensor<1x1x512xi32>) -> tensor<1x1x512xf32>
    %3294 = "onnx.Mul"(%3283#1, %1409) {onnx_node_name = "/model/layers.15/self_attn/v_proj/MatMul_quant_scales_mul"} : (tensor<f32>, tensor<f32>) -> tensor<f32>
    %3295 = "onnx.Mul"(%3293, %3294) {onnx_node_name = "/model/layers.15/self_attn/v_proj/MatMul_quant_output_scale_mul"} : (tensor<1x1x512xf32>, tensor<f32>) -> tensor<1x128x2048xf32>
    %3296 = "onnx.Gather"(%3282, %1021) {axis = 0 : si64, onnx_node_name = "/model/layers.15/self_attn/Gather"} : (tensor<3xi64>, tensor<i64>) -> tensor<i64>
    %3297 = "onnx.Gather"(%3282, %1022) {axis = 0 : si64, onnx_node_name = "/model/layers.15/self_attn/Gather_1"} : (tensor<3xi64>, tensor<i64>) -> tensor<i64>
    %3298 = "onnx.Unsqueeze"(%3296, %1023) {onnx_node_name = "/model/layers.15/self_attn/Unsqueeze"} : (tensor<i64>, tensor<1xi64>) -> tensor<1x8x128x32xi64>
    %3299 = "onnx.Unsqueeze"(%3297, %1024) {onnx_node_name = "/model/layers.15/self_attn/Unsqueeze_1"} : (tensor<i64>, tensor<1xi64>) -> tensor<1x8x128x64xi64>
    %3300 = "onnx.Concat"(%3298, %3299, %1025, %1026) {axis = 0 : si64, onnx_node_name = "/model/layers.15/self_attn/Concat"} : (tensor<1x8x128x32xi64>, tensor<1x8x128x64xi64>, tensor<1xi64>, tensor<1xi64>) -> tensor<4xi64>
    %3301 = "onnx.Concat"(%3298, %3299, %1027, %1028) {axis = 0 : si64, onnx_node_name = "/model/layers.15/self_attn/Concat_1"} : (tensor<1x8x128x32xi64>, tensor<1x8x128x64xi64>, tensor<1xi64>, tensor<1xi64>) -> tensor<4xi64>
    %3302 = "onnx.Concat"(%3298, %3299, %1029) {axis = 0 : si64, onnx_node_name = "/model/layers.15/self_attn/Concat_11"} : (tensor<1x8x128x32xi64>, tensor<1x8x128x64xi64>, tensor<1xi64>) -> tensor<3xi64>
    %3303 = "onnx.Reshape"(%3287, %3300) {allowzero = 0 : si64, onnx_node_name = "/model/layers.15/self_attn/Reshape"} : (tensor<1x128x512xf32>, tensor<4xi64>) -> tensor<1x128x8x64xf32>
    %3304 = "onnx.Reshape"(%3291, %3301) {allowzero = 0 : si64, onnx_node_name = "/model/layers.15/self_attn/Reshape_1"} : (tensor<1x8x4x128x64xf32>, tensor<4xi64>) -> tensor<1x32x128x64xf32>
    %3305 = "onnx.Reshape"(%3295, %3301) {allowzero = 0 : si64, onnx_node_name = "/model/layers.15/self_attn/Reshape_2"} : (tensor<1x128x2048xf32>, tensor<4xi64>) -> tensor<1x128x32x64xf32>
    %3306 = "onnx.Transpose"(%3303) {onnx_node_name = "/model/layers.15/self_attn/Transpose", perm = [0, 2, 1, 3]} : (tensor<1x128x8x64xf32>) -> tensor<1x32x1x64xf32>
    %3307 = "onnx.Transpose"(%3304) {onnx_node_name = "/model/layers.15/self_attn/Transpose_1", perm = [0, 2, 1, 3]} : (tensor<1x32x128x64xf32>) -> tensor<1x8x1x64xf32>
    %3308 = "onnx.Transpose"(%3305) {onnx_node_name = "/model/layers.15/self_attn/Transpose_2", perm = [0, 2, 1, 3]} : (tensor<1x128x32x64xf32>) -> tensor<1xf32>
    %3309 = "onnx.Mul"(%3306, %1498) {onnx_node_name = "/model/layers.15/self_attn/Mul"} : (tensor<1x32x1x64xf32>, tensor<1x1x128x64xf32>) -> tensor<1x32x1x64xf32>
    %3310 = "onnx.Mul"(%3307, %1498) {onnx_node_name = "/model/layers.15/self_attn/Mul_2"} : (tensor<1x8x1x64xf32>, tensor<1x1x128x64xf32>) -> tensor<1x8x1x64xf32>
    %3311 = "onnx.Concat"(%arg34, %3308) {axis = -2 : si64, onnx_node_name = "/model/layers.15/self_attn/Concat_6"} : (tensor<1xi64>, tensor<1xf32>) -> tensor<5xi64>
    %3312 = "onnx.Slice"(%3306, %1030, %1031, %1032, %1033) {onnx_node_name = "/model/layers.15/self_attn/Slice"} : (tensor<1x32x1x64xf32>, tensor<1xi64>, tensor<1xi64>, tensor<1xi64>, tensor<1xi64>) -> tensor<1xf32>
    %3313 = "onnx.Slice"(%3306, %1034, %1035, %1036, %1037) {onnx_node_name = "/model/layers.15/self_attn/Slice_1"} : (tensor<1x32x1x64xf32>, tensor<1xi64>, tensor<1xi64>, tensor<1xi64>, tensor<1xi64>) -> tensor<1x8x128x32xf32>
    %3314 = "onnx.Slice"(%3307, %1038, %1039, %1040, %1041) {onnx_node_name = "/model/layers.15/self_attn/Slice_2"} : (tensor<1x8x1x64xf32>, tensor<1xi64>, tensor<1xi64>, tensor<1xi64>, tensor<1xi64>) -> tensor<1xf32>
    %3315 = "onnx.Slice"(%3307, %1042, %1043, %1044, %1045) {onnx_node_name = "/model/layers.15/self_attn/Slice_3"} : (tensor<1x8x1x64xf32>, tensor<1xi64>, tensor<1xi64>, tensor<1xi64>, tensor<1xi64>) -> tensor<1x32x128x32xf32>
    %3316 = "onnx.Shape"(%3311) {onnx_node_name = "/model/layers.15/self_attn/Shape_9", start = 0 : si64} : (tensor<5xi64>) -> tensor<4xi64>
    %3317 = "onnx.Unsqueeze"(%3311, %1046) {onnx_node_name = "/model/layers.15/self_attn/Unsqueeze_19"} : (tensor<5xi64>, tensor<1xi64>) -> tensor<1x8x1x128x64xf32>
    %3318 = "onnx.Neg"(%3313) {onnx_node_name = "/model/layers.15/self_attn/Neg"} : (tensor<1x8x128x32xf32>) -> tensor<1xf32>
    %3319 = "onnx.Neg"(%3315) {onnx_node_name = "/model/layers.15/self_attn/Neg_1"} : (tensor<1x32x128x32xf32>) -> tensor<1x32x128x32xf32>
    %3320 = "onnx.Gather"(%3316, %1047) {axis = 0 : si64, onnx_node_name = "/model/layers.15/self_attn/Gather_8"} : (tensor<4xi64>, tensor<i64>) -> tensor<i64>
    %3321 = "onnx.Gather"(%3316, %1048) {axis = 0 : si64, onnx_node_name = "/model/layers.15/self_attn/Gather_10"} : (tensor<4xi64>, tensor<i64>) -> tensor<1x8x128x64xi64>
    %3322 = "onnx.Concat"(%3318, %3312) {axis = -1 : si64, onnx_node_name = "/model/layers.15/self_attn/Concat_3"} : (tensor<1xf32>, tensor<1xf32>) -> tensor<4xf32>
    %3323 = "onnx.Concat"(%3319, %3314) {axis = -1 : si64, onnx_node_name = "/model/layers.15/self_attn/Concat_4"} : (tensor<1x32x128x32xf32>, tensor<1xf32>) -> tensor<4xf32>
    %3324 = "onnx.Unsqueeze"(%3320, %1049) {onnx_node_name = "/model/layers.15/self_attn/Unsqueeze_20"} : (tensor<i64>, tensor<1xi64>) -> tensor<1x32x128x32xi64>
    %3325 = "onnx.Unsqueeze"(%3321, %1050) {onnx_node_name = "/model/layers.15/self_attn/Unsqueeze_22"} : (tensor<1x8x128x64xi64>, tensor<1xi64>) -> tensor<1x8x1x128x64xi64>
    %3326 = "onnx.Mul"(%3322, %1499) {onnx_node_name = "/model/layers.15/self_attn/Mul_1"} : (tensor<4xf32>, tensor<1x128x8192xf32>) -> tensor<1x32x1x64xf32>
    %3327 = "onnx.Mul"(%3323, %1499) {onnx_node_name = "/model/layers.15/self_attn/Mul_3"} : (tensor<4xf32>, tensor<1x128x8192xf32>) -> tensor<1x8x1x64xf32>
    %3328 = "onnx.Concat"(%3324, %1051, %1052, %3325, %1053) {axis = 0 : si64, onnx_node_name = "/model/layers.15/self_attn/Concat_9"} : (tensor<1x32x128x32xi64>, tensor<1xi64>, tensor<1xi64>, tensor<1x8x1x128x64xi64>, tensor<1xi64>) -> tensor<1x32x128x64xi64>
    %3329 = "onnx.Concat"(%3324, %1054, %3325, %1055) {axis = 0 : si64, onnx_node_name = "/model/layers.15/self_attn/Concat_10"} : (tensor<1x32x128x32xi64>, tensor<1xi64>, tensor<1x8x1x128x64xi64>, tensor<1xi64>) -> tensor<1x8x128x64xi64>
    %3330 = "onnx.Add"(%3309, %3326) {onnx_node_name = "/model/layers.15/self_attn/Add"} : (tensor<1x32x1x64xf32>, tensor<1x32x1x64xf32>) -> tensor<1x32x1x64xf32>
    %3331 = "onnx.Add"(%3310, %3327) {onnx_node_name = "/model/layers.15/self_attn/Add_1"} : (tensor<1x8x1x64xf32>, tensor<1x8x1x64xf32>) -> tensor<1xf32>
    %3332 = "onnx.Concat"(%arg33, %3331) {axis = -2 : si64, onnx_node_name = "/model/layers.15/self_attn/Concat_5"} : (tensor<1xi64>, tensor<1xf32>) -> tensor<5xi64>
    %3333 = "onnx.Mul"(%3330, %1056) {onnx_node_name = "/model/layers.15/self_attn/Mul_8"} : (tensor<1x32x1x64xf32>, tensor<1xf32>) -> tensor<1x32x1x64xf32>
    %3334 = "onnx.Equal"(%3328, %1057) {onnx_node_name = "/model/layers.15/self_attn/Equal_1"} : (tensor<1x32x128x64xi64>, tensor<5xi64>) -> tensor<5xi1>
    %3335 = "onnx.Shape"(%3332) {onnx_node_name = "/model/layers.15/self_attn/Shape_4", start = 0 : si64} : (tensor<5xi64>) -> tensor<4xi64>
    %3336 = "onnx.Unsqueeze"(%3332, %1058) {onnx_node_name = "/model/layers.15/self_attn/Unsqueeze_10"} : (tensor<5xi64>, tensor<1xi64>) -> tensor<1x8x1x128x64xf32>
    %3337 = "onnx.Where"(%3334, %1059, %3328) {onnx_node_name = "/model/layers.15/self_attn/Where_1"} : (tensor<5xi1>, tensor<5xi64>, tensor<1x32x128x64xi64>) -> tensor<5xi64>
    %3338 = "onnx.Gather"(%3335, %1060) {axis = 0 : si64, onnx_node_name = "/model/layers.15/self_attn/Gather_4"} : (tensor<4xi64>, tensor<i64>) -> tensor<i64>
    %3339 = "onnx.Gather"(%3335, %1061) {axis = 0 : si64, onnx_node_name = "/model/layers.15/self_attn/Gather_6"} : (tensor<4xi64>, tensor<i64>) -> tensor<i64>
    %3340 = "onnx.Expand"(%3317, %3337) {onnx_node_name = "/model/layers.15/self_attn/Expand_1"} : (tensor<1x8x1x128x64xf32>, tensor<5xi64>) -> tensor<1x128x512xf32>
    %3341 = "onnx.Unsqueeze"(%3338, %1062) {onnx_node_name = "/model/layers.15/self_attn/Unsqueeze_11"} : (tensor<i64>, tensor<1xi64>) -> tensor<1xi64>
    %3342 = "onnx.Unsqueeze"(%3339, %1063) {onnx_node_name = "/model/layers.15/self_attn/Unsqueeze_13"} : (tensor<i64>, tensor<1xi64>) -> tensor<1xi64>
    %3343 = "onnx.Reshape"(%3340, %3329) {allowzero = 0 : si64, onnx_node_name = "/model/layers.15/self_attn/Reshape_6"} : (tensor<1x128x512xf32>, tensor<1x8x128x64xi64>) -> tensor<1x128x8x64xf32>
    %3344 = "onnx.Concat"(%3341, %1064, %1065, %3342, %1066) {axis = 0 : si64, onnx_node_name = "/model/layers.15/self_attn/Concat_7"} : (tensor<1xi64>, tensor<1xi64>, tensor<1xi64>, tensor<1xi64>, tensor<1xi64>) -> tensor<4xi64>
    %3345 = "onnx.Concat"(%3341, %1067, %3342, %1068) {axis = 0 : si64, onnx_node_name = "/model/layers.15/self_attn/Concat_8"} : (tensor<1xi64>, tensor<1xi64>, tensor<1xi64>, tensor<1xi64>) -> tensor<3xi64>
    %3346 = "onnx.Equal"(%3344, %1069) {onnx_node_name = "/model/layers.15/self_attn/Equal"} : (tensor<4xi64>, tensor<5xi64>) -> tensor<5xi1>
    %3347 = "onnx.Where"(%3346, %1070, %3344) {onnx_node_name = "/model/layers.15/self_attn/Where"} : (tensor<5xi1>, tensor<5xi64>, tensor<4xi64>) -> tensor<5xi64>
    %3348 = "onnx.Expand"(%3336, %3347) {onnx_node_name = "/model/layers.15/self_attn/Expand"} : (tensor<1x8x1x128x64xf32>, tensor<5xi64>) -> tensor<1x8x4x128x64xf32>
    %3349 = "onnx.Reshape"(%3348, %3345) {allowzero = 0 : si64, onnx_node_name = "/model/layers.15/self_attn/Reshape_4"} : (tensor<1x8x4x128x64xf32>, tensor<3xi64>) -> tensor<1x32x128x64xf32>
    %3350 = "onnx.Shape"(%3349) {onnx_node_name = "/model/layers.15/self_attn/Shape_14", start = 0 : si64} : (tensor<1x32x128x64xf32>) -> tensor<4xi64>
    %3351 = "onnx.Transpose"(%3349) {onnx_node_name = "/model/layers.15/self_attn/Transpose_3", perm = [0, 1, 3, 2]} : (tensor<1x32x128x64xf32>) -> tensor<1x32x64x1xf32>
    %3352 = "onnx.Gather"(%3350, %1071) {axis = 0 : si64, onnx_node_name = "/model/layers.15/self_attn/Gather_12"} : (tensor<4xi64>, tensor<i64>) -> tensor<1x8x128x64xi64>
    %3353 = "onnx.Mul"(%3351, %1072) {onnx_node_name = "/model/layers.15/self_attn/Mul_9"} : (tensor<1x32x64x1xf32>, tensor<1xf32>) -> tensor<1x32x64x1xf32>
    %3354 = "onnx.Unsqueeze"(%3352, %1073) {onnx_node_name = "/model/layers.15/self_attn/Unsqueeze_28"} : (tensor<1x8x128x64xi64>, tensor<1xi64>) -> tensor<1x8x1x128x64xi64>
    %3355 = "onnx.MatMul"(%3333, %3353) {onnx_node_name = "/model/layers.15/self_attn/MatMul"} : (tensor<1x32x1x64xf32>, tensor<1x32x64x1xf32>) -> tensor<1x32x1x1xf32>
    %3356 = "onnx.Slice"(%1576, %1074, %3354, %1075, %1076) {onnx_node_name = "/model/layers.15/self_attn/Slice_4"} : (tensor<1x1x128x128xf32>, tensor<1xi64>, tensor<1x8x1x128x64xi64>, tensor<1xi64>, tensor<1xi64>) -> tensor<1x1x1x1xf32>
    %3357 = "onnx.Add"(%3355, %3356) {onnx_node_name = "/model/layers.15/self_attn/Add_2"} : (tensor<1x32x1x1xf32>, tensor<1x1x1x1xf32>) -> tensor<1x32x128x128xf32>
    %3358 = "onnx.Softmax"(%3357) {axis = -1 : si64, onnx_node_name = "/model/layers.15/self_attn/Softmax"} : (tensor<1x32x128x128xf32>) -> tensor<1x32x128x128xf32>
    %3359 = "onnx.MatMul"(%3358, %3343) {onnx_node_name = "/model/layers.15/self_attn/MatMul_1"} : (tensor<1x32x128x128xf32>, tensor<1x128x8x64xf32>) -> tensor<1x32x1x64xf32>
    %3360 = "onnx.Transpose"(%3359) {onnx_node_name = "/model/layers.15/self_attn/Transpose_4", perm = [0, 2, 1, 3]} : (tensor<1x32x1x64xf32>) -> tensor<1x128x32x64xf32>
    %3361 = "onnx.Reshape"(%3360, %3302) {allowzero = 0 : si64, onnx_node_name = "/model/layers.15/self_attn/Reshape_7"} : (tensor<1x128x32x64xf32>, tensor<3xi64>) -> tensor<1x128x2048xf32>
    %3362:3 = "onnx.DynamicQuantizeLinear"(%3361) {onnx_node_name = "/model/layers.15/self_attn/Reshape_7_output_0_QuantizeLinear"} : (tensor<1x128x2048xf32>) -> (tensor<1x1x2048xui8>, tensor<f32>, tensor<ui8>)
    %3363 = "onnx.MatMulInteger"(%3362#0, %1414, %3362#2, %1413) {onnx_node_name = "/model/layers.15/self_attn/o_proj/MatMul_quant"} : (tensor<1x1x2048xui8>, tensor<2048x2048xi8>, tensor<ui8>, tensor<i8>) -> tensor<1x1x2048xi32>
    %3364 = "onnx.Cast"(%3363) {onnx_node_name = "/model/layers.15/self_attn/o_proj/MatMul_output_0_output_quantized_cast", saturate = 1 : si64, to = f32} : (tensor<1x1x2048xi32>) -> tensor<1x1x2048xf32>
    %3365 = "onnx.Mul"(%3362#1, %1412) {onnx_node_name = "/model/layers.15/self_attn/o_proj/MatMul_quant_scales_mul"} : (tensor<f32>, tensor<f32>) -> tensor<f32>
    %3366 = "onnx.Mul"(%3364, %3365) {onnx_node_name = "/model/layers.15/self_attn/o_proj/MatMul_quant_output_scale_mul"} : (tensor<1x1x2048xf32>, tensor<f32>) -> tensor<1x1x2048xf32>
    %3367 = "onnx.Add"(%3274, %3366) {onnx_node_name = "/model/layers.15/Add"} : (tensor<1x1x2048xf32>, tensor<1x1x2048xf32>) -> tensor<1x1x2048xf32>
    %3368 = "onnx.Pow"(%3367, %1077) {onnx_node_name = "/model/layers.15/post_attention_layernorm/Pow"} : (tensor<1x1x2048xf32>, tensor<f32>) -> tensor<1x1x2048xf32>
    %3369 = "onnx.ReduceMeanV13"(%3368) {axes = [-1], keepdims = 1 : si64, onnx_node_name = "/model/layers.15/post_attention_layernorm/ReduceMean"} : (tensor<1x1x2048xf32>) -> tensor<1x1x1xf32>
    %3370 = "onnx.Add"(%3369, %1078) {onnx_node_name = "/model/layers.15/post_attention_layernorm/Add"} : (tensor<1x1x1xf32>, tensor<f32>) -> tensor<1x1x1xf32>
    %3371 = "onnx.Sqrt"(%3370) {onnx_node_name = "/model/layers.15/post_attention_layernorm/Sqrt"} : (tensor<1x1x1xf32>) -> tensor<1x1x1xf32>
    %3372 = "onnx.Div"(%1079, %3371) {onnx_node_name = "/model/layers.15/post_attention_layernorm/Div"} : (tensor<f32>, tensor<1x1x1xf32>) -> tensor<1x1x1xf32>
    %3373 = "onnx.Mul"(%3367, %3372) {onnx_node_name = "/model/layers.15/post_attention_layernorm/Mul"} : (tensor<1x1x2048xf32>, tensor<1x1x1xf32>) -> tensor<1x1x2048xf32>
    %3374 = "onnx.Mul"(%1080, %3373) {onnx_node_name = "/model/layers.15/post_attention_layernorm/Mul_1"} : (tensor<2048xf32>, tensor<1x1x2048xf32>) -> tensor<1x1x2048xf32>
    %3375:3 = "onnx.DynamicQuantizeLinear"(%3374) {onnx_node_name = "/model/layers.15/post_attention_layernorm/Mul_1_output_0_QuantizeLinear"} : (tensor<1x1x2048xf32>) -> (tensor<1x1x2048xui8>, tensor<f32>, tensor<ui8>)
    %3376 = "onnx.MatMulInteger"(%3375#0, %1417, %3375#2, %1416) {onnx_node_name = "/model/layers.15/mlp/gate_proj/MatMul_quant"} : (tensor<1x1x2048xui8>, tensor<2048x8192xi8>, tensor<ui8>, tensor<i8>) -> tensor<1x1x8192xi32>
    %3377 = "onnx.Cast"(%3376) {onnx_node_name = "/model/layers.15/mlp/gate_proj/MatMul_output_0_output_quantized_cast", saturate = 1 : si64, to = f32} : (tensor<1x1x8192xi32>) -> tensor<1x1x8192xf32>
    %3378 = "onnx.Mul"(%3375#1, %1415) {onnx_node_name = "/model/layers.15/mlp/gate_proj/MatMul_quant_scales_mul"} : (tensor<f32>, tensor<f32>) -> tensor<f32>
    %3379 = "onnx.Mul"(%3377, %3378) {onnx_node_name = "/model/layers.15/mlp/gate_proj/MatMul_quant_output_scale_mul"} : (tensor<1x1x8192xf32>, tensor<f32>) -> tensor<1x1x8192xf32>
    %3380 = "onnx.MatMulInteger"(%3375#0, %1420, %3375#2, %1419) {onnx_node_name = "/model/layers.15/mlp/up_proj/MatMul_quant"} : (tensor<1x1x2048xui8>, tensor<2048x8192xi8>, tensor<ui8>, tensor<i8>) -> tensor<1x1x8192xi32>
    %3381 = "onnx.Cast"(%3380) {onnx_node_name = "/model/layers.15/mlp/up_proj/MatMul_output_0_output_quantized_cast", saturate = 1 : si64, to = f32} : (tensor<1x1x8192xi32>) -> tensor<1x1x8192xf32>
    %3382 = "onnx.Mul"(%3375#1, %1418) {onnx_node_name = "/model/layers.15/mlp/up_proj/MatMul_quant_scales_mul"} : (tensor<f32>, tensor<f32>) -> tensor<f32>
    %3383 = "onnx.Mul"(%3381, %3382) {onnx_node_name = "/model/layers.15/mlp/up_proj/MatMul_quant_output_scale_mul"} : (tensor<1x1x8192xf32>, tensor<f32>) -> tensor<1x1x8192xf32>
    %3384 = "onnx.Sigmoid"(%3379) {onnx_node_name = "/model/layers.15/mlp/act_fn/Sigmoid"} : (tensor<1x1x8192xf32>) -> tensor<1x1x8192xf32>
    %3385 = "onnx.Mul"(%3379, %3384) {onnx_node_name = "/model/layers.15/mlp/act_fn/Mul"} : (tensor<1x1x8192xf32>, tensor<1x1x8192xf32>) -> tensor<1x1x8192xf32>
    %3386 = "onnx.Mul"(%3385, %3383) {onnx_node_name = "/model/layers.15/mlp/Mul"} : (tensor<1x1x8192xf32>, tensor<1x1x8192xf32>) -> tensor<1x1x8192xf32>
    %3387:3 = "onnx.DynamicQuantizeLinear"(%3386) {onnx_node_name = "/model/layers.15/mlp/Mul_output_0_QuantizeLinear"} : (tensor<1x1x8192xf32>) -> (tensor<1x1x8192xui8>, tensor<f32>, tensor<ui8>)
    %3388 = "onnx.MatMulInteger"(%3387#0, %1423, %3387#2, %1422) {onnx_node_name = "/model/layers.15/mlp/down_proj/MatMul_quant"} : (tensor<1x1x8192xui8>, tensor<8192x2048xi8>, tensor<ui8>, tensor<i8>) -> tensor<1x1x2048xi32>
    %3389 = "onnx.Cast"(%3388) {onnx_node_name = "/model/layers.15/mlp/down_proj/MatMul_output_0_output_quantized_cast", saturate = 1 : si64, to = f32} : (tensor<1x1x2048xi32>) -> tensor<1x1x2048xf32>
    %3390 = "onnx.Mul"(%3387#1, %1421) {onnx_node_name = "/model/layers.15/mlp/down_proj/MatMul_quant_scales_mul"} : (tensor<f32>, tensor<f32>) -> tensor<f32>
    %3391 = "onnx.Mul"(%3389, %3390) {onnx_node_name = "/model/layers.15/mlp/down_proj/MatMul_quant_output_scale_mul"} : (tensor<1x1x2048xf32>, tensor<f32>) -> tensor<1x1x2048xf32>
    %3392 = "onnx.Add"(%3367, %3391) {onnx_node_name = "/model/layers.15/Add_1"} : (tensor<1x1x2048xf32>, tensor<1x1x2048xf32>) -> tensor<1x1x2048xf32>
    %3393 = "onnx.Pow"(%3392, %1081) {onnx_node_name = "/model/norm/Pow"} : (tensor<1x1x2048xf32>, tensor<f32>) -> tensor<1x1x2048xf32>
    %3394 = "onnx.ReduceMeanV13"(%3393) {axes = [-1], keepdims = 1 : si64, onnx_node_name = "/model/norm/ReduceMean"} : (tensor<1x1x2048xf32>) -> tensor<1x1x1xf32>
    %3395 = "onnx.Add"(%3394, %1082) {onnx_node_name = "/model/norm/Add"} : (tensor<1x1x1xf32>, tensor<f32>) -> tensor<1x1x1xf32>
    %3396 = "onnx.Sqrt"(%3395) {onnx_node_name = "/model/norm/Sqrt"} : (tensor<1x1x1xf32>) -> tensor<1x1x1xf32>
    %3397 = "onnx.Div"(%1083, %3396) {onnx_node_name = "/model/norm/Div"} : (tensor<f32>, tensor<1x1x1xf32>) -> tensor<1x1x1xf32>
    %3398 = "onnx.Mul"(%3392, %3397) {onnx_node_name = "/model/norm/Mul"} : (tensor<1x1x2048xf32>, tensor<1x1x1xf32>) -> tensor<1x1x2048xf32>
    %3399 = "onnx.Mul"(%1084, %3398) {onnx_node_name = "/model/norm/Mul_1"} : (tensor<2048xf32>, tensor<1x1x2048xf32>) -> tensor<1x1x2048xf32>
    %3400 = "onnx.DequantizeLinear"(%1428, %1085, %1086) {axis = 1 : si64, block_size = 0 : si64, onnx_node_name = "model.embed_tokens.weight_transposed_DequantizeLinear"} : (tensor<1x8x128x64xui8>, tensor<f32>, tensor<ui8>) -> tensor<1x128x2048xf32>
    %3401 = "onnx.MatMul"(%3399, %3400) {onnx_node_name = "/lm_head/MatMul"} : (tensor<1x1x2048xf32>, tensor<1x128x2048xf32>) -> tensor<1x1x128256xf32>
    "onnx.Return"(%3401, %1549, %1517, %1680, %1659, %1798, %1777, %1916, %1895, %2034, %2013, %2152, %2131, %2270, %2249, %2388, %2367, %2506, %2485, %2624, %2603, %2742, %2721, %2860, %2839, %2978, %2957, %3096, %3075, %3214, %3193, %3332, %3311) : (tensor<1x1x128256xf32>, tensor<1x8x128x64xf32>, tensor<1x1x128x128xf32>, tensor<5xi64>, tensor<5xi64>, tensor<5xi64>, tensor<5xi64>, tensor<5xi64>, tensor<5xi64>, tensor<5xi64>, tensor<5xi64>, tensor<5xi64>, tensor<5xi64>, tensor<5xi64>, tensor<5xi64>, tensor<5xi64>, tensor<5xi64>, tensor<5xi64>, tensor<5xi64>, tensor<5xi64>, tensor<5xi64>, tensor<5xi64>, tensor<5xi64>, tensor<5xi64>, tensor<5xi64>, tensor<5xi64>, tensor<5xi64>, tensor<5xi64>, tensor<5xi64>, tensor<5xi64>, tensor<5xi64>, tensor<5xi64>, tensor<5xi64>) -> ()
  }) : () -> ()
  "onnx.EntryPoint"() {func = @main_graph} : () -> ()
}) {llvm.data_layout = "e-m:e-p270:32:32-p271:32:32-p272:64:64-i64:64-i128:128-f80:128-n8:16:32:64-S128", llvm.target_triple = "x86_64-unknown-linux-gnu", "onnx-mlir.symbol-postfix" = "updated-static.mlir", producer.name = "onnx.quantize"} : () -> ()
