module attributes {llvm.data_layout = "e-m:e-p270:32:32-p271:32:32-p272:64:64-i64:64-i128:128-f80:128-n8:16:32:64-S128", llvm.target_triple = "x86_64-unknown-linux-gnu", "onnx-mlir.symbol-postfix" = "model"} {
  func.func @main_graph(%arg0: tensor<1x3x224x224xf32> {onnx.dim_params = "0:batch_size", onnx.name = "pixel_values"}) -> (tensor<1x1001xf32> {onnx.dim_params = "0:batch_size", onnx.name = "logits"}) {
    %0 = onnx.Constant dense<[1, 1280, 7, 7]> : tensor<4xi64>
    %1 = onnx.Constant dense_resource<__elided__> : tensor<1x1280x1xf32>
    %2 = onnx.Constant dense_resource<__elided__> : tensor<1280x320xf32>
    %3 = onnx.Constant dense_resource<__elided__> : tensor<1x320x1xf32>
    %4 = onnx.Constant dense_resource<__elided__> : tensor<320x960xf32>
    %5 = onnx.Constant dense<[1, 960, -1]> : tensor<3xi64>
    %6 = onnx.Constant dense<[1, 960, 7, 7]> : tensor<4xi64>
    %7 = onnx.Constant dense_resource<__elided__> : tensor<1x960x1xf32>
    %8 = onnx.Constant dense_resource<__elided__> : tensor<960x160xf32>
    %9 = onnx.Constant dense<[1, 160, -1]> : tensor<3xi64>
    %10 = onnx.Constant dense<[1, 160, 7, 7]> : tensor<4xi64>
    %11 = onnx.Constant dense_resource<__elided__> : tensor<1x160x1xf32>
    %12 = onnx.Constant dense_resource<__elided__> : tensor<160x960xf32>
    %13 = onnx.Constant dense<[1, 960, -1]> : tensor<3xi64>
    %14 = onnx.Constant dense<[1, 960, 7, 7]> : tensor<4xi64>
    %15 = onnx.Constant dense_resource<__elided__> : tensor<1x960x1xf32>
    %16 = onnx.Constant dense_resource<__elided__> : tensor<960x160xf32>
    %17 = onnx.Constant dense<[1, 160, -1]> : tensor<3xi64>
    %18 = onnx.Constant dense<[1, 160, 7, 7]> : tensor<4xi64>
    %19 = onnx.Constant dense_resource<__elided__> : tensor<1x160x1xf32>
    %20 = onnx.Constant dense_resource<__elided__> : tensor<160x960xf32>
    %21 = onnx.Constant dense<[1, 960, -1]> : tensor<3xi64>
    %22 = onnx.Constant dense<[1, 960, 7, 7]> : tensor<4xi64>
    %23 = onnx.Constant dense_resource<__elided__> : tensor<1x960x1xf32>
    %24 = onnx.Constant dense_resource<__elided__> : tensor<960x160xf32>
    %25 = onnx.Constant dense<[1, 160, 7, 7]> : tensor<4xi64>
    %26 = onnx.Constant dense_resource<__elided__> : tensor<1x160x1xf32>
    %27 = onnx.Constant dense_resource<__elided__> : tensor<160x576xf32>
    %28 = onnx.Constant dense<[1, 576, -1]> : tensor<3xi64>
    %29 = onnx.Constant dense<[1, 576, 14, 14]> : tensor<4xi64>
    %30 = onnx.Constant dense_resource<__elided__> : tensor<1x576x1xf32>
    %31 = onnx.Constant dense_resource<__elided__> : tensor<576x96xf32>
    %32 = onnx.Constant dense<[1, 96, -1]> : tensor<3xi64>
    %33 = onnx.Constant dense<[1, 96, 14, 14]> : tensor<4xi64>
    %34 = onnx.Constant dense<[[[… > : tensor<1x96x1xf32>
    %35 = onnx.Constant dense_resource<__elided__> : tensor<96x576xf32>
    %36 = onnx.Constant dense<[1, 576, -1]> : tensor<3xi64>
    %37 = onnx.Constant dense<[1, 576, 14, 14]> : tensor<4xi64>
    %38 = onnx.Constant dense_resource<__elided__> : tensor<1x576x1xf32>
    %39 = onnx.Constant dense_resource<__elided__> : tensor<576x96xf32>
    %40 = onnx.Constant dense<[1, 96, -1]> : tensor<3xi64>
    %41 = onnx.Constant dense<[1, 96, 14, 14]> : tensor<4xi64>
    %42 = onnx.Constant dense<[[[… > : tensor<1x96x1xf32>
    %43 = onnx.Constant dense_resource<__elided__> : tensor<96x576xf32>
    %44 = onnx.Constant dense<[1, 576, -1]> : tensor<3xi64>
    %45 = onnx.Constant dense<[1, 576, 14, 14]> : tensor<4xi64>
    %46 = onnx.Constant dense_resource<__elided__> : tensor<1x576x1xf32>
    %47 = onnx.Constant dense_resource<__elided__> : tensor<576x96xf32>
    %48 = onnx.Constant dense<[1, 96, 14, 14]> : tensor<4xi64>
    %49 = onnx.Constant dense<[[[… > : tensor<1x96x1xf32>
    %50 = onnx.Constant dense_resource<__elided__> : tensor<96x384xf32>
    %51 = onnx.Constant dense<[1, 384, -1]> : tensor<3xi64>
    %52 = onnx.Constant dense<[1, 384, 14, 14]> : tensor<4xi64>
    %53 = onnx.Constant dense_resource<__elided__> : tensor<1x384x1xf32>
    %54 = onnx.Constant dense_resource<__elided__> : tensor<384x64xf32>
    %55 = onnx.Constant dense<[1, 64, -1]> : tensor<3xi64>
    %56 = onnx.Constant dense<[1, 64, 14, 14]> : tensor<4xi64>
    %57 = onnx.Constant dense<[[[… > : tensor<1x64x1xf32>
    %58 = onnx.Constant dense_resource<__elided__> : tensor<64x384xf32>
    %59 = onnx.Constant dense<[1, 384, -1]> : tensor<3xi64>
    %60 = onnx.Constant dense<[1, 384, 14, 14]> : tensor<4xi64>
    %61 = onnx.Constant dense_resource<__elided__> : tensor<1x384x1xf32>
    %62 = onnx.Constant dense_resource<__elided__> : tensor<384x64xf32>
    %63 = onnx.Constant dense<[1, 64, -1]> : tensor<3xi64>
    %64 = onnx.Constant dense<[1, 64, 14, 14]> : tensor<4xi64>
    %65 = onnx.Constant dense<[[[… > : tensor<1x64x1xf32>
    %66 = onnx.Constant dense_resource<__elided__> : tensor<64x384xf32>
    %67 = onnx.Constant dense<[1, 384, -1]> : tensor<3xi64>
    %68 = onnx.Constant dense<[1, 384, 14, 14]> : tensor<4xi64>
    %69 = onnx.Constant dense_resource<__elided__> : tensor<1x384x1xf32>
    %70 = onnx.Constant dense_resource<__elided__> : tensor<384x64xf32>
    %71 = onnx.Constant dense<[1, 64, -1]> : tensor<3xi64>
    %72 = onnx.Constant dense<[1, 64, 14, 14]> : tensor<4xi64>
    %73 = onnx.Constant dense<[[[… > : tensor<1x64x1xf32>
    %74 = onnx.Constant dense_resource<__elided__> : tensor<64x384xf32>
    %75 = onnx.Constant dense<[1, 384, -1]> : tensor<3xi64>
    %76 = onnx.Constant dense<[1, 384, 14, 14]> : tensor<4xi64>
    %77 = onnx.Constant dense_resource<__elided__> : tensor<1x384x1xf32>
    %78 = onnx.Constant dense_resource<__elided__> : tensor<384x64xf32>
    %79 = onnx.Constant dense<[1, 64, 14, 14]> : tensor<4xi64>
    %80 = onnx.Constant dense<[[[… > : tensor<1x64x1xf32>
    %81 = onnx.Constant dense_resource<__elided__> : tensor<64x192xf32>
    %82 = onnx.Constant dense<[1, 192, -1]> : tensor<3xi64>
    %83 = onnx.Constant dense<[1, 192, 28, 28]> : tensor<4xi64>
    %84 = onnx.Constant dense_resource<__elided__> : tensor<1x192x1xf32>
    %85 = onnx.Constant dense_resource<__elided__> : tensor<192x32xf32>
    %86 = onnx.Constant dense<[1, 32, -1]> : tensor<3xi64>
    %87 = onnx.Constant dense<[1, 32, 28, 28]> : tensor<4xi64>
    %88 = onnx.Constant dense<[[[… > : tensor<1x32x1xf32>
    %89 = onnx.Constant dense_resource<__elided__> : tensor<32x192xf32>
    %90 = onnx.Constant dense<[1, 192, -1]> : tensor<3xi64>
    %91 = onnx.Constant dense<[1, 192, 28, 28]> : tensor<4xi64>
    %92 = onnx.Constant dense_resource<__elided__> : tensor<1x192x1xf32>
    %93 = onnx.Constant dense_resource<__elided__> : tensor<192x32xf32>
    %94 = onnx.Constant dense<[1, 32, -1]> : tensor<3xi64>
    %95 = onnx.Constant dense<[1, 32, 28, 28]> : tensor<4xi64>
    %96 = onnx.Constant dense<[[[… > : tensor<1x32x1xf32>
    %97 = onnx.Constant dense_resource<__elided__> : tensor<32x192xf32>
    %98 = onnx.Constant dense<[1, 192, -1]> : tensor<3xi64>
    %99 = onnx.Constant dense<[1, 192, 28, 28]> : tensor<4xi64>
    %100 = onnx.Constant dense_resource<__elided__> : tensor<1x192x1xf32>
    %101 = onnx.Constant dense_resource<__elided__> : tensor<192x32xf32>
    %102 = onnx.Constant dense<[1, 32, 28, 28]> : tensor<4xi64>
    %103 = onnx.Constant dense<[[[… > : tensor<1x32x1xf32>
    %104 = onnx.Constant dense_resource<__elided__> : tensor<32x144xf32>
    %105 = onnx.Constant dense<[1, 144, -1]> : tensor<3xi64>
    %106 = onnx.Constant dense<[1, 144, 56, 56]> : tensor<4xi64>
    %107 = onnx.Constant dense_resource<__elided__> : tensor<1x144x1xf32>
    %108 = onnx.Constant dense_resource<__elided__> : tensor<144x24xf32>
    %109 = onnx.Constant dense<[1, 24, -1]> : tensor<3xi64>
    %110 = onnx.Constant dense<[1, 24, 56, 56]> : tensor<4xi64>
    %111 = onnx.Constant dense<[[[… > : tensor<1x24x1xf32>
    %112 = onnx.Constant dense_resource<__elided__> : tensor<24x144xf32>
    %113 = onnx.Constant dense<[1, 144, -1]> : tensor<3xi64>
    %114 = onnx.Constant dense<[1, 144, 56, 56]> : tensor<4xi64>
    %115 = onnx.Constant dense_resource<__elided__> : tensor<1x144x1xf32>
    %116 = onnx.Constant dense_resource<__elided__> : tensor<144x24xf32>
    %117 = onnx.Constant dense<[1, 24, 56, 56]> : tensor<4xi64>
    %118 = onnx.Constant dense<[[[… > : tensor<1x24x1xf32>
    %119 = onnx.Constant dense_resource<__elided__> : tensor<24x96xf32>
    %120 = onnx.Constant dense<[1, 96, -1]> : tensor<3xi64>
    %121 = onnx.Constant dense<[1, 96, 112, 112]> : tensor<4xi64>
    %122 = onnx.Constant dense<[[[… > : tensor<1x96x1xf32>
    %123 = onnx.Constant dense_resource<__elided__> : tensor<96x16xf32>
    %124 = onnx.Constant dense<[[[… > : tensor<1x16x1xf32>
    %125 = onnx.Constant dense_resource<__elided__> : tensor<16x32xf32>
    %126 = onnx.Constant dense<[1, 32, -1]> : tensor<3xi64>
    %127 = onnx.Constant dense_resource<__elided__> : tensor<32x3x3x3xf32>
    %128 = onnx.Constant dense<[… > : tensor<32xf32>
    %129 = onnx.Constant dense<0.000000e+00> : tensor<f32>
    %130 = onnx.Constant dense<6.000000e+00> : tensor<f32>
    %131 = onnx.Constant dense_resource<__elided__> : tensor<32x1x3x3xf32>
    %132 = onnx.Constant dense<[… > : tensor<32xf32>
    %133 = onnx.Constant dense<0.000000e+00> : tensor<f32>
    %134 = onnx.Constant dense<6.000000e+00> : tensor<f32>
    %135 = onnx.Constant dense<0.000000e+00> : tensor<f32>
    %136 = onnx.Constant dense<6.000000e+00> : tensor<f32>
    %137 = onnx.Constant dense_resource<__elided__> : tensor<96x1x3x3xf32>
    %138 = onnx.Constant dense<[… > : tensor<96xf32>
    %139 = onnx.Constant dense<0.000000e+00> : tensor<f32>
    %140 = onnx.Constant dense<6.000000e+00> : tensor<f32>
    %141 = onnx.Constant dense<0.000000e+00> : tensor<f32>
    %142 = onnx.Constant dense<6.000000e+00> : tensor<f32>
    %143 = onnx.Constant dense_resource<__elided__> : tensor<144x1x3x3xf32>
    %144 = onnx.Constant dense_resource<__elided__> : tensor<144xf32>
    %145 = onnx.Constant dense<0.000000e+00> : tensor<f32>
    %146 = onnx.Constant dense<6.000000e+00> : tensor<f32>
    %147 = onnx.Constant dense<0.000000e+00> : tensor<f32>
    %148 = onnx.Constant dense<6.000000e+00> : tensor<f32>
    %149 = onnx.Constant dense_resource<__elided__> : tensor<144x1x3x3xf32>
    %150 = onnx.Constant dense_resource<__elided__> : tensor<144xf32>
    %151 = onnx.Constant dense<0.000000e+00> : tensor<f32>
    %152 = onnx.Constant dense<6.000000e+00> : tensor<f32>
    %153 = onnx.Constant dense<0.000000e+00> : tensor<f32>
    %154 = onnx.Constant dense<6.000000e+00> : tensor<f32>
    %155 = onnx.Constant dense_resource<__elided__> : tensor<192x1x3x3xf32>
    %156 = onnx.Constant dense_resource<__elided__> : tensor<192xf32>
    %157 = onnx.Constant dense<0.000000e+00> : tensor<f32>
    %158 = onnx.Constant dense<6.000000e+00> : tensor<f32>
    %159 = onnx.Constant dense<0.000000e+00> : tensor<f32>
    %160 = onnx.Constant dense<6.000000e+00> : tensor<f32>
    %161 = onnx.Constant dense_resource<__elided__> : tensor<192x1x3x3xf32>
    %162 = onnx.Constant dense_resource<__elided__> : tensor<192xf32>
    %163 = onnx.Constant dense<0.000000e+00> : tensor<f32>
    %164 = onnx.Constant dense<6.000000e+00> : tensor<f32>
    %165 = onnx.Constant dense<0.000000e+00> : tensor<f32>
    %166 = onnx.Constant dense<6.000000e+00> : tensor<f32>
    %167 = onnx.Constant dense_resource<__elided__> : tensor<192x1x3x3xf32>
    %168 = onnx.Constant dense_resource<__elided__> : tensor<192xf32>
    %169 = onnx.Constant dense<0.000000e+00> : tensor<f32>
    %170 = onnx.Constant dense<6.000000e+00> : tensor<f32>
    %171 = onnx.Constant dense<0.000000e+00> : tensor<f32>
    %172 = onnx.Constant dense<6.000000e+00> : tensor<f32>
    %173 = onnx.Constant dense_resource<__elided__> : tensor<384x1x3x3xf32>
    %174 = onnx.Constant dense_resource<__elided__> : tensor<384xf32>
    %175 = onnx.Constant dense<0.000000e+00> : tensor<f32>
    %176 = onnx.Constant dense<6.000000e+00> : tensor<f32>
    %177 = onnx.Constant dense<0.000000e+00> : tensor<f32>
    %178 = onnx.Constant dense<6.000000e+00> : tensor<f32>
    %179 = onnx.Constant dense_resource<__elided__> : tensor<384x1x3x3xf32>
    %180 = onnx.Constant dense_resource<__elided__> : tensor<384xf32>
    %181 = onnx.Constant dense<0.000000e+00> : tensor<f32>
    %182 = onnx.Constant dense<6.000000e+00> : tensor<f32>
    %183 = onnx.Constant dense<0.000000e+00> : tensor<f32>
    %184 = onnx.Constant dense<6.000000e+00> : tensor<f32>
    %185 = onnx.Constant dense_resource<__elided__> : tensor<384x1x3x3xf32>
    %186 = onnx.Constant dense_resource<__elided__> : tensor<384xf32>
    %187 = onnx.Constant dense<0.000000e+00> : tensor<f32>
    %188 = onnx.Constant dense<6.000000e+00> : tensor<f32>
    %189 = onnx.Constant dense<0.000000e+00> : tensor<f32>
    %190 = onnx.Constant dense<6.000000e+00> : tensor<f32>
    %191 = onnx.Constant dense_resource<__elided__> : tensor<384x1x3x3xf32>
    %192 = onnx.Constant dense_resource<__elided__> : tensor<384xf32>
    %193 = onnx.Constant dense<0.000000e+00> : tensor<f32>
    %194 = onnx.Constant dense<6.000000e+00> : tensor<f32>
    %195 = onnx.Constant dense<0.000000e+00> : tensor<f32>
    %196 = onnx.Constant dense<6.000000e+00> : tensor<f32>
    %197 = onnx.Constant dense_resource<__elided__> : tensor<576x1x3x3xf32>
    %198 = onnx.Constant dense_resource<__elided__> : tensor<576xf32>
    %199 = onnx.Constant dense<0.000000e+00> : tensor<f32>
    %200 = onnx.Constant dense<6.000000e+00> : tensor<f32>
    %201 = onnx.Constant dense<0.000000e+00> : tensor<f32>
    %202 = onnx.Constant dense<6.000000e+00> : tensor<f32>
    %203 = onnx.Constant dense_resource<__elided__> : tensor<576x1x3x3xf32>
    %204 = onnx.Constant dense_resource<__elided__> : tensor<576xf32>
    %205 = onnx.Constant dense<0.000000e+00> : tensor<f32>
    %206 = onnx.Constant dense<6.000000e+00> : tensor<f32>
    %207 = onnx.Constant dense<0.000000e+00> : tensor<f32>
    %208 = onnx.Constant dense<6.000000e+00> : tensor<f32>
    %209 = onnx.Constant dense_resource<__elided__> : tensor<576x1x3x3xf32>
    %210 = onnx.Constant dense_resource<__elided__> : tensor<576xf32>
    %211 = onnx.Constant dense<0.000000e+00> : tensor<f32>
    %212 = onnx.Constant dense<6.000000e+00> : tensor<f32>
    %213 = onnx.Constant dense<0.000000e+00> : tensor<f32>
    %214 = onnx.Constant dense<6.000000e+00> : tensor<f32>
    %215 = onnx.Constant dense_resource<__elided__> : tensor<960x1x3x3xf32>
    %216 = onnx.Constant dense_resource<__elided__> : tensor<960xf32>
    %217 = onnx.Constant dense<0.000000e+00> : tensor<f32>
    %218 = onnx.Constant dense<6.000000e+00> : tensor<f32>
    %219 = onnx.Constant dense<0.000000e+00> : tensor<f32>
    %220 = onnx.Constant dense<6.000000e+00> : tensor<f32>
    %221 = onnx.Constant dense_resource<__elided__> : tensor<960x1x3x3xf32>
    %222 = onnx.Constant dense_resource<__elided__> : tensor<960xf32>
    %223 = onnx.Constant dense<0.000000e+00> : tensor<f32>
    %224 = onnx.Constant dense<6.000000e+00> : tensor<f32>
    %225 = onnx.Constant dense<0.000000e+00> : tensor<f32>
    %226 = onnx.Constant dense<6.000000e+00> : tensor<f32>
    %227 = onnx.Constant dense_resource<__elided__> : tensor<960x1x3x3xf32>
    %228 = onnx.Constant dense_resource<__elided__> : tensor<960xf32>
    %229 = onnx.Constant dense<0.000000e+00> : tensor<f32>
    %230 = onnx.Constant dense<6.000000e+00> : tensor<f32>
    %231 = onnx.Constant dense<0.000000e+00> : tensor<f32>
    %232 = onnx.Constant dense<6.000000e+00> : tensor<f32>
    %233 = onnx.Constant dense_resource<__elided__> : tensor<1001x1280xf32>
    %234 = onnx.Constant dense_resource<__elided__> : tensor<1001xf32>
    %235 = "onnx.Conv"(%arg0, %127, %128) {auto_pad = "NOTSET", dilations = [1, 1], group = 1 : si64, kernel_shape = [3, 3], onnx_node_name = "/mobilenet_v2/conv_stem/first_conv/convolution/Conv", pads = [0, 0, 1, 1], strides = [2, 2]} : (tensor<1x3x224x224xf32>, tensor<32x3x3x3xf32>, tensor<32xf32>) -> tensor<1x32x112x112xf32>
    %236 = "onnx.Clip"(%235, %129, %130) {onnx_node_name = "/mobilenet_v2/conv_stem/first_conv/activation/Clip_117"} : (tensor<1x32x112x112xf32>, tensor<f32>, tensor<f32>) -> tensor<1x32x112x112xf32>
    %237 = "onnx.Conv"(%236, %131, %132) {auto_pad = "NOTSET", dilations = [1, 1], group = 32 : si64, kernel_shape = [3, 3], onnx_node_name = "/mobilenet_v2/conv_stem/conv_3x3/convolution/Conv", pads = [1, 1, 1, 1], strides = [1, 1]} : (tensor<1x32x112x112xf32>, tensor<32x1x3x3xf32>, tensor<32xf32>) -> tensor<1x32x112x112xf32>
    %238 = "onnx.Clip"(%237, %133, %134) {onnx_node_name = "/mobilenet_v2/conv_stem/conv_3x3/activation/Clip_116"} : (tensor<1x32x112x112xf32>, tensor<f32>, tensor<f32>) -> tensor<1x32x112x112xf32>
    %239 = "onnx.Reshape"(%238, %126) {allowzero = 0 : si64, onnx_node_name = "/mobilenet_v2/conv_stem/reduce_1x1/convolution/Conv_153"} : (tensor<1x32x112x112xf32>, tensor<3xi64>) -> tensor<1x32x12544xf32>
    %240 = "onnx.MatMul"(%125, %239) {onnx_node_name = "/mobilenet_v2/conv_stem/reduce_1x1/convolution/Conv_100"} : (tensor<16x32xf32>, tensor<1x32x12544xf32>) -> tensor<1x16x12544xf32>
    %241 = "onnx.Add"(%240, %124) {onnx_node_name = "/mobilenet_v2/conv_stem/reduce_1x1/convolution/Conv_119"} : (tensor<1x16x12544xf32>, tensor<1x16x1xf32>) -> tensor<1x16x12544xf32>
    %242 = "onnx.MatMul"(%123, %241) {onnx_node_name = "/mobilenet_v2/layer.0/expand_1x1/convolution/Conv_37"} : (tensor<96x16xf32>, tensor<1x16x12544xf32>) -> tensor<1x96x12544xf32>
    %243 = "onnx.Add"(%242, %122) {onnx_node_name = "/mobilenet_v2/layer.0/expand_1x1/convolution/Conv_0"} : (tensor<1x96x12544xf32>, tensor<1x96x1xf32>) -> tensor<1x96x12544xf32>
    %244 = "onnx.Reshape"(%243, %121) {allowzero = 0 : si64, onnx_node_name = "/mobilenet_v2/layer.0/expand_1x1/convolution/Conv_59"} : (tensor<1x96x12544xf32>, tensor<4xi64>) -> tensor<1x96x112x112xf32>
    %245 = "onnx.Clip"(%244, %135, %136) {onnx_node_name = "/mobilenet_v2/layer.0/expand_1x1/activation/Clip_28"} : (tensor<1x96x112x112xf32>, tensor<f32>, tensor<f32>) -> tensor<1x96x112x112xf32>
    %246 = "onnx.Conv"(%245, %137, %138) {auto_pad = "NOTSET", dilations = [1, 1], group = 96 : si64, kernel_shape = [3, 3], onnx_node_name = "/mobilenet_v2/layer.0/conv_3x3/convolution/Conv", pads = [0, 0, 1, 1], strides = [2, 2]} : (tensor<1x96x112x112xf32>, tensor<96x1x3x3xf32>, tensor<96xf32>) -> tensor<1x96x56x56xf32>
    %247 = "onnx.Clip"(%246, %139, %140) {onnx_node_name = "/mobilenet_v2/layer.0/conv_3x3/activation/Clip_14"} : (tensor<1x96x56x56xf32>, tensor<f32>, tensor<f32>) -> tensor<1x96x56x56xf32>
    %248 = "onnx.Reshape"(%247, %120) {allowzero = 0 : si64, onnx_node_name = "/mobilenet_v2/layer.0/reduce_1x1/convolution/Conv_49"} : (tensor<1x96x56x56xf32>, tensor<3xi64>) -> tensor<1x96x3136xf32>
    %249 = "onnx.MatMul"(%119, %248) {onnx_node_name = "/mobilenet_v2/layer.0/reduce_1x1/convolution/Conv_57"} : (tensor<24x96xf32>, tensor<1x96x3136xf32>) -> tensor<1x24x3136xf32>
    %250 = "onnx.Add"(%249, %118) {onnx_node_name = "/mobilenet_v2/layer.0/reduce_1x1/convolution/Conv_79"} : (tensor<1x24x3136xf32>, tensor<1x24x1xf32>) -> tensor<1x24x3136xf32>
    %251 = "onnx.Reshape"(%250, %117) {allowzero = 0 : si64, onnx_node_name = "/mobilenet_v2/layer.0/reduce_1x1/convolution/Conv_154"} : (tensor<1x24x3136xf32>, tensor<4xi64>) -> tensor<1x24x56x56xf32>
    %252 = "onnx.MatMul"(%116, %250) {onnx_node_name = "/mobilenet_v2/layer.1/expand_1x1/convolution/Conv_146"} : (tensor<144x24xf32>, tensor<1x24x3136xf32>) -> tensor<1x144x3136xf32>
    %253 = "onnx.Add"(%252, %115) {onnx_node_name = "/mobilenet_v2/layer.1/expand_1x1/convolution/Conv_6"} : (tensor<1x144x3136xf32>, tensor<1x144x1xf32>) -> tensor<1x144x3136xf32>
    %254 = "onnx.Reshape"(%253, %114) {allowzero = 0 : si64, onnx_node_name = "/mobilenet_v2/layer.1/expand_1x1/convolution/Conv_140"} : (tensor<1x144x3136xf32>, tensor<4xi64>) -> tensor<1x144x56x56xf32>
    %255 = "onnx.Clip"(%254, %141, %142) {onnx_node_name = "/mobilenet_v2/layer.1/expand_1x1/activation/Clip_39"} : (tensor<1x144x56x56xf32>, tensor<f32>, tensor<f32>) -> tensor<1x144x56x56xf32>
    %256 = "onnx.Conv"(%255, %143, %144) {auto_pad = "NOTSET", dilations = [1, 1], group = 144 : si64, kernel_shape = [3, 3], onnx_node_name = "/mobilenet_v2/layer.1/conv_3x3/convolution/Conv", pads = [1, 1, 1, 1], strides = [1, 1]} : (tensor<1x144x56x56xf32>, tensor<144x1x3x3xf32>, tensor<144xf32>) -> tensor<1x144x56x56xf32>
    %257 = "onnx.Clip"(%256, %145, %146) {onnx_node_name = "/mobilenet_v2/layer.1/conv_3x3/activation/Clip_141"} : (tensor<1x144x56x56xf32>, tensor<f32>, tensor<f32>) -> tensor<1x144x56x56xf32>
    %258 = "onnx.Reshape"(%257, %113) {allowzero = 0 : si64, onnx_node_name = "/mobilenet_v2/layer.1/reduce_1x1/convolution/Conv_71"} : (tensor<1x144x56x56xf32>, tensor<3xi64>) -> tensor<1x144x3136xf32>
    %259 = "onnx.MatMul"(%112, %258) {onnx_node_name = "/mobilenet_v2/layer.1/reduce_1x1/convolution/Conv_142"} : (tensor<24x144xf32>, tensor<1x144x3136xf32>) -> tensor<1x24x3136xf32>
    %260 = "onnx.Add"(%259, %111) {onnx_node_name = "/mobilenet_v2/layer.1/reduce_1x1/convolution/Conv_127"} : (tensor<1x24x3136xf32>, tensor<1x24x1xf32>) -> tensor<1x24x3136xf32>
    %261 = "onnx.Reshape"(%260, %110) {allowzero = 0 : si64, onnx_node_name = "/mobilenet_v2/layer.1/reduce_1x1/convolution/Conv_120"} : (tensor<1x24x3136xf32>, tensor<4xi64>) -> tensor<1x24x56x56xf32>
    %262 = "onnx.Add"(%251, %261) {onnx_node_name = "/mobilenet_v2/layer.1/Add"} : (tensor<1x24x56x56xf32>, tensor<1x24x56x56xf32>) -> tensor<1x24x56x56xf32>
    %263 = "onnx.Reshape"(%262, %109) {allowzero = 0 : si64, onnx_node_name = "/mobilenet_v2/layer.2/expand_1x1/convolution/Conv_58"} : (tensor<1x24x56x56xf32>, tensor<3xi64>) -> tensor<1x24x3136xf32>
    %264 = "onnx.MatMul"(%108, %263) {onnx_node_name = "/mobilenet_v2/layer.2/expand_1x1/convolution/Conv_130"} : (tensor<144x24xf32>, tensor<1x24x3136xf32>) -> tensor<1x144x3136xf32>
    %265 = "onnx.Add"(%264, %107) {onnx_node_name = "/mobilenet_v2/layer.2/expand_1x1/convolution/Conv_111"} : (tensor<1x144x3136xf32>, tensor<1x144x1xf32>) -> tensor<1x144x3136xf32>
    %266 = "onnx.Reshape"(%265, %106) {allowzero = 0 : si64, onnx_node_name = "/mobilenet_v2/layer.2/expand_1x1/convolution/Conv_144"} : (tensor<1x144x3136xf32>, tensor<4xi64>) -> tensor<1x144x56x56xf32>
    %267 = "onnx.Clip"(%266, %147, %148) {onnx_node_name = "/mobilenet_v2/layer.2/expand_1x1/activation/Clip_151"} : (tensor<1x144x56x56xf32>, tensor<f32>, tensor<f32>) -> tensor<1x144x56x56xf32>
    %268 = "onnx.Conv"(%267, %149, %150) {auto_pad = "NOTSET", dilations = [1, 1], group = 144 : si64, kernel_shape = [3, 3], onnx_node_name = "/mobilenet_v2/layer.2/conv_3x3/convolution/Conv", pads = [0, 0, 1, 1], strides = [2, 2]} : (tensor<1x144x56x56xf32>, tensor<144x1x3x3xf32>, tensor<144xf32>) -> tensor<1x144x28x28xf32>
    %269 = "onnx.Clip"(%268, %151, %152) {onnx_node_name = "/mobilenet_v2/layer.2/conv_3x3/activation/Clip_74"} : (tensor<1x144x28x28xf32>, tensor<f32>, tensor<f32>) -> tensor<1x144x28x28xf32>
    %270 = "onnx.Reshape"(%269, %105) {allowzero = 0 : si64, onnx_node_name = "/mobilenet_v2/layer.2/reduce_1x1/convolution/Conv_103"} : (tensor<1x144x28x28xf32>, tensor<3xi64>) -> tensor<1x144x784xf32>
    %271 = "onnx.MatMul"(%104, %270) {onnx_node_name = "/mobilenet_v2/layer.2/reduce_1x1/convolution/Conv_137"} : (tensor<32x144xf32>, tensor<1x144x784xf32>) -> tensor<1x32x784xf32>
    %272 = "onnx.Add"(%271, %103) {onnx_node_name = "/mobilenet_v2/layer.2/reduce_1x1/convolution/Conv_35"} : (tensor<1x32x784xf32>, tensor<1x32x1xf32>) -> tensor<1x32x784xf32>
    %273 = "onnx.Reshape"(%272, %102) {allowzero = 0 : si64, onnx_node_name = "/mobilenet_v2/layer.2/reduce_1x1/convolution/Conv_77"} : (tensor<1x32x784xf32>, tensor<4xi64>) -> tensor<1x32x28x28xf32>
    %274 = "onnx.MatMul"(%101, %272) {onnx_node_name = "/mobilenet_v2/layer.3/expand_1x1/convolution/Conv_78"} : (tensor<192x32xf32>, tensor<1x32x784xf32>) -> tensor<1x192x784xf32>
    %275 = "onnx.Add"(%274, %100) {onnx_node_name = "/mobilenet_v2/layer.3/expand_1x1/convolution/Conv_88"} : (tensor<1x192x784xf32>, tensor<1x192x1xf32>) -> tensor<1x192x784xf32>
    %276 = "onnx.Reshape"(%275, %99) {allowzero = 0 : si64, onnx_node_name = "/mobilenet_v2/layer.3/expand_1x1/convolution/Conv_160"} : (tensor<1x192x784xf32>, tensor<4xi64>) -> tensor<1x192x28x28xf32>
    %277 = "onnx.Clip"(%276, %153, %154) {onnx_node_name = "/mobilenet_v2/layer.3/expand_1x1/activation/Clip_42"} : (tensor<1x192x28x28xf32>, tensor<f32>, tensor<f32>) -> tensor<1x192x28x28xf32>
    %278 = "onnx.Conv"(%277, %155, %156) {auto_pad = "NOTSET", dilations = [1, 1], group = 192 : si64, kernel_shape = [3, 3], onnx_node_name = "/mobilenet_v2/layer.3/conv_3x3/convolution/Conv", pads = [1, 1, 1, 1], strides = [1, 1]} : (tensor<1x192x28x28xf32>, tensor<192x1x3x3xf32>, tensor<192xf32>) -> tensor<1x192x28x28xf32>
    %279 = "onnx.Clip"(%278, %157, %158) {onnx_node_name = "/mobilenet_v2/layer.3/conv_3x3/activation/Clip_60"} : (tensor<1x192x28x28xf32>, tensor<f32>, tensor<f32>) -> tensor<1x192x28x28xf32>
    %280 = "onnx.Reshape"(%279, %98) {allowzero = 0 : si64, onnx_node_name = "/mobilenet_v2/layer.3/reduce_1x1/convolution/Conv_1"} : (tensor<1x192x28x28xf32>, tensor<3xi64>) -> tensor<1x192x784xf32>
    %281 = "onnx.MatMul"(%97, %280) {onnx_node_name = "/mobilenet_v2/layer.3/reduce_1x1/convolution/Conv_158"} : (tensor<32x192xf32>, tensor<1x192x784xf32>) -> tensor<1x32x784xf32>
    %282 = "onnx.Add"(%281, %96) {onnx_node_name = "/mobilenet_v2/layer.3/reduce_1x1/convolution/Conv_84"} : (tensor<1x32x784xf32>, tensor<1x32x1xf32>) -> tensor<1x32x784xf32>
    %283 = "onnx.Reshape"(%282, %95) {allowzero = 0 : si64, onnx_node_name = "/mobilenet_v2/layer.3/reduce_1x1/convolution/Conv_159"} : (tensor<1x32x784xf32>, tensor<4xi64>) -> tensor<1x32x28x28xf32>
    %284 = "onnx.Add"(%273, %283) {onnx_node_name = "/mobilenet_v2/layer.3/Add"} : (tensor<1x32x28x28xf32>, tensor<1x32x28x28xf32>) -> tensor<1x32x28x28xf32>
    %285 = "onnx.Reshape"(%284, %94) {allowzero = 0 : si64, onnx_node_name = "/mobilenet_v2/layer.4/expand_1x1/convolution/Conv_52"} : (tensor<1x32x28x28xf32>, tensor<3xi64>) -> tensor<1x32x784xf32>
    %286 = "onnx.MatMul"(%93, %285) {onnx_node_name = "/mobilenet_v2/layer.4/expand_1x1/convolution/Conv_162"} : (tensor<192x32xf32>, tensor<1x32x784xf32>) -> tensor<1x192x784xf32>
    %287 = "onnx.Add"(%286, %92) {onnx_node_name = "/mobilenet_v2/layer.4/expand_1x1/convolution/Conv_143"} : (tensor<1x192x784xf32>, tensor<1x192x1xf32>) -> tensor<1x192x784xf32>
    %288 = "onnx.Reshape"(%287, %91) {allowzero = 0 : si64, onnx_node_name = "/mobilenet_v2/layer.4/expand_1x1/convolution/Conv_81"} : (tensor<1x192x784xf32>, tensor<4xi64>) -> tensor<1x192x28x28xf32>
    %289 = "onnx.Clip"(%288, %159, %160) {onnx_node_name = "/mobilenet_v2/layer.4/expand_1x1/activation/Clip_5"} : (tensor<1x192x28x28xf32>, tensor<f32>, tensor<f32>) -> tensor<1x192x28x28xf32>
    %290 = "onnx.Conv"(%289, %161, %162) {auto_pad = "NOTSET", dilations = [1, 1], group = 192 : si64, kernel_shape = [3, 3], onnx_node_name = "/mobilenet_v2/layer.4/conv_3x3/convolution/Conv", pads = [1, 1, 1, 1], strides = [1, 1]} : (tensor<1x192x28x28xf32>, tensor<192x1x3x3xf32>, tensor<192xf32>) -> tensor<1x192x28x28xf32>
    %291 = "onnx.Clip"(%290, %163, %164) {onnx_node_name = "/mobilenet_v2/layer.4/conv_3x3/activation/Clip_148"} : (tensor<1x192x28x28xf32>, tensor<f32>, tensor<f32>) -> tensor<1x192x28x28xf32>
    %292 = "onnx.Reshape"(%291, %90) {allowzero = 0 : si64, onnx_node_name = "/mobilenet_v2/layer.4/reduce_1x1/convolution/Conv_96"} : (tensor<1x192x28x28xf32>, tensor<3xi64>) -> tensor<1x192x784xf32>
    %293 = "onnx.MatMul"(%89, %292) {onnx_node_name = "/mobilenet_v2/layer.4/reduce_1x1/convolution/Conv_11"} : (tensor<32x192xf32>, tensor<1x192x784xf32>) -> tensor<1x32x784xf32>
    %294 = "onnx.Add"(%293, %88) {onnx_node_name = "/mobilenet_v2/layer.4/reduce_1x1/convolution/Conv_62"} : (tensor<1x32x784xf32>, tensor<1x32x1xf32>) -> tensor<1x32x784xf32>
    %295 = "onnx.Reshape"(%294, %87) {allowzero = 0 : si64, onnx_node_name = "/mobilenet_v2/layer.4/reduce_1x1/convolution/Conv_20"} : (tensor<1x32x784xf32>, tensor<4xi64>) -> tensor<1x32x28x28xf32>
    %296 = "onnx.Add"(%284, %295) {onnx_node_name = "/mobilenet_v2/layer.4/Add"} : (tensor<1x32x28x28xf32>, tensor<1x32x28x28xf32>) -> tensor<1x32x28x28xf32>
    %297 = "onnx.Reshape"(%296, %86) {allowzero = 0 : si64, onnx_node_name = "/mobilenet_v2/layer.5/expand_1x1/convolution/Conv_147"} : (tensor<1x32x28x28xf32>, tensor<3xi64>) -> tensor<1x32x784xf32>
    %298 = "onnx.MatMul"(%85, %297) {onnx_node_name = "/mobilenet_v2/layer.5/expand_1x1/convolution/Conv_50"} : (tensor<192x32xf32>, tensor<1x32x784xf32>) -> tensor<1x192x784xf32>
    %299 = "onnx.Add"(%298, %84) {onnx_node_name = "/mobilenet_v2/layer.5/expand_1x1/convolution/Conv_66"} : (tensor<1x192x784xf32>, tensor<1x192x1xf32>) -> tensor<1x192x784xf32>
    %300 = "onnx.Reshape"(%299, %83) {allowzero = 0 : si64, onnx_node_name = "/mobilenet_v2/layer.5/expand_1x1/convolution/Conv_101"} : (tensor<1x192x784xf32>, tensor<4xi64>) -> tensor<1x192x28x28xf32>
    %301 = "onnx.Clip"(%300, %165, %166) {onnx_node_name = "/mobilenet_v2/layer.5/expand_1x1/activation/Clip_129"} : (tensor<1x192x28x28xf32>, tensor<f32>, tensor<f32>) -> tensor<1x192x28x28xf32>
    %302 = "onnx.Conv"(%301, %167, %168) {auto_pad = "NOTSET", dilations = [1, 1], group = 192 : si64, kernel_shape = [3, 3], onnx_node_name = "/mobilenet_v2/layer.5/conv_3x3/convolution/Conv", pads = [0, 0, 1, 1], strides = [2, 2]} : (tensor<1x192x28x28xf32>, tensor<192x1x3x3xf32>, tensor<192xf32>) -> tensor<1x192x14x14xf32>
    %303 = "onnx.Clip"(%302, %169, %170) {onnx_node_name = "/mobilenet_v2/layer.5/conv_3x3/activation/Clip_108"} : (tensor<1x192x14x14xf32>, tensor<f32>, tensor<f32>) -> tensor<1x192x14x14xf32>
    %304 = "onnx.Reshape"(%303, %82) {allowzero = 0 : si64, onnx_node_name = "/mobilenet_v2/layer.5/reduce_1x1/convolution/Conv_126"} : (tensor<1x192x14x14xf32>, tensor<3xi64>) -> tensor<1x192x196xf32>
    %305 = "onnx.MatMul"(%81, %304) {onnx_node_name = "/mobilenet_v2/layer.5/reduce_1x1/convolution/Conv_109"} : (tensor<64x192xf32>, tensor<1x192x196xf32>) -> tensor<1x64x196xf32>
    %306 = "onnx.Add"(%305, %80) {onnx_node_name = "/mobilenet_v2/layer.5/reduce_1x1/convolution/Conv_63"} : (tensor<1x64x196xf32>, tensor<1x64x1xf32>) -> tensor<1x64x196xf32>
    %307 = "onnx.Reshape"(%306, %79) {allowzero = 0 : si64, onnx_node_name = "/mobilenet_v2/layer.5/reduce_1x1/convolution/Conv_121"} : (tensor<1x64x196xf32>, tensor<4xi64>) -> tensor<1x64x14x14xf32>
    %308 = "onnx.MatMul"(%78, %306) {onnx_node_name = "/mobilenet_v2/layer.6/expand_1x1/convolution/Conv_115"} : (tensor<384x64xf32>, tensor<1x64x196xf32>) -> tensor<1x384x196xf32>
    %309 = "onnx.Add"(%308, %77) {onnx_node_name = "/mobilenet_v2/layer.6/expand_1x1/convolution/Conv_95"} : (tensor<1x384x196xf32>, tensor<1x384x1xf32>) -> tensor<1x384x196xf32>
    %310 = "onnx.Reshape"(%309, %76) {allowzero = 0 : si64, onnx_node_name = "/mobilenet_v2/layer.6/expand_1x1/convolution/Conv_131"} : (tensor<1x384x196xf32>, tensor<4xi64>) -> tensor<1x384x14x14xf32>
    %311 = "onnx.Clip"(%310, %171, %172) {onnx_node_name = "/mobilenet_v2/layer.6/expand_1x1/activation/Clip_90"} : (tensor<1x384x14x14xf32>, tensor<f32>, tensor<f32>) -> tensor<1x384x14x14xf32>
    %312 = "onnx.-"(%311, %173, %174) {auto_pad = "NOTSET", dilations = [1, 1], group = 384 : si64, kernel_shape = [3, 3], onnx_node_name = "/mobilenet_v2/layer.6/conv_3x3/convolution/Conv", pads = [1, 1, 1, 1], strides = [1, 1]} : (tensor<1x384x14x14xf32>, tensor<384x1x3x3xf32>, tensor<384xf32>) -> tensor<1x384x14x14xf32>
    %313 = "onnx.Clip"(%312, %175, %176) {onnx_node_name = "/mobilenet_v2/layer.6/conv_3x3/activation/Clip_72"} : (tensor<1x384x14x14xf32>, tensor<f32>, tensor<f32>) -> tensor<1x384x14x14xf32>
    %314 = "onnx.Reshape"(%313, %75) {allowzero = 0 : si64, onnx_node_name = "/mobilenet_v2/layer.6/reduce_1x1/convolution/Conv_18"} : (tensor<1x384x14x14xf32>, tensor<3xi64>) -> tensor<1x384x196xf32>
    %315 = "onnx.MatMul"(%74, %314) {onnx_node_name = "/mobilenet_v2/layer.6/reduce_1x1/convolution/Conv_122"} : (tensor<64x384xf32>, tensor<1x384x196xf32>) -> tensor<1x64x196xf32>
    %316 = "onnx.Add"(%315, %73) {onnx_node_name = "/mobilenet_v2/layer.6/reduce_1x1/convolution/Conv_102"} : (tensor<1x64x196xf32>, tensor<1x64x1xf32>) -> tensor<1x64x196xf32>
    %317 = "onnx.Reshape"(%316, %72) {allowzero = 0 : si64, onnx_node_name = "/mobilenet_v2/layer.6/reduce_1x1/convolution/Conv_19"} : (tensor<1x64x196xf32>, tensor<4xi64>) -> tensor<1x64x14x14xf32>
    %318 = "onnx.Add"(%307, %317) {onnx_node_name = "/mobilenet_v2/layer.6/Add"} : (tensor<1x64x14x14xf32>, tensor<1x64x14x14xf32>) -> tensor<1x64x14x14xf32>
    %319 = "onnx.Reshape"(%318, %71) {allowzero = 0 : si64, onnx_node_name = "/mobilenet_v2/layer.7/expand_1x1/convolution/Conv_123"} : (tensor<1x64x14x14xf32>, tensor<3xi64>) -> tensor<1x64x196xf32>
    %320 = "onnx.MatMul"(%70, %319) {onnx_node_name = "/mobilenet_v2/layer.7/expand_1x1/convolution/Conv_31"} : (tensor<384x64xf32>, tensor<1x64x196xf32>) -> tensor<1x384x196xf32>
    %321 = "onnx.Add"(%320, %69) {onnx_node_name = "/mobilenet_v2/layer.7/expand_1x1/convolution/Conv_32"} : (tensor<1x384x196xf32>, tensor<1x384x1xf32>) -> tensor<1x384x196xf32>
    %322 = "onnx.Reshape"(%321, %68) {allowzero = 0 : si64, onnx_node_name = "/mobilenet_v2/layer.7/expand_1x1/convolution/Conv_21"} : (tensor<1x384x196xf32>, tensor<4xi64>) -> tensor<1x384x14x14xf32>
    %323 = "onnx.Clip"(%322, %177, %178) {onnx_node_name = "/mobilenet_v2/layer.7/expand_1x1/activation/Clip_3"} : (tensor<1x384x14x14xf32>, tensor<f32>, tensor<f32>) -> tensor<1x384x14x14xf32>
    %324 = "onnx.Conv"(%323, %179, %180) {auto_pad = "NOTSET", dilations = [1, 1], group = 384 : si64, kernel_shape = [3, 3], onnx_node_name = "/mobilenet_v2/layer.7/conv_3x3/convolution/Conv", pads = [1, 1, 1, 1], strides = [1, 1]} : (tensor<1x384x14x14xf32>, tensor<384x1x3x3xf32>, tensor<384xf32>) -> tensor<1x384x14x14xf32>
    %325 = "onnx.Clip"(%324, %181, %182) {onnx_node_name = "/mobilenet_v2/layer.7/conv_3x3/activation/Clip_155"} : (tensor<1x384x14x14xf32>, tensor<f32>, tensor<f32>) -> tensor<1x384x14x14xf32>
    %326 = "onnx.Reshape"(%325, %67) {allowzero = 0 : si64, onnx_node_name = "/mobilenet_v2/layer.7/reduce_1x1/convolution/Conv_145"} : (tensor<1x384x14x14xf32>, tensor<3xi64>) -> tensor<1x384x196xf32>
    %327 = "onnx.MatMul"(%66, %326) {onnx_node_name = "/mobilenet_v2/layer.7/reduce_1x1/convolution/Conv_4"} : (tensor<64x384xf32>, tensor<1x384x196xf32>) -> tensor<1x64x196xf32>
    %328 = "onnx.Add"(%327, %65) {onnx_node_name = "/mobilenet_v2/layer.7/reduce_1x1/convolution/Conv_27"} : (tensor<1x64x196xf32>, tensor<1x64x1xf32>) -> tensor<1x64x196xf32>
    %329 = "onnx.Reshape"(%328, %64) {allowzero = 0 : si64, onnx_node_name = "/mobilenet_v2/layer.7/reduce_1x1/convolution/Conv_22"} : (tensor<1x64x196xf32>, tensor<4xi64>) -> tensor<1x64x14x14xf32>
    %330 = "onnx.Add"(%318, %329) {onnx_node_name = "/mobilenet_v2/layer.7/Add"} : (tensor<1x64x14x14xf32>, tensor<1x64x14x14xf32>) -> tensor<1x64x14x14xf32>
    %331 = "onnx.Reshape"(%330, %63) {allowzero = 0 : si64, onnx_node_name = "/mobilenet_v2/layer.8/expand_1x1/convolution/Conv_75"} : (tensor<1x64x14x14xf32>, tensor<3xi64>) -> tensor<1x64x196xf32>
    %332 = "onnx.MatMul"(%62, %331) {onnx_node_name = "/mobilenet_v2/layer.8/expand_1x1/convolution/Conv_25"} : (tensor<384x64xf32>, tensor<1x64x196xf32>) -> tensor<1x384x196xf32>
    %333 = "onnx.Add"(%332, %61) {onnx_node_name = "/mobilenet_v2/layer.8/expand_1x1/convolution/Conv_7"} : (tensor<1x384x196xf32>, tensor<1x384x1xf32>) -> tensor<1x384x196xf32>
    %334 = "onnx.Reshape"(%333, %60) {allowzero = 0 : si64, onnx_node_name = "/mobilenet_v2/layer.8/expand_1x1/convolution/Conv_70"} : (tensor<1x384x196xf32>, tensor<4xi64>) -> tensor<1x384x14x14xf32>
    %335 = "onnx.Clip"(%334, %183, %184) {onnx_node_name = "/mobilenet_v2/layer.8/expand_1x1/activation/Clip_128"} : (tensor<1x384x14x14xf32>, tensor<f32>, tensor<f32>) -> tensor<1x384x14x14xf32>
    %336 = "onnx.Conv"(%335, %185, %186) {auto_pad = "NOTSET", dilations = [1, 1], group = 384 : si64, kernel_shape = [3, 3], onnx_node_name = "/mobilenet_v2/layer.8/conv_3x3/convolution/Conv", pads = [1, 1, 1, 1], strides = [1, 1]} : (tensor<1x384x14x14xf32>, tensor<384x1x3x3xf32>, tensor<384xf32>) -> tensor<1x384x14x14xf32>
    %337 = "onnx.Clip"(%336, %187, %188) {onnx_node_name = "/mobilenet_v2/layer.8/conv_3x3/activation/Clip_118"} : (tensor<1x384x14x14xf32>, tensor<f32>, tensor<f32>) -> tensor<1x384x14x14xf32>
    %338 = "onnx.Reshape"(%337, %59) {allowzero = 0 : si64, onnx_node_name = "/mobilenet_v2/layer.8/reduce_1x1/convolution/Conv_157"} : (tensor<1x384x14x14xf32>, tensor<3xi64>) -> tensor<1x384x196xf32>
    %339 = "onnx.MatMul"(%58, %338) {onnx_node_name = "/mobilenet_v2/layer.8/reduce_1x1/convolution/Conv_106"} : (tensor<64x384xf32>, tensor<1x384x196xf32>) -> tensor<1x64x196xf32>
    %340 = "onnx.Add"(%339, %57) {onnx_node_name = "/mobilenet_v2/layer.8/reduce_1x1/convolution/Conv_133"} : (tensor<1x64x196xf32>, tensor<1x64x1xf32>) -> tensor<1x64x196xf32>
    %341 = "onnx.Reshape"(%340, %56) {allowzero = 0 : si64, onnx_node_name = "/mobilenet_v2/layer.8/reduce_1x1/convolution/Conv_80"} : (tensor<1x64x196xf32>, tensor<4xi64>) -> tensor<1x64x14x14xf32>
    %342 = "onnx.Add"(%330, %341) {onnx_node_name = "/mobilenet_v2/layer.8/Add"} : (tensor<1x64x14x14xf32>, tensor<1x64x14x14xf32>) -> tensor<1x64x14x14xf32>
    %343 = "onnx.Reshape"(%342, %55) {allowzero = 0 : si64, onnx_node_name = "/mobilenet_v2/layer.9/expand_1x1/convolution/Conv_150"} : (tensor<1x64x14x14xf32>, tensor<3xi64>) -> tensor<1x64x196xf32>
    %344 = "onnx.MatMul"(%54, %343) {onnx_node_name = "/mobilenet_v2/layer.9/expand_1x1/convolution/Conv_134"} : (tensor<384x64xf32>, tensor<1x64x196xf32>) -> tensor<1x384x196xf32>
    %345 = "onnx.Add"(%344, %53) {onnx_node_name = "/mobilenet_v2/layer.9/expand_1x1/convolution/Conv_87"} : (tensor<1x384x196xf32>, tensor<1x384x1xf32>) -> tensor<1x384x196xf32>
    %346 = "onnx.Reshape"(%345, %52) {allowzero = 0 : si64, onnx_node_name = "/mobilenet_v2/layer.9/expand_1x1/convolution/Conv_48"} : (tensor<1x384x196xf32>, tensor<4xi64>) -> tensor<1x384x14x14xf32>
    %347 = "onnx.Clip"(%346, %189, %190) {onnx_node_name = "/mobilenet_v2/layer.9/expand_1x1/activation/Clip_86"} : (tensor<1x384x14x14xf32>, tensor<f32>, tensor<f32>) -> tensor<1x384x14x14xf32>
    %348 = "onnx.Conv"(%347, %191, %192) {auto_pad = "NOTSET", dilations = [1, 1], group = 384 : si64, kernel_shape = [3, 3], onnx_node_name = "/mobilenet_v2/layer.9/conv_3x3/convolution/Conv", pads = [1, 1, 1, 1], strides = [1, 1]} : (tensor<1x384x14x14xf32>, tensor<384x1x3x3xf32>, tensor<384xf32>) -> tensor<1x384x14x14xf32>
    %349 = "onnx.Clip"(%348, %193, %194) {onnx_node_name = "/mobilenet_v2/layer.9/conv_3x3/activation/Clip_64"} : (tensor<1x384x14x14xf32>, tensor<f32>, tensor<f32>) -> tensor<1x384x14x14xf32>
    %350 = "onnx.Reshape"(%349, %51) {allowzero = 0 : si64, onnx_node_name = "/mobilenet_v2/layer.9/reduce_1x1/convolution/Conv_156"} : (tensor<1x384x14x14xf32>, tensor<3xi64>) -> tensor<1x384x196xf32>
    %351 = "onnx.MatMul"(%50, %350) {onnx_node_name = "/mobilenet_v2/layer.9/reduce_1x1/convolution/Conv_113"} : (tensor<96x384xf32>, tensor<1x384x196xf32>) -> tensor<1x96x196xf32>
    %352 = "onnx.Add"(%351, %49) {onnx_node_name = "/mobilenet_v2/layer.9/reduce_1x1/convolution/Conv_105"} : (tensor<1x96x196xf32>, tensor<1x96x1xf32>) -> tensor<1x96x196xf32>
    %353 = "onnx.Reshape"(%352, %48) {allowzero = 0 : si64, onnx_node_name = "/mobilenet_v2/layer.9/reduce_1x1/convolution/Conv_46"} : (tensor<1x96x196xf32>, tensor<4xi64>) -> tensor<1x96x14x14xf32>
    %354 = "onnx.MatMul"(%47, %352) {onnx_node_name = "/mobilenet_v2/layer.10/expand_1x1/convolution/Conv_149"} : (tensor<576x96xf32>, tensor<1x96x196xf32>) -> tensor<1x576x196xf32>
    %355 = "onnx.Add"(%354, %46) {onnx_node_name = "/mobilenet_v2/layer.10/expand_1x1/convolution/Conv_132"} : (tensor<1x576x196xf32>, tensor<1x576x1xf32>) -> tensor<1x576x196xf32>
    %356 = "onnx.Reshape"(%355, %45) {allowzero = 0 : si64, onnx_node_name = "/mobilenet_v2/layer.10/expand_1x1/convolution/Conv_92"} : (tensor<1x576x196xf32>, tensor<4xi64>) -> tensor<1x576x14x14xf32>
    %357 = "onnx.Clip"(%356, %195, %196) {onnx_node_name = "/mobilenet_v2/layer.10/expand_1x1/activation/Clip_29"} : (tensor<1x576x14x14xf32>, tensor<f32>, tensor<f32>) -> tensor<1x576x14x14xf32>
    %358 = "onnx.Conv"(%357, %197, %198) {auto_pad = "NOTSET", dilations = [1, 1], group = 576 : si64, kernel_shape = [3, 3], onnx_node_name = "/mobilenet_v2/layer.10/conv_3x3/convolution/Conv", pads = [1, 1, 1, 1], strides = [1, 1]} : (tensor<1x576x14x14xf32>, tensor<576x1x3x3xf32>, tensor<576xf32>) -> tensor<1x576x14x14xf32>
    %359 = "onnx.Clip"(%358, %199, %200) {onnx_node_name = "/mobilenet_v2/layer.10/conv_3x3/activation/Clip_2"} : (tensor<1x576x14x14xf32>, tensor<f32>, tensor<f32>) -> tensor<1x576x14x14xf32>
    %360 = "onnx.Reshape"(%359, %44) {allowzero = 0 : si64, onnx_node_name = "/mobilenet_v2/layer.10/reduce_1x1/convolution/Conv_76"} : (tensor<1x576x14x14xf32>, tensor<3xi64>) -> tensor<1x576x196xf32>
    %361 = "onnx.MatMul"(%43, %360) {onnx_node_name = "/mobilenet_v2/layer.10/reduce_1x1/convolution/Conv_73"} : (tensor<96x576xf32>, tensor<1x576x196xf32>) -> tensor<1x96x196xf32>
    %362 = "onnx.Add"(%361, %42) {onnx_node_name = "/mobilenet_v2/layer.10/reduce_1x1/convolution/Conv_51"} : (tensor<1x96x196xf32>, tensor<1x96x1xf32>) -> tensor<1x96x196xf32>
    %363 = "onnx.Reshape"(%362, %41) {allowzero = 0 : si64, onnx_node_name = "/mobilenet_v2/layer.10/reduce_1x1/convolution/Conv_93"} : (tensor<1x96x196xf32>, tensor<4xi64>) -> tensor<1x96x14x14xf32>
    %364 = "onnx.Add"(%353, %363) {onnx_node_name = "/mobilenet_v2/layer.10/Add"} : (tensor<1x96x14x14xf32>, tensor<1x96x14x14xf32>) -> tensor<1x96x14x14xf32>
    %365 = "onnx.Reshape"(%364, %40) {allowzero = 0 : si64, onnx_node_name = "/mobilenet_v2/layer.11/expand_1x1/convolution/Conv_33"} : (tensor<1x96x14x14xf32>, tensor<3xi64>) -> tensor<1x96x196xf32>
    %366 = "onnx.MatMul"(%39, %365) {onnx_node_name = "/mobilenet_v2/layer.11/expand_1x1/convolution/Conv_85"} : (tensor<576x96xf32>, tensor<1x96x196xf32>) -> tensor<1x576x196xf32>
    %367 = "onnx.Add"(%366, %38) {onnx_node_name = "/mobilenet_v2/layer.11/expand_1x1/convolution/Conv_61"} : (tensor<1x576x196xf32>, tensor<1x576x1xf32>) -> tensor<1x576x196xf32>
    %368 = "onnx.Reshape"(%367, %37) {allowzero = 0 : si64, onnx_node_name = "/mobilenet_v2/layer.11/expand_1x1/convolution/Conv_97"} : (tensor<1x576x196xf32>, tensor<4xi64>) -> tensor<1x576x14x14xf32>
    %369 = "onnx.Clip"(%368, %201, %202) {onnx_node_name = "/mobilenet_v2/layer.11/expand_1x1/activation/Clip_69"} : (tensor<1x576x14x14xf32>, tensor<f32>, tensor<f32>) -> tensor<1x576x14x14xf32>
    %370 = "onnx.Conv"(%369, %203, %204) {auto_pad = "NOTSET", dilations = [1, 1], group = 576 : si64, kernel_shape = [3, 3], onnx_node_name = "/mobilenet_v2/layer.11/conv_3x3/convolution/Conv", pads = [1, 1, 1, 1], strides = [1, 1]} : (tensor<1x576x14x14xf32>, tensor<576x1x3x3xf32>, tensor<576xf32>) -> tensor<1x576x14x14xf32>
    %371 = "onnx.Clip"(%370, %205, %206) {onnx_node_name = "/mobilenet_v2/layer.11/conv_3x3/activation/Clip_15"} : (tensor<1x576x14x14xf32>, tensor<f32>, tensor<f32>) -> tensor<1x576x14x14xf32>
    %372 = "onnx.Reshape"(%371, %36) {allowzero = 0 : si64, onnx_node_name = "/mobilenet_v2/layer.11/reduce_1x1/convolution/Conv_38"} : (tensor<1x576x14x14xf32>, tensor<3xi64>) -> tensor<1x576x196xf32>
    %373 = "onnx.MatMul"(%35, %372) {onnx_node_name = "/mobilenet_v2/layer.11/reduce_1x1/convolution/Conv_91"} : (tensor<96x576xf32>, tensor<1x576x196xf32>) -> tensor<1x96x196xf32>
    %374 = "onnx.Add"(%373, %34) {onnx_node_name = "/mobilenet_v2/layer.11/reduce_1x1/convolution/Conv_83"} : (tensor<1x96x196xf32>, tensor<1x96x1xf32>) -> tensor<1x96x196xf32>
    %375 = "onnx.Reshape"(%374, %33) {allowzero = 0 : si64, onnx_node_name = "/mobilenet_v2/layer.11/reduce_1x1/convolution/Conv_47"} : (tensor<1x96x196xf32>, tensor<4xi64>) -> tensor<1x96x14x14xf32>
    %376 = "onnx.Add"(%364, %375) {onnx_node_name = "/mobilenet_v2/layer.11/Add"} : (tensor<1x96x14x14xf32>, tensor<1x96x14x14xf32>) -> tensor<1x96x14x14xf32>
    %377 = "onnx.Reshape"(%376, %32) {allowzero = 0 : si64, onnx_node_name = "/mobilenet_v2/layer.12/expand_1x1/convolution/Conv_135"} : (tensor<1x96x14x14xf32>, tensor<3xi64>) -> tensor<1x96x196xf32>
    %378 = "onnx.MatMul"(%31, %377) {onnx_node_name = "/mobilenet_v2/layer.12/expand_1x1/convolution/Conv_54"} : (tensor<576x96xf32>, tensor<1x96x196xf32>) -> tensor<1x576x196xf32>
    %379 = "onnx.Add"(%378, %30) {onnx_node_name = "/mobilenet_v2/layer.12/expand_1x1/convolution/Conv_82"} : (tensor<1x576x196xf32>, tensor<1x576x1xf32>) -> tensor<1x576x196xf32>
    %380 = "onnx.Reshape"(%379, %29) {allowzero = 0 : si64, onnx_node_name = "/mobilenet_v2/layer.12/expand_1x1/convolution/Conv_30"} : (tensor<1x576x196xf32>, tensor<4xi64>) -> tensor<1x576x14x14xf32>
    %381 = "onnx.Clip"(%380, %207, %208) {onnx_node_name = "/mobilenet_v2/layer.12/expand_1x1/activation/Clip_136"} : (tensor<1x576x14x14xf32>, tensor<f32>, tensor<f32>) -> tensor<1x576x14x14xf32>
    %382 = "onnx.Conv"(%381, %209, %210) {auto_pad = "NOTSET", dilations = [1, 1], group = 576 : si64, kernel_shape = [3, 3], onnx_node_name = "/mobilenet_v2/layer.12/conv_3x3/convolution/Conv", pads = [0, 0, 1, 1], strides = [2, 2]} : (tensor<1x576x14x14xf32>, tensor<576x1x3x3xf32>, tensor<576xf32>) -> tensor<1x576x7x7xf32>
    %383 = "onnx.Clip"(%382, %211, %212) {onnx_node_name = "/mobilenet_v2/layer.12/conv_3x3/activation/Clip_161"} : (tensor<1x576x7x7xf32>, tensor<f32>, tensor<f32>) -> tensor<1x576x7x7xf32>
    %384 = "onnx.Reshape"(%383, %28) {allowzero = 0 : si64, onnx_node_name = "/mobilenet_v2/layer.12/reduce_1x1/convolution/Conv_99"} : (tensor<1x576x7x7xf32>, tensor<3xi64>) -> tensor<1x576x49xf32>
    %385 = "onnx.MatMul"(%27, %384) {onnx_node_name = "/mobilenet_v2/layer.12/reduce_1x1/convolution/Conv_23"} : (tensor<160x576xf32>, tensor<1x576x49xf32>) -> tensor<1x160x49xf32>
    %386 = "onnx.Add"(%385, %26) {onnx_node_name = "/mobilenet_v2/layer.12/reduce_1x1/convolution/Conv_68"} : (tensor<1x160x49xf32>, tensor<1x160x1xf32>) -> tensor<1x160x49xf32>
    %387 = "onnx.Reshape"(%386, %25) {allowzero = 0 : si64, onnx_node_name = "/mobilenet_v2/layer.12/reduce_1x1/convolution/Conv_8"} : (tensor<1x160x49xf32>, tensor<4xi64>) -> tensor<1x160x7x7xf32>
    %388 = "onnx.MatMul"(%24, %386) {onnx_node_name = "/mobilenet_v2/layer.13/expand_1x1/convolution/Conv_17"} : (tensor<960x160xf32>, tensor<1x160x49xf32>) -> tensor<1x960x49xf32>
    %389 = "onnx.Add"(%388, %23) {onnx_node_name = "/mobilenet_v2/layer.13/expand_1x1/convolution/Conv_65"} : (tensor<1x960x49xf32>, tensor<1x960x1xf32>) -> tensor<1x960x49xf32>
    %390 = "onnx.Reshape"(%389, %22) {allowzero = 0 : si64, onnx_node_name = "/mobilenet_v2/layer.13/expand_1x1/convolution/Conv_26"} : (tensor<1x960x49xf32>, tensor<4xi64>) -> tensor<1x960x7x7xf32>
    %391 = "onnx.Clip"(%390, %213, %214) {onnx_node_name = "/mobilenet_v2/layer.13/expand_1x1/activation/Clip_98"} : (tensor<1x960x7x7xf32>, tensor<f32>, tensor<f32>) -> tensor<1x960x7x7xf32>
    %392 = "onnx.Conv"(%391, %215, %216) {auto_pad = "NOTSET", dilations = [1, 1], group = 960 : si64, kernel_shape = [3, 3], onnx_node_name = "/mobilenet_v2/layer.13/conv_3x3/convolution/Conv", pads = [1, 1, 1, 1], strides = [1, 1]} : (tensor<1x960x7x7xf32>, tensor<960x1x3x3xf32>, tensor<960xf32>) -> tensor<1x960x7x7xf32>
    %393 = "onnx.Clip"(%392, %217, %218) {onnx_node_name = "/mobilenet_v2/layer.13/conv_3x3/activation/Clip_12"} : (tensor<1x960x7x7xf32>, tensor<f32>, tensor<f32>) -> tensor<1x960x7x7xf32>
    %394 = "onnx.Reshape"(%393, %21) {allowzero = 0 : si64, onnx_node_name = "/mobilenet_v2/layer.13/reduce_1x1/convolution/Conv_43"} : (tensor<1x960x7x7xf32>, tensor<3xi64>) -> tensor<1x960x49xf32>
    %395 = "onnx.MatMul"(%20, %394) {onnx_node_name = "/mobilenet_v2/layer.13/reduce_1x1/convolution/Conv_45"} : (tensor<160x960xf32>, tensor<1x960x49xf32>) -> tensor<1x160x49xf32>
    %396 = "onnx.Add"(%395, %19) {onnx_node_name = "/mobilenet_v2/layer.13/reduce_1x1/convolution/Conv_67"} : (tensor<1x160x49xf32>, tensor<1x160x1xf32>) -> tensor<1x160x49xf32>
    %397 = "onnx.Reshape"(%396, %18) {allowzero = 0 : si64, onnx_node_name = "/mobilenet_v2/layer.13/reduce_1x1/convolution/Conv_112"} : (tensor<1x160x49xf32>, tensor<4xi64>) -> tensor<1x160x7x7xf32>
    %398 = "onnx.Add"(%387, %397) {onnx_node_name = "/mobilenet_v2/layer.13/Add"} : (tensor<1x160x7x7xf32>, tensor<1x160x7x7xf32>) -> tensor<1x160x7x7xf32>
    %399 = "onnx.Reshape"(%398, %17) {allowzero = 0 : si64, onnx_node_name = "/mobilenet_v2/layer.14/expand_1x1/convolution/Conv_13"} : (tensor<1x160x7x7xf32>, tensor<3xi64>) -> tensor<1x160x49xf32>
    %400 = "onnx.MatMul"(%16, %399) {onnx_node_name = "/mobilenet_v2/layer.14/expand_1x1/convolution/Conv_107"} : (tensor<960x160xf32>, tensor<1x160x49xf32>) -> tensor<1x960x49xf32>
    %401 = "onnx.Add"(%400, %15) {onnx_node_name = "/mobilenet_v2/layer.14/expand_1x1/convolution/Conv_44"} : (tensor<1x960x49xf32>, tensor<1x960x1xf32>) -> tensor<1x960x49xf32>
    %402 = "onnx.Reshape"(%401, %14) {allowzero = 0 : si64, onnx_node_name = "/mobilenet_v2/layer.14/expand_1x1/convolution/Conv_9"} : (tensor<1x960x49xf32>, tensor<4xi64>) -> tensor<1x960x7x7xf32>
    %403 = "onnx.Clip"(%402, %219, %220) {onnx_node_name = "/mobilenet_v2/layer.14/expand_1x1/activation/Clip_16"} : (tensor<1x960x7x7xf32>, tensor<f32>, tensor<f32>) -> tensor<1x960x7x7xf32>
    %404 = "onnx.Conv"(%403, %221, %222) {auto_pad = "NOTSET", dilations = [1, 1], group = 960 : si64, kernel_shape = [3, 3], onnx_node_name = "/mobilenet_v2/layer.14/conv_3x3/convolution/Conv", pads = [1, 1, 1, 1], strides = [1, 1]} : (tensor<1x960x7x7xf32>, tensor<960x1x3x3xf32>, tensor<960xf32>) -> tensor<1x960x7x7xf32>
    %405 = "onnx.Clip"(%404, %223, %224) {onnx_node_name = "/mobilenet_v2/layer.14/conv_3x3/activation/Clip_36"} : (tensor<1x960x7x7xf32>, tensor<f32>, tensor<f32>) -> tensor<1x960x7x7xf32>
    %406 = "onnx.Reshape"(%405, %13) {allowzero = 0 : si64, onnx_node_name = "/mobilenet_v2/layer.14/reduce_1x1/convolution/Conv_110"} : (tensor<1x960x7x7xf32>, tensor<3xi64>) -> tensor<1x960x49xf32>
    %407 = "onnx.MatMul"(%12, %406) {onnx_node_name = "/mobilenet_v2/layer.14/reduce_1x1/convolution/Conv_34"} : (tensor<160x960xf32>, tensor<1x960x49xf32>) -> tensor<1x160x49xf32>
    %408 = "onnx.Add"(%407, %11) {onnx_node_name = "/mobilenet_v2/layer.14/reduce_1x1/convolution/Conv_10"} : (tensor<1x160x49xf32>, tensor<1x160x1xf32>) -> tensor<1x160x49xf32>
    %409 = "onnx.Reshape"(%408, %10) {allowzero = 0 : si64, onnx_node_name = "/mobilenet_v2/layer.14/reduce_1x1/convolution/Conv_53"} : (tensor<1x160x49xf32>, tensor<4xi64>) -> tensor<1x160x7x7xf32>
    %410 = "onnx.Add"(%398, %409) {onnx_node_name = "/mobilenet_v2/layer.14/Add"} : (tensor<1x160x7x7xf32>, tensor<1x160x7x7xf32>) -> tensor<1x160x7x7xf32>
    %411 = "onnx.Reshape"(%410, %9) {allowzero = 0 : si64, onnx_node_name = "/mobilenet_v2/layer.15/expand_1x1/convolution/Conv_104"} : (tensor<1x160x7x7xf32>, tensor<3xi64>) -> tensor<1x160x49xf32>
    %412 = "onnx.MatMul"(%8, %411) {onnx_node_name = "/mobilenet_v2/layer.15/expand_1x1/convolution/Conv_40"} : (tensor<960x160xf32>, tensor<1x160x49xf32>) -> tensor<1x960x49xf32>
    %413 = "onnx.Add"(%412, %7) {onnx_node_name = "/mobilenet_v2/layer.15/expand_1x1/convolution/Conv_24"} : (tensor<1x960x49xf32>, tensor<1x960x1xf32>) -> tensor<1x960x49xf32>
    %414 = "onnx.Reshape"(%413, %6) {allowzero = 0 : si64, onnx_node_name = "/mobilenet_v2/layer.15/expand_1x1/convolution/Conv_56"} : (tensor<1x960x49xf32>, tensor<4xi64>) -> tensor<1x960x7x7xf32>
    %415 = "onnx.Clip"(%414, %225, %226) {onnx_node_name = "/mobilenet_v2/layer.15/expand_1x1/activation/Clip_94"} : (tensor<1x960x7x7xf32>, tensor<f32>, tensor<f32>) -> tensor<1x960x7x7xf32>
    %416 = "onnx.Conv"(%415, %227, %228) {auto_pad = "NOTSET", dilations = [1, 1], group = 960 : si64, kernel_shape = [3, 3], onnx_node_name = "/mobilenet_v2/layer.15/conv_3x3/convolution/Conv", pads = [1, 1, 1, 1], strides = [1, 1]} : (tensor<1x960x7x7xf32>, tensor<960x1x3x3xf32>, tensor<960xf32>) -> tensor<1x960x7x7xf32>
    %417 = "onnx.Clip"(%416, %229, %230) {onnx_node_name = "/mobilenet_v2/layer.15/conv_3x3/activation/Clip_124"} : (tensor<1x960x7x7xf32>, tensor<f32>, tensor<f32>) -> tensor<1x960x7x7xf32>
    %418 = "onnx.Reshape"(%417, %5) {allowzero = 0 : si64, onnx_node_name = "/mobilenet_v2/layer.15/reduce_1x1/convolution/Conv_55"} : (tensor<1x960x7x7xf32>, tensor<3xi64>) -> tensor<1x960x49xf32>
    %419 = "onnx.MatMul"(%4, %418) {onnx_node_name = "/mobilenet_v2/layer.15/reduce_1x1/convolution/Conv_125"} : (tensor<320x960xf32>, tensor<1x960x49xf32>) -> tensor<1x320x49xf32>
    %420 = "onnx.Add"(%419, %3) {onnx_node_name = "/mobilenet_v2/layer.15/reduce_1x1/convolution/Conv_138"} : (tensor<1x320x49xf32>, tensor<1x320x1xf32>) -> tensor<1x320x49xf32>
    %421 = "onnx.MatMul"(%2, %420) {onnx_node_name = "/mobilenet_v2/conv_1x1/convolution/Conv_114"} : (tensor<1280x320xf32>, tensor<1x320x49xf32>) -> tensor<1x1280x49xf32>
    %422 = "onnx.Add"(%421, %1) {onnx_node_name = "/mobilenet_v2/conv_1x1/convolution/Conv_139"} : (tensor<1x1280x49xf32>, tensor<1x1280x1xf32>) -> tensor<1x1280x49xf32>
    %423 = "onnx.Reshape"(%422, %0) {allowzero = 0 : si64, onnx_node_name = "/mobilenet_v2/conv_1x1/convolution/Conv_89"} : (tensor<1x1280x49xf32>, tensor<4xi64>) -> tensor<1x1280x7x7xf32>
    %424 = "onnx.Clip"(%423, %231, %232) {onnx_node_name = "/mobilenet_v2/conv_1x1/activation/Clip_152"} : (tensor<1x1280x7x7xf32>, tensor<f32>, tensor<f32>) -> tensor<1x1280x7x7xf32>
    %425 = "onnx.ReduceMeanV13"(%424) {axes = [2, 3], keepdims = 1 : si64, onnx_node_name = "/mobilenet_v2/pooler/GlobalAveragePool_41"} : (tensor<1x1280x7x7xf32>) -> tensor<1x1280x1x1xf32>
    %426 = "onnx.Flatten"(%425) {axis = 1 : si64, onnx_node_name = "/mobilenet_v2/Flatten"} : (tensor<1x1280x1x1xf32>) -> tensor<1x1280xf32>
    %427 = "onnx.Gemm"(%426, %233, %234) {alpha = 1.000000e+00 : f32, beta = 1.000000e+00 : f32, onnx_node_name = "/classifier/Gemm", transA = 0 : si64, transB = 1 : si64} : (tensor<1x1280xf32>, tensor<1001x1280xf32>, tensor<1001xf32>) -> tensor<1x1001xf32>
    return %427 : tensor<1x1001xf32>
  }
  "onnx.EntryPoint"() {func = @main_graph} : () -> ()
}
