module attributes {llvm.data_layout = "e-m:e-p270:32:32-p271:32:32-p272:64:64-i64:64-i128:128-f80:128-n8:16:32:64-S128", llvm.target_triple = "x86_64-unknown-linux-gnu", "onnx-mlir.symbol-postfix" = "model"} {
  func.func @main_graph(%arg0: tensor<1x3x224x224xf32> {onnx.name = "x"}) -> (tensor<1x1000xf32> {onnx.name = "70"}) {
    %0 = onnx.Constant dense_resource<__elided__> : tensor<64x3x3x3xf32>
    %1 = onnx.Constant dense<[… > : tensor<64xf32>
    %2 = onnx.Constant dense_resource<__elided__> : tensor<64x64x3x3xf32>
    %3 = onnx.Constant dense<[… > : tensor<64xf32>
    %4 = onnx.Constant dense_resource<__elided__> : tensor<128x64x3x3xf32>
    %5 = onnx.Constant dense_resource<__elided__> : tensor<128xf32>
    %6 = onnx.Constant dense_resource<__elided__> : tensor<128x128x3x3xf32>
    %7 = onnx.Constant dense_resource<__elided__> : tensor<128xf32>
    %8 = onnx.Constant dense_resource<__elided__> : tensor<256x128x3x3xf32>
    %9 = onnx.Constant dense_resource<__elided__> : tensor<256xf32>
    %10 = onnx.Constant dense_resource<__elided__> : tensor<256x256x3x3xf32>
    %11 = onnx.Constant dense_resource<__elided__> : tensor<256xf32>
    %12 = onnx.Constant dense_resource<__elided__> : tensor<256x256x3x3xf32>
    %13 = onnx.Constant dense_resource<__elided__> : tensor<256xf32>
    %14 = onnx.Constant dense_resource<__elided__> : tensor<512x256x3x3xf32>
    %15 = onnx.Constant dense_resource<__elided__> : tensor<512xf32>
    %16 = onnx.Constant dense_resource<__elided__> : tensor<512x512x3x3xf32>
    %17 = onnx.Constant dense_resource<__elided__> : tensor<512xf32>
    %18 = onnx.Constant dense_resource<__elided__> : tensor<512x512x3x3xf32>
    %19 = onnx.Constant dense_resource<__elided__> : tensor<512xf32>
    %20 = onnx.Constant dense_resource<__elided__> : tensor<512x512x3x3xf32>
    %21 = onnx.Constant dense_resource<__elided__> : tensor<512xf32>
    %22 = onnx.Constant dense_resource<__elided__> : tensor<512x512x3x3xf32>
    %23 = onnx.Constant dense_resource<__elided__> : tensor<512xf32>
    %24 = onnx.Constant dense_resource<__elided__> : tensor<512x512x3x3xf32>
    %25 = onnx.Constant dense_resource<__elided__> : tensor<512xf32>
    %26 = onnx.Constant dense_resource<__elided__> : tensor<4096x25088xf32>
    %27 = onnx.Constant dense_resource<__elided__> : tensor<4096xf32>
    %28 = onnx.Constant dense_resource<__elided__> : tensor<4096x4096xf32>
    %29 = onnx.Constant dense_resource<__elided__> : tensor<4096xf32>
    %30 = onnx.Constant dense_resource<__elided__> : tensor<1000x4096xf32>
    %31 = onnx.Constant dense_resource<__elided__> : tensor<1000xf32>
    %32 = "onnx.Conv"(%arg0, %0, %1) {auto_pad = "NOTSET", dilations = [1, 1], group = 1 : si64, kernel_shape = [3, 3], onnx_node_name = "/features/features.0/Conv", pads = [1, 1, 1, 1], strides = [1, 1]} : (tensor<1x3x224x224xf32>, tensor<64x3x3x3xf32>, tensor<64xf32>) -> tensor<1x64x224x224xf32>
    %33 = "onnx.Relu"(%32) {onnx_node_name = "/features/features.1/Relu"} : (tensor<1x64x224x224xf32>) -> tensor<1x64x224x224xf32>
    %34 = "onnx.Conv"(%33, %2, %3) {auto_pad = "NOTSET", dilations = [1, 1], group = 1 : si64, kernel_shape = [3, 3], onnx_node_name = "/features/features.2/Conv", pads = [1, 1, 1, 1], strides = [1, 1]} : (tensor<1x64x224x224xf32>, tensor<64x64x3x3xf32>, tensor<64xf32>) -> tensor<1x64x224x224xf32>
    %35 = "onnx.Relu"(%34) {onnx_node_name = "/features/features.3/Relu"} : (tensor<1x64x224x224xf32>) -> tensor<1x64x224x224xf32>
    %36 = "onnx.MaxPoolSingleOut"(%35) {auto_pad = "NOTSET", ceil_mode = 0 : si64, kernel_shape = [2, 2], onnx_node_name = "/features/features.4/MaxPool", pads = [0, 0, 0, 0], storage_order = 0 : si64, strides = [2, 2]} : (tensor<1x64x224x224xf32>) -> tensor<1x64x112x112xf32>
    %37 = "onnx.Conv"(%36, %4, %5) {auto_pad = "NOTSET", dilations = [1, 1], group = 1 : si64, kernel_shape = [3, 3], onnx_node_name = "/features/features.5/Conv", pads = [1, 1, 1, 1], strides = [1, 1]} : (tensor<1x64x112x112xf32>, tensor<128x64x3x3xf32>, tensor<128xf32>) -> tensor<1x128x112x112xf32>
    %38 = "onnx.Relu"(%37) {onnx_node_name = "/features/features.6/Relu"} : (tensor<1x128x112x112xf32>) -> tensor<1x128x112x112xf32>
    %39 = "onnx.Conv"(%38, %6, %7) {auto_pad = "NOTSET", dilations = [1, 1], group = 1 : si64, kernel_shape = [3, 3], onnx_node_name = "/features/features.7/Conv", pads = [1, 1, 1, 1], strides = [1, 1]} : (tensor<1x128x112x112xf32>, tensor<128x128x3x3xf32>, tensor<128xf32>) -> tensor<1x128x112x112xf32>
    %40 = "onnx.Relu"(%39) {onnx_node_name = "/features/features.8/Relu"} : (tensor<1x128x112x112xf32>) -> tensor<1x128x112x112xf32>
    %41 = "onnx.MaxPoolSingleOut"(%40) {auto_pad = "NOTSET", ceil_mode = 0 : si64, kernel_shape = [2, 2], onnx_node_name = "/features/features.9/MaxPool", pads = [0, 0, 0, 0], storage_order = 0 : si64, strides = [2, 2]} : (tensor<1x128x112x112xf32>) -> tensor<1x128x56x56xf32>
    %42 = "onnx.Conv"(%41, %8, %9) {auto_pad = "NOTSET", dilations = [1, 1], group = 1 : si64, kernel_shape = [3, 3], onnx_node_name = "/features/features.10/Conv", pads = [1, 1, 1, 1], strides = [1, 1]} : (tensor<1x128x56x56xf32>, tensor<256x128x3x3xf32>, tensor<256xf32>) -> tensor<1x256x56x56xf32>
    %43 = "onnx.Relu"(%42) {onnx_node_name = "/features/features.11/Relu"} : (tensor<1x256x56x56xf32>) -> tensor<1x256x56x56xf32>
    %44 = "onnx.Conv"(%43, %10, %11) {auto_pad = "NOTSET", dilations = [1, 1], group = 1 : si64, kernel_shape = [3, 3], onnx_node_name = "/features/features.12/Conv", pads = [1, 1, 1, 1], strides = [1, 1]} : (tensor<1x256x56x56xf32>, tensor<256x256x3x3xf32>, tensor<256xf32>) -> tensor<1x256x56x56xf32>
    %45 = "onnx.Relu"(%44) {onnx_node_name = "/features/features.13/Relu"} : (tensor<1x256x56x56xf32>) -> tensor<1x256x56x56xf32>
    %46 = "onnx.Conv"(%45, %12, %13) {auto_pad = "NOTSET", dilations = [1, 1], group = 1 : si64, kernel_shape = [3, 3], onnx_node_name = "/features/features.14/Conv", pads = [1, 1, 1, 1], strides = [1, 1]} : (tensor<1x256x56x56xf32>, tensor<256x256x3x3xf32>, tensor<256xf32>) -> tensor<1x256x56x56xf32>
    %47 = "onnx.Relu"(%46) {onnx_node_name = "/features/features.15/Relu"} : (tensor<1x256x56x56xf32>) -> tensor<1x256x56x56xf32>
    %48 = "onnx.MaxPoolSingleOut"(%47) {auto_pad = "NOTSET", ceil_mode = 0 : si64, kernel_shape = [2, 2], onnx_node_name = "/features/features.16/MaxPool", pads = [0, 0, 0, 0], storage_order = 0 : si64, strides = [2, 2]} : (tensor<1x256x56x56xf32>) -> tensor<1x256x28x28xf32>
    %49 = "onnx.Conv"(%48, %14, %15) {auto_pad = "NOTSET", dilations = [1, 1], group = 1 : si64, kernel_shape = [3, 3], onnx_node_name = "/features/features.17/Conv", pads = [1, 1, 1, 1], strides = [1, 1]} : (tensor<1x256x28x28xf32>, tensor<512x256x3x3xf32>, tensor<512xf32>) -> tensor<1x512x28x28xf32>
    %50 = "onnx.Relu"(%49) {onnx_node_name = "/features/features.18/Relu"} : (tensor<1x512x28x28xf32>) -> tensor<1x512x28x28xf32>
    %51 = "onnx.Conv"(%50, %16, %17) {auto_pad = "NOTSET", dilations = [1, 1], group = 1 : si64, kernel_shape = [3, 3], onnx_node_name = "/features/features.19/Conv", pads = [1, 1, 1, 1], strides = [1, 1]} : (tensor<1x512x28x28xf32>, tensor<512x512x3x3xf32>, tensor<512xf32>) -> tensor<1x512x28x28xf32>
    %52 = "onnx.Relu"(%51) {onnx_node_name = "/features/features.20/Relu"} : (tensor<1x512x28x28xf32>) -> tensor<1x512x28x28xf32>
    %53 = "onnx.Conv"(%52, %18, %19) {auto_pad = "NOTSET", dilations = [1, 1], group = 1 : si64, kernel_shape = [3, 3], onnx_node_name = "/features/features.21/Conv", pads = [1, 1, 1, 1], strides = [1, 1]} : (tensor<1x512x28x28xf32>, tensor<512x512x3x3xf32>, tensor<512xf32>) -> tensor<1x512x28x28xf32>
    %54 = "onnx.Relu"(%53) {onnx_node_name = "/features/features.22/Relu"} : (tensor<1x512x28x28xf32>) -> tensor<1x512x28x28xf32>
    %55 = "onnx.MaxPoolSingleOut"(%54) {auto_pad = "NOTSET", ceil_mode = 0 : si64, kernel_shape = [2, 2], onnx_node_name = "/features/features.23/MaxPool", pads = [0, 0, 0, 0], storage_order = 0 : si64, strides = [2, 2]} : (tensor<1x512x28x28xf32>) -> tensor<1x512x14x14xf32>
    %56 = "onnx.Conv"(%55, %20, %21) {auto_pad = "NOTSET", dilations = [1, 1], group = 1 : si64, kernel_shape = [3, 3], onnx_node_name = "/features/features.24/Conv", pads = [1, 1, 1, 1], strides = [1, 1]} : (tensor<1x512x14x14xf32>, tensor<512x512x3x3xf32>, tensor<512xf32>) -> tensor<1x512x14x14xf32>
    %57 = "onnx.Relu"(%56) {onnx_node_name = "/features/features.25/Relu"} : (tensor<1x512x14x14xf32>) -> tensor<1x512x14x14xf32>
    %58 = "onnx.Conv"(%57, %22, %23) {auto_pad = "NOTSET", dilations = [1, 1], group = 1 : si64, kernel_shape = [3, 3], onnx_node_name = "/features/features.26/Conv", pads = [1, 1, 1, 1], strides = [1, 1]} : (tensor<1x512x14x14xf32>, tensor<512x512x3x3xf32>, tensor<512xf32>) -> tensor<1x512x14x14xf32>
    %59 = "onnx.Relu"(%58) {onnx_node_name = "/features/features.27/Relu"} : (tensor<1x512x14x14xf32>) -> tensor<1x512x14x14xf32>
    %60 = "onnx.Conv"(%59, %24, %25) {auto_pad = "NOTSET", dilations = [1, 1], group = 1 : si64, kernel_shape = [3, 3], onnx_node_name = "/features/features.28/Conv", pads = [1, 1, 1, 1], strides = [1, 1]} : (tensor<1x512x14x14xf32>, tensor<512x512x3x3xf32>, tensor<512xf32>) -> tensor<1x512x14x14xf32>
    %61 = "onnx.Relu"(%60) {onnx_node_name = "/features/features.29/Relu"} : (tensor<1x512x14x14xf32>) -> tensor<1x512x14x14xf32>
    %62 = "onnx.MaxPoolSingleOut"(%61) {auto_pad = "NOTSET", ceil_mode = 0 : si64, kernel_shape = [2, 2], onnx_node_name = "/features/features.30/MaxPool", pads = [0, 0, 0, 0], storage_order = 0 : si64, strides = [2, 2]} : (tensor<1x512x14x14xf32>) -> tensor<1x512x7x7xf32>
    %63 = "onnx.AveragePool"(%62) {auto_pad = "NOTSET", ceil_mode = 0 : si64, count_include_pad = 0 : si64, kernel_shape = [1, 1], onnx_node_name = "/avgpool/AveragePool", strides = [1, 1]} : (tensor<1x512x7x7xf32>) -> tensor<1x512x7x7xf32>
    %64 = "onnx.Flatten"(%63) {axis = 1 : si64, onnx_node_name = "/Flatten"} : (tensor<1x512x7x7xf32>) -> tensor<1x25088xf32>
    %65 = "onnx.Gemm"(%64, %26, %27) {alpha = 1.000000e+00 : f32, beta = 1.000000e+00 : f32, onnx_node_name = "/classifier/classifier.0/Gemm", transA = 0 : si64, transB = 1 : si64} : (tensor<1x25088xf32>, tensor<4096x25088xf32>, tensor<4096xf32>) -> tensor<1x4096xf32>
    %66 = "onnx.Relu"(%65) {onnx_node_name = "/classifier/classifier.1/Relu"} : (tensor<1x4096xf32>) -> tensor<1x4096xf32>
    %67 = "onnx.Gemm"(%66, %28, %29) {alpha = 1.000000e+00 : f32, beta = 1.000000e+00 : f32, onnx_node_name = "/classifier/classifier.3/Gemm", transA = 0 : si64, transB = 1 : si64} : (tensor<1x4096xf32>, tensor<4096x4096xf32>, tensor<4096xf32>) -> tensor<1x4096xf32>
    %68 = "onnx.Relu"(%67) {onnx_node_name = "/classifier/classifier.4/Relu"} : (tensor<1x4096xf32>) -> tensor<1x4096xf32>
    %69 = "onnx.Gemm"(%68, %30, %31) {alpha = 1.000000e+00 : f32, beta = 1.000000e+00 : f32, onnx_node_name = "/classifier/classifier.6/Gemm", transA = 0 : si64, transB = 1 : si64} : (tensor<1x4096xf32>, tensor<1000x4096xf32>, tensor<1000xf32>) -> tensor<1x1000xf32>
    return %69 : tensor<1x1000xf32>
  }
  "onnx.EntryPoint"() {func = @main_graph} : () -> ()
}
